m_5_ver1/Loss_adaptive/8_28_21h_Training_5.pt (torch, 337961 bytes, 13 tensors)

hidden_layer_u1.0.weight f4 [128, 2]
0.055460818 -5.1672072 -0.35213646 -3.1380227 0.60728735 -0.3047587 0.7148792 -0.91128397
0.055198386 3.9795988 0.6851908 1.1514813 -0.17973642 -0.1920905 0.60399395 -1.6705729
0.14236169 6.6280365 0.5921625 -2.636876 -0.46729407 -1.5202823 0.047147483 3.5714078
-0.36980745 -2.7491293 0.29824287 5.3134775 -0.61460596 -1.219152 -0.20093676 0.88696903
0.69112927 -1.838688 -0.4448439 2.179612 0.18509413 -2.3716495 -0.0204342 -4.2678494
-0.68129075 1.3147626 -0.26097494 -4.8834825 -0.7373566 0.42341363 -0.39934108 -1.6059732
-0.49656817 -0.5268776 0.058408897 -0.36560243 0.6282838 -0.4642874 -0.10223001 -4.2108707
-0.37088078 1.2112341 0.7466508 1.5687957 -0.14600864 6.455891 -0.31516102 -1.7742496
0.0027100486 2.7300994 0.30673912 -4.9030666 -0.24404702 -6.0342474 0.112878464 -5.617873
0.21630196 -6.2305527 -0.5744688 2.1577046 0.27178216 1.7980249 0.23863825 -4.9394474
-0.24728732 -0.6882998 0.43184438 1.5419289 0.049612254 -7.648991 -0.52364886 0.5173231
0.4384735 1.0741985 0.18538113 -2.1888087 -0.17431495 -6.4950304 -0.6701821 -2.100941
-0.36024228 1.4245628 0.34603065 -3.9947832 -0.207509 -2.5310984 -0.5128865 -0.5734905
-0.001957778 -1.6957502 0.36493242 -4.515704 0.31195846 1.2578762 -0.22181712 1.4915029
-0.12411011 0.9576612 -0.1047647 -4.2020106 -0.61676973 1.0812434 0.284178 5.4782357
0.4347119 -1.9059619 0.4784439 1.9080559 0.58272034 2.8246214 -0.39655605 2.6830242
0.2594272 -1.8820419 -0.39832917 -3.3310983 0.5274275 -3.3235548 -0.5952229 0.74974465
0.2523333 -3.3966053 0.49401015 1.8026055 0.52447695 -1.7252486 -0.295075 -2.8545396
-0.0054781283 -4.2791276 0.49307263 4.1017857 -0.6003282 0.35535753 0.26071244 5.5050898
-0.14739007 -2.852017 -0.57448566 0.5845203 -0.58393055 -2.9400332 -0.048770126 5.9279284
0.3933333 1.6099834 0.4804553 -1.8421742 -0.33105186 -0.8350758 0.456952 1.3209649
-0.20371825 -5.90876 -0.0047070235 1.5579146 -0.021284826 -3.6040192 0.51450294 2.4661376
-0.6083941 0.062041335 -0.11255462 3.8938992 0.21629688 -5.7376904 0.46325156 -0.58028084
-0.17094539 4.016695 0.09145922 3.1377168 -0.527133 -3.3458486 -0.01562522 -4.372199
-0.17992674 6.083422 -0.4467262 1.5118047 -0.60776335 -0.21092823 -0.0010617917 -1.9126403
0.020763185 -2.4265497 -0.06613363 5.773089 0.1865074 0.68822086 -0.034901105 -0.32047185
-0.21392082 3.8217142 -0.63268423 -1.2877821 0.27508414 -5.6053886 -0.593974 1.1095738
0.3612071 -4.3319907 -0.13944028 -0.35092074 0.34205216 0.26803577 -0.14373979 5.9196835
-0.15542556 6.616112 0.4072087 1.8143324 -0.06802874 4.1651134 -0.27254763 3.6002815
-0.71239793 -1.4447551 -0.17685309 -4.564698 -0.049815595 -6.419184 0.52344 2.2000012
-0.15033661 -2.703918 0.24165644 0.19879638 0.3008519 -0.641357 -0.546108 0.54835856
0.0019869725 0.18333802 -0.3722937 1.501589 0.22297727 -5.4149847 -0.71492046 -0.86820084
00000000: e22a 633d c359 a5c0 3b4b b4be 5dd5 48c0
00000010: 2f77 1b3f 5509 9cbe 5302 373f e849 69bf
00000020: b417 623d bfb1 7e40 aa68 2f3f bd63 933f
00000030: d30c 38be 5fb3 44be 599f 1a3f 55d5 d5bf
00000040: 43c7 113e e018 d440 f697 173f 94c2 28c0
00000050: 2b41 efbe 9c98 c2bf b81d 413d f291 6440
00000060: 6757 bdbe bcf1 2fc0 4ab3 983e 0208 aa40
00000070: d156 1dbf 2c0d 9cbf 5ec2 4dbe 6710 633f
00000080: d9ed 303f 215a ebbf 94c2 e3be c37e 0b40
00000090: 5189 3d3e 1bc9 17c0 a065 a7bc 3992 88c0
000000a0: 1269 2ebf 244a a83f 829e 85be 7d45 9cc0
000000b0: 67c3 3cbf acc9 d83e 6f76 ccbe 8890 cdbf
000000c0: 2f3e febe 73e1 06bf 2b3e 6f3d 3e30 bbbe
000000d0: 35d7 203f 14b7 edbe f85d d1bd 74bf 86c0
000000e0: 16e4 bdbe b809 9b3f 8224 3f3f 4cce c83f
000000f0: 4a83 15be a996 ce40 c95c a1be 9c1a e3bf
00000100: 129b 313b f3b9 2e40 e90c 9d3e ece5 9cc0
00000110: 76e7 79be 8e18 c1c0 d32c e73d 9ec5 b3c0
00000120: 437e 5d3e b060 c7c0 6310 13bf d517 0a40
00000130: 0827 8b3e ae25 e63f 965d 743e f40f 9ec0
00000140: e338 7dbe 6a34 30bf b51a dd3e ed5d c53f
00000150: 3836 4b3d 89c4 f4c0 da0d 06bf 496f 043f
00000160: 997f e03e 567f 893f 8dd4 3d3e 7115 0cc0
00000170: 9e7f 32be 4ad7 cfc0 0e91 2bbf d175 06c0
00000180: ad71 b8be 1358 b63f ee2a b13e 87aa 7fc0
00000190: 3d7d 54be 84fd 21c0 884c 03bf 46d0 12bf
000001a0: 104e 00bb 580e d9bf 6cd8 ba3e a680 90c0
000001b0: 05b9 9f3e 1602 a13f 0724 63be 91e9 be3f
000001c0: 712d febd 4929 753f e08e d6bd df76 86c0
000001d0: 9fe4 1dbf 2f66 8a3f c77f 913e b54d af40
000001e0: 8f92 de3e 8ff6 f3bf 99f6 f43e 2d3b f43f
000001f0: 292d 153f 99c6 3440 6509 cbbe abb6 2b40
00000200: a4d3 843e c0e6 f0bf cdf1 cbbe b730 55c0
00000210: 7d05 073f 1fb5 54c0 8760 18bf 44ef 3f3f
00000220: d531 813e fb61 59c0 e6ee fc3e c7bb e63f
00000230: 1f44 063f f2d4 dcbf 1214 97be c7b0 36c0
00000240: df81 b3bb 9dee 88c0 0474 fc3e d441 8340
00000250: 1caf 19bf 6cf1 b53e 1a7c 853e b229 b040
00000260: 6ced 16be 7287 36c0 7e11 13bf 1fa3 153f
00000270: 797c 15bf 8129 3cc0 2fc3 47bd 97b1 bd40
00000280: fb62 c93e f013 ce3f 3dfe f53e 5dcc ebbf
00000290: a17f a9be 87c7 55bf 9df5 e93e 6115 a93f
000002a0: 849b 50be 9014 bdc0 603d 9abb bf69 c73f
000002b0: 845d aebc 40a8 66c0 77b6 033f 33d5 1d40
000002c0: b7bf 1bbf 0e1f 7e3d 0983 e6bd a535 7940
000002d0: ee7c 5d3e 299b b7c0 4f2f ed3e 498d 14bf
000002e0: 4f0c 2fbe c488 8040 f94e bb3d 5ad0 4840
000002f0: 30f2 06bf 6222 56c0 7600 80bc 0ee9 8bc0
00000300: b73e 38be 65ab c240 4cb9 e4be d182 c13f
00000310: 6196 1bbf 92fd 57be d12b 8bba 66d1 f4bf
00000320: 8e17 aa3c 974c 1bc0 1271 87bd 25bd b840
00000330: ccfb 3e3e 3e2f 303f 76f4 0ebd e314 a4be
00000340: 0f0e 5bbe f796 7440 98f7 21bf 0bd6 a4bf
00000350: d4d7 8c3e 585f b3c0 ae0e 18bf 8406 8e3f
00000360: 23f0 b83e ab9f 8ac0 6fc9 0ebe e2ab b3be
00000370: 7621 af3e fc3b 893e 8630 13be 0c6e bd40
00000380: e127 1fbe 31b7 d340 a97d d03e 0b3c e83f
00000390: a752 8bbd 9c48 8540 5d8b 8bbe 036b 6640
000003a0: b65f 36bf bced b8bf fa18 35be 0212 92c0
000003b0: 700b 4cbd f569 cdc0 2a00 063f d2cc 0c40
000003c0: d7f1 19be fe0c 2dc0 c974 773e 4791 4b3e
000003d0: 4309 9a3e f92f 24bf bccd 0bbf 3a61 0c3f
000003e0: de37 023b f6bc 3b3e 489d bebe 1134 c03f
000003f0: 2754 643e 8e47 adc0 0705 37bf 6942 5ebf

hidden_layer_u1.0.bias f4 [128]
-0.012852013 0.084719524 -0.21527056 -0.27301392 0.060385533 -0.27914008 -0.09386249 -0.22158073
-0.05687584 -0.19350344 0.17267708 0.12943453 0.120354645 -0.17434075 0.2518642 0.04482486
-0.28394544 0.14295343 0.013693046 0.012883713 0.22901203 0.11946152 0.2849456 0.14433622
0.14309555 0.0675557 -0.22174215 0.042738404 -0.13906099 -0.34923476 0.041467417 -0.07622463
-0.003853534 -0.11069264 0.095474064 -0.03939174 -0.09543998 0.18157382 0.18634853 -0.06545569
-0.14562528 -0.0735077 -0.016707927 0.06987986 -0.17499228 0.06443919 0.070662834 0.28775415
0.043879896 -0.10105451 -0.18920222 0.18744966 0.0026209368 -0.1224413 -0.05282847 -0.11918179
0.019722776 -0.039480846 0.26724043 -0.114153974 -0.15493503 -0.18060036 -0.22293966 0.11871815
-0.024936033 0.14665556 -0.18846814 0.2069658 -0.07025194 -0.1848861 -0.18277058 -0.11694483
0.010191374 -0.22897358 0.22090916 -0.089857146 0.053009942 0.24099874 0.3296811 0.011830756
-0.14531009 -0.14118354 -0.07433915 -0.1888974 0.07140554 -0.0031605477 0.01479901 -0.2365626
0.23810004 -0.057932798 -0.26295432 -0.15457699 0.04201781 -0.027380612 0.22585733 0.00737531
0.059260942 0.14959003 0.21895492 0.0070147826 0.0021900202 0.016686687 -0.043947253 0.0076469867
-0.033500977 0.32780343 -0.08846613 0.24957135 -0.10869788 0.028455334 0.054803766 0.042195655
0.040343177 -0.1423939 0.010045764 0.07715041 0.28677738 0.039619595 0.03277091 -0.19899522
0.046250694 0.026964929 0.088219106 0.1801296 0.00052377174 0.010526674 -0.074891806 0.26199725
00000000: 4091 52bc 6e81 ad3d e36f 5cbe 7bc8 8bbe
00000010: d256 773d 73eb 8ebe fa3a c0bd 0fe6 62be
00000020: a4f6 68bd c425 46be 43d2 303e 7c8a 043e
00000030: 7f7c f63d 6286 32be 58f4 803e 469a 373d
00000040: 4c61 91be 6262 123e cc58 603c 3516 533c
00000050: 2182 6a3e 3ea8 f43d 64e4 913e e0cc 133e
00000060: a487 123e a55a 8a3d 6010 63be 770e 2f3d
00000070: 0166 0ebe e6ce b2be bdd9 293d a91b 9cbd
00000080: 938b 7cbb d3b2 e2bd e887 c33d 3c59 21bd
00000090: 0976 c3bd 7dee 393e 26d2 3e3e a20d 86bd
000000a0: cb1e 15be 348b 96bd 10df 88bc 2c1d 8f3d
000000b0: 2d31 33be b2f8 833d adb7 903d 8354 933e
000000c0: 68bb 333d abf5 cebd 3abe 41be cef2 3f3e
000000d0: 06c4 2b3b 81c2 fabd aa62 58bd 9515 f4bd
000000e0: a991 a13c abb6 21bd bdd3 883e 8fc9 e9bd
000000f0: 4aa7 1ebe 4def 38be 4b4a 64be 8022 f33d
00000100: a746 ccbc e02c 163e cbfd 40be d8ee 533e
00000110: 40e0 8fbd c852 3dbe 3628 3bbe c580 efbd
00000120: b9f9 263c 0d78 6abe 0336 623e 0607 b8bd
00000130: f420 593d 60c8 763e f6cb a83e cad5 413c
00000140: 2bcc 14be 6b92 10be 203f 98bd 526e 41be
00000150: 113d 923d 3121 4fbb 8c77 723c 773d 72be
00000160: 7fd0 733e f14a 6dbd f3a1 86be 6e49 1ebe
00000170: de1a 2c3d 4e4d e0bc 2547 673e 96ac f13b
00000180: 9abb 723d 212e 193e b835 603e 43dc e53b
00000190: 7186 0f3b 85b2 883c 0902 34bd 9393 fa3b
000001a0: 5238 09bd dad5 a73e bb2d b5bd a28f 7f3e
000001b0: fe9c debd 291b e93c ea79 603d 5ad5 2c3d
000001c0: e33e 253d b5cf 11be fd96 243c 0901 9e3d
000001d0: 7cd4 923e 2848 223d ca3a 063d 67c5 4bbe
000001e0: 5e71 3d3d 8ee5 dc3c 38ac b43d e573 383e
000001f0: ba4d 093a 1278 2c3c e060 99bd 8124 863e

hidden_layer_u1.1.weight f4 [128, 128]
-0.15289728 -0.0065203398 -0.059330042 0.090543285 0.03231547 -0.100998536 0.010511255 0.041027922
0.054336842 -0.07935402 0.101249725 -0.03512504 0.007457961 -0.08665959 0.044824384 -0.020546772
0.086874895 -0.053071935 0.014814301 0.068249576 -0.1489227 0.006697022 0.080154374 0.067648105
-0.18116802 0.1607212 0.11290988 -0.071863875 0.10685483 0.027813248 0.116905175 -0.14542519
0.024523959 -0.1290849 -0.08865919 0.04431981 -0.028163403 0.047188353 0.11156224 0.21060747
0.124034934 -0.11428342 0.07116539 -0.1794211 -0.1682482 -0.09961045 -0.052819777 0.10532467
-0.06740393 -0.12552628 -0.10640358 0.019374117 -0.032440666 -0.047817487 -0.067016296 0.07722929
0.05530358 -0.13354373 -0.10565071 0.12506327 -0.012125573 0.06024835 0.08455494 -0.15350483
-0.017035434 0.13600983 -0.12152283 0.12304121 -0.05277232 -0.09038093 0.14705817 -0.13308094
-0.20768844 -0.037208185 -0.057789147 0.107615374 -0.06431103 -0.011623461 0.08741267 0.22083522
0.055398826 0.0021640903 0.13878447 -0.07214986 -0.020537458 -0.24079567 -0.088924006 -0.09972796
0.11848387 -0.074971065 0.13430351 -0.03265866 0.09124827 -0.056916613 0.094705634 -0.09511211
0.049351405 -0.040002648 0.14664394 0.07927579 -0.07571844 0.048845567 0.09049581 0.27464136
-0.08204089 0.052212805 -0.02558145 -0.07327259 -0.054309405 0.15977657 0.10040731 0.2548908
-0.477515 -0.08702468 0.26612696 -0.06377493 0.05603719 0.052412774 -0.25398535 0.036930107
0.1204177 -0.14630295 0.06411021 0.132248 -0.084092684 0.052051064 -0.03196066 0.038022894
-0.03376867 -0.0498551 -0.14710386 -0.097371705 -0.10200485 -0.15009211 0.16246748 -0.07559069
-0.03979493 -0.10834301 -0.19324896 0.02247938 -0.10224459 0.03155793 0.11384764 -0.012243092
0.0119630825 0.12813532 -0.18731846 -0.021209609 -0.045186143 -0.15759319 -0.08233575 -0.12637414
-0.12219749 -0.08153709 0.04874864 -0.13842773 0.12663803 -0.04670848 0.09441792 -0.033946745
-0.07623867 0.021052849 0.039543863 0.16715625 0.0064211856 -0.063027605 0.017225983 0.1551216
0.04972639 -0.11671016 0.014837006 -0.15711072 0.027438164 0.030447759 -0.07248273 -0.07795122
-0.00810295 -0.110386066 -0.06272332 -0.14270504 -0.07845018 -0.015135405 0.028706944 0.061374094
0.0057300674 0.012917338 0.07063798 0.06816522 -0.094851695 -0.07976763 -0.12520824 -0.123663224
0.098071694 0.001858304 -0.02584421 -0.090341896 0.062468566 -0.065303035 -0.13835892 -0.05895766
0.15160784 -0.112815835 -0.08075632 -0.11917101 -0.007416727 -0.060428128 0.106159486 0.15084377
0.18330692 0.036886625 0.06308637 0.045715492 -0.1265378 -0.016238404 -0.02913896 0.086350515
-0.024208387 -0.07310629 0.003662264 -0.10681658 -0.135848 -0.13699012 -0.14989413 0.08492477
0.0630766 -0.15528579 0.13140357 0.13790172 -0.08368595 -0.05178583 -0.09551103 -0.15361382
0.019914212 0.07595763 -0.059690595 0.11982811 0.10023296 0.08237447 0.06865477 -0.04547707
-0.2314203 0.18250847 -0.09309515 -0.07109022 0.012784545 -0.021174222 0.14188118 0.14916804
-0.16488482 -0.14149207 -0.09253631 0.061535686 0.025448821 0.10776155 -0.083556555 -0.038952883
00000000: 1b91 1cbe 93a8 d5bb 0f04 73bd c26e b93d
00000010: 3a5d 043d 52d8 cebd 6637 2c3c e50c 283d
00000020: 4f90 5e3d 5c84 a2bd 045c cf3d 46df 0fbd
00000030: e961 f43b 957a b1bd c699 373d b451 a8bc
00000040: 77eb b13d f561 59bd afb7 723c 6fc6 8b3d
00000050: 317f 18be b172 db3b fa27 a43d 178b 8a3d
00000060: 1c84 39be 1994 243e 4c3d e73d 5e2d 93bd
00000070: b5d6 da3d 9cd8 e33c fb6b ef3d 57ea 14be
00000080: 78e6 c83c d52e 04be f392 b5bd b088 353d
00000090: f0b6 e6bc 9348 413d be7a e43d 7ca9 573e
000000a0: 0706 fe3d 6d0d eabd 29bf 913d 2aba 37be
000000b0: 4249 2cbe 9000 ccbd 8d59 58bd 76b4 d73d
000000c0: 120b 8abd f689 00be 1fea d9bd 78b6 9e3c
000000d0: 81e0 04bd 45dc 43bd d73f 89bd 642a 9e3d
000000e0: 0286 623d b0bf 08be 665f d8bd 9610 003e
000000f0: 57aa 46bc f9c6 763d 242b ad3d 5f30 1dbe
00000100: e58d 8bbc 2946 0b3e f6e0 f8bd 08fd fb3d
00000110: ca27 58bd a319 b9bd 6b96 163e 5f46 08be
00000120: 47ac 54be 9c67 18bd 50b4 6cbd 7365 dc3d
00000130: 80b5 83bd 5470 3ebc 6a05 b33d a122 623e
00000140: e1e9 623d 69d3 0d3b 841d 0e3e 4ec3 93bd
00000150: 2c3e a8bc 2493 76be ca1d b6bd 2c3e ccbd
00000160: aca7 f23d 6e8a 99bd dc86 093e 16c5 05bd
00000170: 5fe0 ba3d 6521 69bd 07f5 c13d 23ca c2bd
00000180: b324 4a3d d1d9 23bd d429 163e 585b a23d
00000190: 4512 9bbd 4a12 483d de55 b93d cb9d 8c3e
000001a0: 0e05 a8bd 18dd 553d 3090 d1bc f10f 96bd
000001b0: 8a73 5ebd 789c 233e 59a2 cd3d 0c81 823e
000001c0: d97c f4be ff39 b2bd cb41 883e 6e9c 82bd
000001d0: 4187 653d c7ae 563d 5e0a 82be 0644 173d
000001e0: 8e9d f63d 71d0 15be 374c 833d 056c 073e
000001f0: c938 acbd 7f33 553d 2ee9 02bd e5bd 1b3d
00000200: 0451 0abd dd34 4cbd 65a2 16be d16a c7bd
00000210: ebe7 d0bd bfb1 19be e05d 263e 4bcf 9abd
00000220: 0200 23bd f1e2 ddbd 0ee3 45be ad26 b83c
00000230: 9d65 d1bd e342 013d f428 e93d 4097 48bc
00000240: ce00 443c e835 033e 69d0 3fbe c6bf adbc
00000250: 1b15 39bd 1c60 21be a59f a8bd 3968 01be
00000260: ad42 fabd ebfc a6bd a7ac 473d 00c0 0dbe
00000270: 66ad 013e 6451 3fbd 2f5e c13d be0b 0bbd
00000280: 0523 9cbd 0677 ac3c bff8 213d 022b 2b3e
00000290: cf68 d23b 9e14 81bd 811d 8d3c 32d8 1e3e
000002a0: e6ad 4b3d bd05 efbd ea16 733c a2e1 20be
000002b0: 00c6 e03c 946d f93c d371 94bd e4a4 9fbd
000002c0: 3cc2 04bc 1712 e2bd 1675 80bd 4521 12be
000002d0: 7daa a0bd 7dfa 77bc d32a eb3c 6763 7b3d
000002e0: 4ac3 bb3b 3ea3 533c a5aa 903d 359a 8b3d
000002f0: 9b41 c2bd 365d a3bd 9736 00be 2543 fdbd
00000300: d0d9 c83d 5692 f33a 3db7 d3bc 2c05 b9bd
00000310: 0adf 7f3d 99bd 85bd f6ad 0dbe 967d 71bd
00000320: 163f 1b3e fd0b e7bd 9263 a5bd ee0f f4bd
00000330: 0408 f3bb 7c83 77bd 256a d93d ca76 1a3e
00000340: cfb4 3b3e 6e16 173d 6d33 813d 2b40 3b3d
00000350: 2093 01be 6706 85bc d4b4 eebc 8ad8 b03d
00000360: ab50 c6bc c0b8 95bd 9802 703b a7c2 dabd
00000370: bd1b 0bbe 2347 0cbe d97d 19be 0aed ad3d
00000380: 4e2e 813d 3d03 1fbe a88e 063e 1c36 0d3e
00000390: 8a63 abbd 611d 54bd 499b c3bd f14c 1dbe
000003a0: 2123 a33c ad8f 9b3d 207e 74bd 7168 f53d
000003b0: f046 cd3d f2b3 a83d df9a 8c3d 2a46 3abd
000003c0: 71f9 6cbe 80e3 3a3e aca8 bebd c097 91bd
000003d0: 4576 513c 9075 adbc 4d49 113e 82bf 183e
000003e0: 91d7 28be 4ce3 10be ad83 bdbd d80c 7c3d
000003f0: 0c7a d03c 16b2 dc3d b31f abbd 0f8d 1fbd

hidden_layer_u1.1.bias f4 [128]
-0.0707671 0.052944276 0.040926136 -0.017977465 0.010363598 -0.029909808 -0.062570155 -0.040069178
0.009429533 0.039126858 0.018927762 0.04319287 -0.02773637 0.082099654 -0.054297928 -0.020989237
0.05529798 0.052694276 0.016018806 -0.20629863 0.124821596 0.04382747 -0.017573887 -0.06639463
0.030376563 0.060572807 0.021996392 -0.013110436 0.05880276 -0.08083405 -0.08450759 -0.01628329
-0.03296244 -0.001881311 -0.013938463 0.28286254 0.034586 0.034789283 0.10087652 -0.0033573864
0.018471338 0.032412466 -0.06318193 -0.04371443 0.004607166 -0.017642254 -0.064779475 0.0057461984
-0.05660143 0.069379374 -0.05916907 0.01631038 0.0572499 -0.18632466 0.00444099 0.00952887
0.33125713 0.05912156 -0.06638445 -0.046529442 0.052477732 0.010396785 -0.017509045 0.059087172
-0.04565242 0.016348066 0.024141068 0.015623644 0.0637651 0.04507278 0.03741919 -0.07221961
0.025171136 0.030048205 0.01278107 -0.04183853 -0.0070729824 -0.05371391 -0.024518821 -0.0021469705
0.034651496 -0.075299606 -0.04619709 0.053758733 0.05547751 0.033073787 -0.1381189 0.024296135
0.054475415 0.05822097 0.05260142 -0.017355995 -0.091072984 -0.062317275 -0.09260535 -0.072230995
-0.044871803 -0.0070815072 0.18563734 -0.050861444 0.053822152 0.037684105 0.025690116 -0.022548586
-0.20973767 -0.048810437 -0.035892013 0.03313766 0.078603595 -0.04348542 -0.07035493 0.0796073
0.048381206 0.054568242 -0.031081334 0.017231107 -0.03941638 -0.07675715 -0.005871147 0.0065260343
0.035899498 0.05309795 0.049657527 0.040330317 0.02454165 -0.069955416 -0.055313185 0.03948987
00000000: 57ee 90bd 19dc 583d 2aa2 273d 7a45 93bc
00000010: 15cc 293c 6a05 f5bc c824 80bd 941f 24bd
00000020: 547e 1a3c 7c43 203d 650e 9b3c 02eb 303d
00000030: 6237 e3bc dd23 a83d 8167 5ebd 9ff1 abbc
00000040: 2280 623d f4d5 573d df39 833c f33f 53be
00000050: 77a2 ff3d 6f84 333d 1df7 8fbc e8f9 87bd
00000060: 45d8 f83c 311b 783d c731 b43c 27cd 56bc
00000070: 2adb 703d 538c a5bd 5112 adbd 8964 85bc
00000080: a003 07bd 5296 f6ba 275e 64bc 5cd3 903e
00000090: 0daa 0d3d 357f 0e3d 5998 ce3d 9907 5cbb
000000a0: 3451 973c efc2 043d 8765 81bd e70d 33bd
000000b0: b6f7 963b 7d86 90bc 1aab 84bd 9b4a bc3b
000000c0: e7d6 67bd c616 8e3d 445b 72bd 599d 853c
000000d0: df7e 6a3d e4cb 3ebe b985 913b fa1e 1c3c
000000e0: 899a a93e 7329 723d 92f4 87bd a895 3ebd
000000f0: e4f2 563d 4757 2a3c 216f 8fbc 6405 723d
00000100: 08fe 3abd 61ec 853c 7dc3 c53c 50fa 7f3c
00000110: 4797 823d 3c9e 383d dd44 193d e0e7 93bd
00000120: b333 ce3c a727 f63c b167 513c e15e 2bbd
00000130: 7ac4 e7bb 1e03 5cbd b2db c8bc 30b4 0cbb
00000140: baee 0d3d ae36 9abd 2939 3dbd 1e32 5c3d
00000150: 633c 633d 6178 073d 0a6f 0dbe b008 c73c
00000160: 9d21 5f3d 1d79 6e3d 9674 573d 292e 8ebc
00000170: 7984 babd 6640 7fbd e0a7 bdbd d8ed 93bd
00000180: 7fcb 37bd fd0b e8bb b717 3e3e 1754 50bd
00000190: 9e74 5c3d a65a 1a3d 1474 d23c d0b7 b8bc
000001a0: 79c5 56be 74ed 47bd 8103 13bd 5bbb 073d
000001b0: ecfa a03d c51d 32bd 3f16 90bd 2709 a33d
000001c0: 5f2b 463d f382 5f3d 489e febc 4028 8d3c
000001d0: 1273 21bd da32 9dbd c062 c0bb 58d8 d53b
000001e0: 5a0b 133d 3c7d 593d b165 4b3d 6731 253d
000001f0: 920b c93c c944 8fbd 1490 62bd 21c0 213d

hidden_layer_u1.2.weight f4 [128, 128]
-0.047284115 -0.031977035 0.04497893 0.06873179 -0.14940988 0.015674623 -0.0008502898 0.019563789
-0.011915066 -0.013405123 0.0047692396 0.022241864 0.13461654 0.05177509 -0.053139374 0.12777308
0.01746179 -0.0532413 -0.067649715 -0.09012157 0.054207534 -0.034199342 0.0036516595 0.012865509
-0.046213493 0.03623223 0.0018560694 0.12728025 0.03164175 0.01806174 -0.002458433 0.044005387
0.062730856 -0.054530732 -0.081108056 -0.049629074 0.0007874009 -0.08863702 -0.0498979 -0.06341587
0.013681114 -0.04653149 -0.009084435 0.015796712 -0.0024062546 -0.010156355 -0.014988465 -0.010239722
0.027809104 0.06567903 -0.08909398 -0.13003023 0.04966062 0.057758655 -0.08177515 -0.0020112358
0.04581206 0.0884551 0.02571633 -0.038708393 0.045641515 -0.061581396 0.009292793 -0.08401547
-0.058198802 0.1822717 -0.04310815 0.037553094 0.0066138264 0.0008569351 -0.017077466 0.05330322
-0.0024816499 0.061031114 -0.017971277 -0.07867008 -0.06787879 0.16550882 -0.055683568 -0.028169917
-0.17100647 0.11729056 -0.02452147 -0.06797336 -0.06606038 0.03615314 0.08464684 0.052033834
0.059022877 -0.026667245 0.0033214944 -0.051071644 -0.062439594 -0.08349689 -0.09900818 0.07468358
-0.006248485 0.10079875 -0.051319458 0.083122216 0.02613549 0.0133928815 0.014334944 0.0076960362
-0.13511406 -0.09921682 0.07161296 -0.04324554 0.023429347 0.090531535 0.15109174 0.026596779
-0.1024865 0.043507148 -0.18931569 -0.00897751 -0.04927118 0.022477461 -0.014225719 -0.011178828
0.03245717 0.039564542 0.03226657 -0.019661622 -0.11234391 0.036463585 -0.05874463 -0.047001056
-0.002384349 -0.09635981 0.05841809 0.0023201047 -0.16612928 -0.024582202 0.012134222 0.028495908
0.00016083928 -0.04585735 0.01852596 0.10594171 -0.053146623 -0.05046624 -0.08527197 -0.19743152
0.08780004 -0.022104863 0.01543275 0.08037479 0.19116786 0.026078964 -0.0035526713 -0.041362908
-0.036565866 -0.04576217 -0.036280345 0.17152216 -0.06735042 -0.025914997 -0.020355422 0.028501473
0.06518907 0.02481628 0.006657873 -0.12854502 -0.09941892 0.021792263 0.0073047257 0.0007300299
-0.017388407 0.004251009 -0.033345778 -0.07214289 -0.030091833 0.028101481 -0.087864004 -0.03397661
-0.015663033 -0.041645136 -0.015708199 0.22111256 -0.06996176 -0.12525818 -0.0015825668 0.06503886
-0.0822915 0.04956463 -0.042665187 -0.033952005 -0.10119771 -0.009285599 0.054570023 -0.025298603
-0.003099533 0.09280033 -0.044566076 -0.1559769 0.17763667 -0.053361364 -0.011328573 -0.068480715
0.098221995 0.036674317 0.079679936 0.13585985 -0.17461431 -0.014623874 -0.05061565 -0.031210264
0.41671604 -0.024450691 -0.015711902 -0.041950688 -0.08886214 0.0034493997 -0.095731355 0.023884784
-0.028882891 0.18538688 -0.011279791 0.06386837 -0.06317167 0.014431605 -0.16650128 -0.2781675
-0.061760265 -0.036996193 -0.04474416 -0.104031034 0.012541347 -0.038536705 0.04051778 -0.04666392
-0.020066133 0.023131121 -0.04226919 -0.015844472 0.023446387 0.02821252 -0.05886268 0.035230726
0.059979204 -0.0043629566 -0.113952115 0.064561725 -0.07132643 -0.014373735 -0.058349498 -0.041335452
-0.010962168 -0.028288728 -0.056194417 -0.02522464 -0.06641588 0.016115757 0.015372623 -0.060604643
00000000: fdac 41bd 5afa 02bd d43b 383d 41c3 8c3d
00000010: e7fe 18be 1168 803c fce5 5eba 3d44 a03c
00000020: 6937 43bc 29a1 5bbc 4847 9c3b 9234 b63c
00000030: ebd8 093e 1e12 543d aca8 59bd f2d6 023e
00000040: 070c 8f3c 8d13 5abd ef8b 8abd a891 b8bd
00000050: b808 5e3d 9c14 0cbd ae50 6f3b dbc9 523c
00000060: 5c4a 3dbd 3f68 143d 5b47 f33a c155 023e
00000070: c89a 013d 37f6 933c a91d 21bb fe3e 343d
00000080: 0979 803d 9e5b 5fbd fb1b a6bd db47 4bbd
00000090: 9469 4e3a 5387 b5bd be61 4cbd 2ee0 81bd
000000a0: c026 603c ce97 3ebd e2d6 14bc 1b68 813c
000000b0: 41b2 1dbb d766 26bc 2e92 75bc 82c4 27bc
000000c0: ebcf e33c ba82 863d e876 b6bd a526 05be
000000d0: ef68 4b3d 5794 6c3d bb79 a7bd f0ce 03bb
000000e0: 6da5 3b3d f327 b53d 0eab d23c b18c 1ebd
000000f0: 99f2 3a3d c63c 7cbd cd40 183c 4e10 acbd
00000100: de61 6ebd 6fa5 3a3e 2c92 30bd 46d1 193d
00000110: ccb8 d83b f1a3 603a 0be6 8bbc 7a54 5a3d
00000120: 2da3 22bb c3fb 793d 8038 93bc c71d a1bd
00000130: 0904 8bbd 257b 293e 7414 64bd 99c4 e6bc
00000140: 521c 2fbe 0836 f03d 40e1 c8bc 9e35 8bbd
00000150: aa4a 87bd 5115 143d 535b ad3d 6e21 553d
00000160: f9c1 713d 4475 dabc 6ead 593b 8030 51bd
00000170: a9c0 7fbd 6b00 abbd cdc4 cabd b4f3 983d
00000180: 17c0 ccbb 936f ce3d 5a34 52bd fb3b aa3d
00000190: 181a d63c d16d 5b3c 1ddd 6a3c 082f fc3b
000001a0: 575b 0abe 3032 cbbd d1a9 923d 3c22 31bd
000001b0: e7ee bf3c 9968 b93d cbb7 1a3e 7de1 d93c
000001c0: 71e4 d1bd 8d34 323d f9db 41be 6816 13bc
000001d0: 94d0 49bd a722 b83c fd12 69bc 6727 37bc
000001e0: cff1 043d 6e0e 223d f329 043d 6911 a1bc
000001f0: 9014 e6bd d75a 153d 369e 70bd 2e84 40bd
00000200: bd42 1cbb 4b58 c5bd cf47 6f3d e60c 183b
00000210: cb1d 2abe 9d60 c9bc 9ece 463c 4070 e93c
00000220: f7a6 2839 ebd4 3bbd c1c3 973c f8f7 d83d
00000230: 46b0 59bd b0b5 4ebd 12a3 aebd 7d2b 4abe
00000240: 82d0 b33d 4215 b5bc a5d9 7c3c 8a9b a43d
00000250: 82c1 433e 8da3 d53c efd3 68bb 276c 29bd
00000260: 17c6 15bd 1d71 3bbd b39a 14bd 81a3 2f3e
00000270: 04ef 89bd b04b d4bc 6ac0 a6bc ec7b e93c
00000280: d981 853d 834b cb3c 492a da3b 4ea1 03be
00000290: 269c cbbd b085 b23c 7b5c ef3b 7a5f 3f3a
000002a0: 2272 8ebc 0c4c 8b3b 9595 08bd a7bf 93bd
000002b0: 2683 f6bc 1435 e63c 0bf2 b3bd 0f2b 0bbd
000002c0: c34f 80bc 1794 2abd 7bae 80bc 556b 623e
000002d0: 1c48 8fbd ae43 00be 216e cfba 1833 853d
000002e0: 7288 a8bd 4804 4b3d b1c1 2ebd 4211 0bbd
000002f0: bf40 cfbd a022 18bc d184 5f3d 043f cfbc
00000300: 8921 4bbb 190e be3d eb8a 36bd 69b8 1fbe
00000310: 63e6 353e 7291 5abd 7b9b 39bc 9e3f 8cbd
00000320: 9d28 c93d cf37 163d 3c2f a33d d81e 0b3e
00000330: 18ce 32be f998 6fbc 5b52 4fbd abac ffbc
00000340: ce5b d53e d14c c8bc 3fb6 80bc 7cd4 2bbd
00000350: 5bfd b5bd 530f 623b cd0e c4bd 06aa c33c
00000360: d09b ecbc 0fd6 3d3e dfce 38bc 6ccd 823d
00000370: 2660 81bd 8a72 6c3c 507f 2abe f86b 8ebe
00000380: 55f8 7cbd 5289 17bd a745 37bd 390e d5bd
00000390: 397a 4d3c aad8 1dbd f9f5 253d ab22 3fbd
000003a0: bb61 a4bc 7a7d bd3c 7522 2dbd 44cc 81bc
000003b0: a312 c03c f11d e73c fe19 71bd 184e 103d
000003c0: c1ac 753d 22f7 8ebb ba5f e9bd f038 843d
000003d0: 9713 92bd d07f 6bbc e2ff 6ebd 5d4f 29bd
000003e0: aa9a 33bc c3bd e7bc 1e2c 66bd e7a3 cebc
000003f0: 0d05 88bd 3105 843c 74dd 7b3c 933c 78bd

hidden_layer_u1.2.bias f4 [128]
-0.073655464 -0.034816 0.0057062143 0.080722876 -0.15200077 -0.18893255 -0.04730236 0.0008947444
-0.038535606 -0.04307522 0.0028311776 0.020162549 -0.1870201 0.05023957 -0.08019184 0.19952115
-0.08236233 -0.021101749 -0.02974794 0.04143852 0.11152571 0.04288828 0.010332057 0.11854672
-0.056460608 -0.018723145 -0.22706318 -0.037297636 -0.09765761 0.06111683 0.053355496 0.36620533
0.017482322 -0.099917166 0.13796635 -0.06374937 -0.012662238 -0.008718238 0.212197 0.08766995
0.08112419 -0.030103665 -0.01965507 -0.06493886 0.397447 -0.027589114 0.080207005 0.044737868
0.0040528546 -0.03041818 0.035354827 -0.04634463 -0.040834747 -0.069737524 -0.06834291 -0.037739877
-0.07455294 0.07958569 0.009424651 0.1322408 -0.07370703 0.11434293 -0.06397925 0.00017612861
-0.12510213 0.058376785 0.041760717 0.106759846 -0.022325946 0.032039557 -0.020457197 -0.04928218
-0.10924943 0.04694931 -0.030804364 -0.12297523 0.06147483 0.01797102 0.04487757 -0.12472914
-0.0022441351 -0.034507923 0.016716637 -0.26656756 -0.14832087 -0.057904094 0.03185655 0.10227174
0.016563397 -0.12106596 -0.030101202 0.012527804 -0.06348658 0.087896906 0.036484808 0.014023502
-0.2000845 -0.0024935703 -0.060691763 0.06047028 0.008037287 -0.36314493 -0.045200605 -0.006529336
-0.0044700317 -0.04327393 -0.010614604 -0.059934694 0.06668201 0.29457957 -0.11129487 -0.16871892
0.03403933 -0.0450961 -0.10578719 0.06361243 -0.1175664 0.024274798 0.03633688 -0.033113167
-0.09447318 0.056087237 0.04482508 0.10684653 0.0001885889 -0.0499215 -0.10038091 0.054664236
00000000: add8 96bd 399b 0ebd 32fb ba3b 0952 a53d
00000010: 17a6 1bbe 8977 41be 1fc0 41bd 488d 6a3a
00000020: 83d7 1dbd a46f 30bd 478b 393b ee2b a53c
00000030: 3282 3fbe 02c8 4d3d 9f3b a4bd 464f 4c3e
00000040: 95ad a8bd 93dd acbc f4b1 f3bc 70bb 293d
00000050: 9767 e43d 9fab 2f3d ca47 293c 9fc8 f23d
00000060: 3d43 67bd 4861 99bc 4083 68be 68c5 18bd
00000070: b700 c8bd a455 7a3d 4b8b 5a3d 447f bb3e
00000080: 1637 8f3c 5fa1 ccbd 0d47 0d3e 088f 82bd
00000090: 4775 4fbc f1d6 0ebc 2c4a 593e 4e8c b33d
000000a0: 7024 a63d f69b f6bc ab03 a1bc aafe 84bd
000000b0: 2c7e cb3e 9102 e2bc 9243 a43d 0e3f 373d
000000c0: cfcd 843b 8c2f f9bc 39d0 103d ded3 3dbd
000000d0: 5642 27bd 8cd2 8ebd 5ef7 8bbd 2195 1abd
000000e0: 36af 98bd d2fd a23d da69 1a3c 226a 073e
000000f0: b6f3 96bd a02c ea3d 8e07 83bd 2aaf 3839
00000100: c61a 00be 7f1c 6f3d 490d 2b3d e8a4 da3d
00000110: e7e4 b6bc e93b 033d da95 a7bc 1cdc 49bd
00000120: 2abe dfbd eb4d 403d 6f59 fcbc 70da fbbd
00000130: 08cd 7b3d f637 933c 8bd1 373d fe71 ffbd
00000140: 5712 13bb 2e58 0dbd 54f1 883c 8b7b 88be
00000150: 6de1 17be d82c 6dbd 047c 023d d973 d13d
00000160: f6af 873c 6ef1 f7bd cc96 f6bc 6b41 4d3c
00000170: 4105 82bd 4b03 b43d 1871 153d d5c2 653c
00000180: f3e2 4cbe 2b6b 23bb ed97 78bd afaf 773d
00000190: d3ae 033c 22ee b9be 4524 39bd 0af4 d5bb
000001a0: 5879 92bb 0140 31bd e0e8 2dbc 157e 75bd
000001b0: 9490 883d 22d3 963e 91ee e3bd a7c4 2cbe
000001c0: d36c 0b3d b0b6 38bd f4a6 d8bd 3c47 823d
000001d0: a7c6 f0bd f1db c63c fbd5 143d aca1 07bd
000001e0: 287b c1bd bbbb 653d 819a 373d 5bd2 da3d
000001f0: f3bf 4539 7d7a 4cbd 8294 cdbd 9be7 5f3d

hidden_layer_u1.3.weight f4 [128, 128]
-0.21642126 0.31101075 0.11288444 0.09961297 1.8987515 0.32806805 -0.22869283 0.06448258
0.07446451 0.34135833 0.61115855 0.08666146 -0.20765316 -0.30789357 -0.05362959 -0.021337358
-0.04036544 0.018920112 0.0601114 0.029551107 0.08979926 0.15498716 -0.8033307 -0.22734691
-0.0021875903 0.21884462 0.30161953 -0.059274234 -0.06416428 -0.13519241 -0.102527805 -0.14663085
0.007813459 -0.37205374 -0.08010918 0.07968267 0.10156941 0.31569266 -0.18644428 0.31437728
-0.21106644 -0.0074900887 0.09347105 -0.06715489 -2.57738 -0.11084875 0.20036407 -0.05754631
-0.021982782 0.14305437 -0.33957252 -0.010299042 0.051718257 0.21648319 -0.0047828797 -0.14693578
-0.028437573 0.15066376 0.0914614 0.09413911 0.2126132 -0.020352833 0.02579385 0.22051845
-0.4647814 0.09052165 0.028358199 -0.17872381 -0.08968182 -0.061285634 0.11207735 -0.26519883
0.106828496 -0.03136769 0.038662575 -0.14531663 -0.19098257 0.0152167985 -0.03848687 -0.36676964
-0.04849756 -0.017881893 0.024370061 0.46064693 0.21842338 -0.10485111 -0.119957946 -0.06528023
-0.07580114 -0.17237467 0.156336 -0.016633278 0.005703134 -0.107216574 -0.1013578 -0.15444893
0.38046116 0.070807196 -0.1413183 0.04774312 -0.09847416 0.3129268 0.5701803 0.004274931
-0.12124024 0.1728426 -0.014546261 -0.018300138 0.05709845 -0.27769178 0.26019195 -0.301685
-0.08204949 0.043342467 -0.30306664 0.09713463 0.007151765 -0.09548511 0.0006836533 -0.091867685
0.16334671 -0.23517454 -0.08264545 -0.19095272 -0.04708618 -0.10963795 0.046569526 0.058411807
0.08751833 0.15448578 -0.014636451 -0.021462193 0.03059228 -0.20973514 -0.047955785 -0.061091844
0.043587994 -0.03947342 0.137097 0.031216156 0.008687951 0.1762448 -0.011888373 0.05014156
0.0062938984 -0.10147837 -0.07933953 -0.090567864 -0.04200806 -0.16330631 -0.20068231 0.01574489
0.04819364 0.10444273 -0.13687791 -0.04424483 -0.11886707 0.06927818 0.007149065 -0.041176967
-0.01992245 -0.05527467 0.075062156 -0.096478865 0.012540303 0.0527084 0.028427584 0.033056755
-0.03342553 0.00951101 -0.05453592 0.025814585 0.058206126 0.0424423 0.06347066 0.054877467
0.10365832 -0.0030508898 -0.1559857 -0.040805697 0.06790538 -0.09731993 0.048856296 -0.075969175
0.066978194 -0.0065157367 0.028926127 0.0034208829 0.053915538 -0.055738647 -0.013639436 -0.021974273
-0.08682974 0.031217447 -0.015501549 0.12762126 0.07432145 0.08666556 0.008544965 -0.0021859712
-0.030375075 0.024920315 -0.018916512 -0.027814522 0.019180913 -0.008758558 0.03288218 -0.11304526
-0.062265724 0.072267905 0.104977176 0.008438794 -0.058620572 -0.02132009 0.052738354 0.009580581
-0.088785455 0.0627013 0.04374587 -0.028786693 0.07479221 0.087729365 0.016201736 0.020540668
0.066514485 -0.049159262 -0.018591365 0.022231586 -0.015902031 0.12513828 0.071803525 0.119386144
-0.05731906 -0.044071097 0.1196118 0.108518094 -0.12769033 0.044130195 0.011567541 0.04428555
-0.083340585 0.078514546 -0.0066684666 -0.09496367 -0.022748629 -0.048465297 -0.013297766 0.07269442
0.14342521 0.008673966 0.053909466 -0.01418206 -0.005104019 -0.105315365 -0.01050969 -0.022724738
00000000: 899d 5dbe cd3c 9f3e f52f e73d e301 cc3d
00000010: 4a0a f33f 89f8 a73e 742e 6abe 710f 843d
00000020: d980 983d 85c6 ae3e e374 1c3f 907b b13d
00000030: 08a3 54be 3aa4 9dbe b3aa 5bbd afcb aebc
00000040: 3b56 25bd 5afe 9a3c 5f37 763d 2a15 f23c
00000050: ade8 b73d f4b4 1e3e 15a7 4dbf a1cd 68be
00000060: ad5d 0fbb ce18 603e e06d 9a3e 8ac9 72bd
00000070: 9068 83bd e16f 0abe 19fa d1bd 6626 16be
00000080: 0604 003c d47d bebe 4810 a4bd ab30 a33d
00000090: 9f03 d03d 78a2 a13e 40eb 3ebe 0ff6 a03e
000000a0: cd21 58be 6b6f f5bb c06d bf3d 8188 89bd
000000b0: cbf3 24c0 ab04 e3bd 3d2c 4d3e aeb5 6bbd
000000c0: 3c15 b4bc d87c 123e 73dc adbe 50bd 28bc
000000d0: 86d6 533d c5ad 5d3e b4b9 9cbb 5576 16be
000000e0: eaf5 e8bc 9a47 1a3e 1d50 bb3d 01cc c03d
000000f0: 46b7 593e fcba a6bc a04d d33c 97cf 613e
00000100: d4f7 edbe 6a63 b93d 744f e83c 6003 37be
00000110: 1aab b7bd a506 7bbd cf88 e53d 24c8 87be
00000120: e6c8 da3d 687b 00bd a65c 1e3d e2cd 14be
00000130: ef90 43be e14f 793c 68a4 1dbd 3bc9 bbbe
00000140: 61a5 46bd 0c7d 92bc b9a3 c73c ead9 eb3e
00000150: 61aa 5f3e 2ebc d6bd 83ac f5bd a4b1 85bd
00000160: a13d 9bbd fc82 30be 8b16 203e 8342 88bc
00000170: 5be1 ba3b 5d94 dbbd ae94 cfbd dc27 1ebe
00000180: cecb c23e 5d03 913d bfb5 10be 4a8e 433d
00000190: d2ac c9bd f137 a03e 56f7 113f b814 8c3b
000001a0: ce4c f8bd a7fd 303e 7153 6ebc 2cea 95bc
000001b0: 10e0 693d 9e2d 8ebe e137 853e 7576 9abe
000001c0: 9009 a8bd df87 313d 8d2b 9bbe 85ee c63d
000001d0: 5a59 ea3b b38d c3bd 3237 333a 2025 bcbd
000001e0: 5c44 273e 98d1 70be 0542 a9bd 1c89 43be
000001f0: 70dd 40bd dd89 e0bd b0bf 3e3d 3841 6f3d
00000200: cf3c b33d 8531 1e3e bacd 6fbc 7bd1 afbc
00000210: a99c fa3c cfc4 56be 496d 44bd 713b 7abd
00000220: 5389 323d e1ae 21bd 2863 0c3e 06b9 ff3c
00000230: e857 0e3c 8479 343e 73c7 42bc 3d61 4d3d
00000240: 0c3d ce3b e4d3 cfbd c37c a2bd a57b b9bd
00000250: a510 2cbd c539 27be aa7f 4dbe 6dfb 803c
00000260: b266 453d 12e6 d53d b929 0cbe 113a 35bd
00000270: 9470 f3bd b8e1 8d3d b442 ea3b 2ea9 28bd
00000280: 6834 a3bc b167 62bd 30ba 993d b696 c5bd
00000290: d875 4d3c c3e4 573d f7e0 e83c 8566 073d
000002a0: 35e9 08bd 11d4 1b3c 0f61 5fbd 1c79 d33c
000002b0: 8c69 6e3d fad7 2d3d e8fc 813d 32c7 603d
000002c0: d04a d43d 70f1 47bb b7ba 1fbe e023 27bd
000002d0: fa11 8b3d ac4f c7bd 8a1d 483d ba95 9bbd
000002e0: dd2b 893d f681 d5bb 7cf6 ec3c e430 603b
000002f0: 8ad6 5c3d 354e 64bd f177 5fbc 6403 b4bc
00000300: cad3 b1bd bbbb ff3c 35fa 7dbc 26af 023e
00000310: d835 983d b77d b13d 2e00 0c3c 8342 0fbb
00000320: 26d5 f8bc b025 cc3c cdf6 9abc 48db e3bc
00000330: 4a21 9d3c 0e80 0fbc 77af 063d 4684 e7bd
00000340: 580a 7fbd 3201 943d 46fe d63d de42 0a3c
00000350: 201c 70bd 78a7 aebc 2c04 583d dff7 1c3c
00000360: 26d5 b5bd 8a69 803d df2e 333d 12d2 ebbc
00000370: a82c 993d 74ab b33d 81b9 843c e744 a83c
00000380: bf38 883d 395b 49bd eb4c 98bc 041f b63c
00000390: fa44 82bc 4024 003e ba0d 933d b980 f43d
000003a0: 64c7 6abd e583 34bd 08f7 f43d bc3e de3d
000003b0: 41c1 02be ddc1 343d c985 3d3c c464 353d
000003c0: 78ae aabd 3ccc a03d 2783 dabb 507c c2bd
000003d0: 555b babc 8c83 46bd e0de 59bc d0e0 943d
000003e0: 0fde 123e 401d 0e3c 2cd0 5c3d df5b 68bc
000003f0: 9d3f a7bb 95af d7bd d630 2cbc 3b29 babc

hidden_layer_u1.3.bias f4 [128]
-0.26537937 0.091748185 0.10993469 0.05451699 0.048345037 0.052385367 -0.30006889 -0.0865475
-0.17748685 0.26854527 0.28563312 0.017310845 -0.27352694 0.09730187 0.12720287 -0.041705616
0.04075071 0.041522805 0.11439439 0.0047821496 0.18057942 -0.20252055 -0.045620818 -0.22423887
0.03812926 -0.20813532 -0.15130843 0.121188916 0.2473723 0.16674411 0.078132346 -0.0876884
-0.2006753 0.10615659 -0.0390708 0.09929786 0.036190487 -0.051842377 0.168509 0.073706955
-0.030790687 0.18687436 -0.20725362 0.12430552 0.030034479 0.02714516 -0.09384493 0.07530316
0.097781986 -0.08159475 0.072677 -0.016322052 0.10781945 -0.1983491 -0.04139631 0.0043940977
0.21589942 -0.023859983 0.16796514 -0.03586981 0.0625265 -0.040409446 0.14635876 -0.20280012
-0.14463258 -0.09194822 -0.08729575 -0.30717152 -0.030407434 -0.10275342 0.004438206 -0.00352998
-0.181092 -0.14555927 -0.037865683 -0.04877468 0.41020355 -0.07645562 0.08035533 0.03419666
-0.026326625 -0.14405577 -0.10379215 0.137078 0.13025612 -0.14640786 -0.025559222 0.25094774
0.14291325 -0.12338527 0.10527086 -0.16673285 0.018934533 0.06833351 0.11093225 -0.04674224
0.040724523 -0.00018798783 -0.028986344 -0.0814186 -0.014151858 -0.28119037 0.0029520153 0.10092659
-0.1779816 0.01133256 0.066860184 -0.101869084 0.12121503 -0.02019484 0.02236814 -0.08504982
-0.022723848 0.112469226 0.22248973 0.25984216 0.23627995 0.074460894 -0.19156985 0.07833754
0.26678464 0.12173891 0.019695327 0.06804901 0.024476219 -0.08898543 0.056954443 0.0725069
00000000: cedf 87be 79e6 bb3d 7025 e13d 354d 5f3d
00000010: 7205 463d 0a92 563d a1a2 99be d13f b1bd
00000020: 1dbf 35be c47e 893e 813e 923e 79cf 8d3c
00000030: b90b 8cbe 3446 c73d 7841 023e 82d3 2abd
00000040: 37ea 263d d113 2a3d 9b47 ea3d 94b3 9c3b
00000050: d0e9 383e 8c61 4fbe e5dc 3abd e09e 65be
00000060: 6d2d 1c3d 6d21 55be 99f0 1abe e531 f83d
00000070: 2a4f 7d3e f8be 2a3e da03 a03d fa95 b3bd
00000080: d37d 4dbe a068 d93d b408 20bd ad5c cb3d
00000090: 7a3c 143d ac58 54bd a08d 2c3e acf3 963d
000000a0: c03c fcbc fe5b 3f3e 4b3a 54be e493 fe3d
000000b0: de0a f63c 875f de3c c531 c0bd 8b38 9a3d
000000c0: ec41 c83d 261b a7bd aed7 943d d3b5 85bc
000000d0: 72d0 dc3d 071c 4bbe 2d8f 29bd 5dfc 8f3b
000000e0: bd14 5d3e 0376 c3bc 0eff 2b3e 39ec 12bd
000000f0: e50d 803d 6084 25bd 12df 153e d6aa 4fbe
00000100: 901a 14be 594f bcbd 1dc8 b2bd 9645 9dbe
00000110: 0319 f9bc 6370 d2bd 5f6e 913b 3d57 67bb
00000120: 2e70 39be 7d0d 15be 0c19 1bbd f5c7 47bd
00000130: 3306 d23e c494 9cbd 5691 a43d cc11 0c3d
00000140: efaa d7bc 5b83 13be fb90 d4bd 2d5e 0c3e
00000150: dc61 053e f1eb 15be 9361 d1bc 397c 803e
00000160: da57 123e 6bb1 fcbd 4098 d73d 04bc 2abe
00000170: 981c 9b3c 70f2 8b3d 7330 e33d cb74 3fbd
00000180: c2ce 263d 991e 45b9 c574 edbc ccbe a6bd
00000190: 32dd 67bc 2ff8 8fbe 9976 413b 9ab2 ce3d
000001a0: cf40 36be 34ac 393c feed 883d bda0 d0bd
000001b0: 963f f83d a66f a5bc 643d b73c 9a2e aebd
000001c0: 5d27 babc 4456 e63d 59d4 633e 080a 853e
000001d0: 5ff3 713e f47e 983d e32a 44be 6f6f a03d
000001e0: ff97 883e 4052 f93d 1858 a13c 485d 8b3d
000001f0: 5a82 c83c fe3d b6bd 1049 693d 7f7e 943d

hidden_layer_u1.4.weight f4 [128, 128]
0.014277163 0.00047751836 0.006329855 0.13408181 -0.07304764 -0.06173258 0.07336094 -0.04184856
-0.014232578 -0.09412661 0.4059575 0.033913273 -0.028649589 0.0015035872 0.004461978 0.0013565456
0.15069942 0.087492585 -0.03998079 0.0023484358 0.02505766 0.021617057 -0.010816573 -0.0008414612
0.1364519 -0.05071442 0.029466666 -0.046577707 -0.0020867593 0.0014807885 0.010764636 -0.025765369
-0.023787709 0.20240414 -0.04990238 0.06781776 0.03472685 -0.009452569 -0.033795148 -0.0099696
0.014869255 0.04418763 0.060482 0.051180914 -0.03479357 -0.028107626 0.0041106 -0.03636067
-0.0003586133 0.056774497 -0.0003158592 0.025008366 -0.011307003 0.04314582 -0.0073060924 0.015145252
-0.00364203 -0.03315779 -0.045605164 -0.025622608 -0.00462005 0.15616474 0.0374117 -0.021321371
-0.041168496 0.0023306783 0.02374408 0.03904281 -0.076069735 -0.022808002 0.016260354 0.07973786
-0.028669866 -0.035242684 0.0057441494 0.026873222 0.021789568 -0.0012399674 0.0022593911 -0.030371435
-0.03174063 0.01409633 -0.011487138 -0.035849236 0.015252516 -0.0022025593 -0.032216106 -0.09371745
-0.03925408 0.2599055 0.01914626 -0.40661666 0.036849596 -0.043905534 0.15516995 -0.0464934
0.024820564 0.019401088 0.019027743 -0.018069357 -0.012304129 0.07468192 -0.012488543 0.018436896
0.09682946 0.023184704 -0.0077679055 0.021390656 0.040914528 0.14296095 -0.029076155 0.050775744
-0.0022206209 0.02655522 -0.004893694 0.038906105 -0.04568099 0.15796566 0.0010947994 0.15400773
-0.04261945 -0.030281555 -0.15425721 0.17767498 -0.0339062 0.0563518 0.29906455 0.012126251
0.0580343 0.080572546 -0.08088454 0.09772387 0.01604466 0.18934964 0.06442681 0.033745196
0.0404443 0.0064621596 -0.51516753 -0.0013092923 -0.034321215 -0.019370174 0.018955145 0.013998677
-0.09802839 0.28510913 0.041658923 -0.008736045 -0.13494495 -0.0025127083 -0.031506065 -0.05008053
-0.0031740433 0.003635182 -0.003897481 0.028137777 0.0032065269 0.0047119986 0.04829562 0.044824433
-0.047173444 0.44586074 -0.07645871 -0.17923468 0.04722138 -0.016088229 0.12778136 0.046105515
-0.028125785 -0.10037791 -0.10317147 -0.056036692 0.001986332 -0.09958494 -0.07385418 -0.080286965
-6.96708e-05 0.09411177 0.00440179 -0.02300392 -0.05842263 -0.0025089888 -0.020794678 -0.06343182
-0.057507254 0.06442001 0.010918633 0.033684973 0.014626915 -0.17442098 0.07723326 0.06629299
-0.005434313 0.0005450285 0.14119376 -0.041277006 -0.037543185 0.010757951 0.04144677 -0.07091882
-0.03740709 0.0568821 0.053709567 -0.001655154 0.25926057 0.07284111 -0.005618288 0.06676346
0.06202347 0.051506687 0.023343565 -0.024246182 -0.13147427 0.010493672 0.03771275 -0.110023506
0.02791498 -0.15672506 -0.013419802 -0.19464593 -0.083126165 0.029456925 0.06303447 -0.06134352
0.023565745 -0.0605398 -0.10440836 0.021993503 -0.045613583 -0.15825053 -0.010591298 -0.0021192909
-0.017566502 -0.027440364 -0.018415885 0.058219533 0.039257888 0.030306105 0.008197361 0.002202309
-0.04344962 -0.015301592 0.013086472 -0.15003443 -0.17746122 -0.37016112 -0.015254861 -0.009165371
0.010162793 -0.007060745 0.027618213 -0.32077467 0.03066939 0.19984248 -0.07323198 -0.036977567
00000000: c3ea 693c 6e5b fa39 ac6a cf3b be4c 093e
00000010: 009a 95bd 4ddb 7cbd 433e 963d 6569 2bbd
00000020: c22f 69bc 74c5 c0bd a9d9 cf3e a5e8 0a3d
00000030: 8bb2 eabc 0414 c53a c935 923b 1ece b13a
00000040: f350 1a3e 502f b33d e6c2 23bd 37e8 193b
00000050: b945 cd3c 4116 b13c ff37 31bc 8195 5cba
00000060: 0cba 0b3e ecb9 4fbd 1464 f13c 44c8 3ebd
00000070: 03c2 08bb 0417 c23a 285e 303c e511 d3bc
00000080: 71de c2bc 0843 4f3e 7066 4cbd 0ae4 8a3d
00000090: be3d 0e3d f3de 1abc c86c 0abd 8857 23bc
000000a0: 2d9e 733c 17fe 343d f9bb 773d 14a3 513d
000000b0: b483 0ebd f741 e6bc 36b2 863b edee 14bd
000000c0: 4304 bcb9 608c 683d e799 a5b9 58de cc3c
000000d0: 0241 39bc acb9 303d f267 efbb cb23 783c
000000e0: 20af 6ebb 76d0 07bd 7bcc 3abd 81e6 d1bc
000000f0: ca63 97bb a6e9 1f3e 033d 193d 28aa aebc
00000100: 4ca0 28bd 4bbe 183b f282 c23c 5beb 1f3d
00000110: 73ca 9bbd d9d7 babc 6f34 853c 9a4d a33d
00000120: 11dd eabc a25a 10bd 6b39 bc3b 3b25 dc3c
00000130: 0980 b23c 6786 a2ba 4b12 143b 84cd f8bc
00000140: 7602 02bd 4bf4 663c 8d34 3cbc a6d6 12bd
00000150: b0e5 793c d058 10bb 09f5 03bd efee bfbd
00000160: e3c8 20bd 5512 853e 9ed8 9c3c 0f30 d0be
00000170: 9aef 163d 4ad6 33bd dfe4 1e3e dd6f 3ebd
00000180: 7f54 cb3c 08ef 9e3c 12e0 9b3c 3006 94bc
00000190: 4297 49bc d6f2 983d bf9c 4cbc f908 973c
000001a0: 864e c63d d9ed bd3c ea89 febb 753b af3c
000001b0: fe95 273d 5b64 123e 1e31 eebc 3afa 4f3d
000001c0: d687 11bb 558a d93c 485b a0bb 025c 1f3d
000001d0: fd1b 3bbd c0c1 213e 5f7f 8f3a 34b4 1d3e
000001e0: bb91 2ebd 0611 f8bc 9af5 1dbe 6ef0 353e
000001f0: 3ae1 0abd 25d1 663d fd1e 993e 2fad 463c
00000200: 60b5 6d3d 3803 a53d cba6 a5bd 7423 c83d
00000210: 1770 833c dfe4 413e 34f2 833d 6738 0a3d
00000220: eca8 253d 86c0 d33b 05e2 03bf 8f9c abba
00000230: 6794 0cbd 33ae 9ebc d247 9b3c b55a 653c
00000240: 1cc3 c8bd d3f9 913e 8ca2 2a3d a121 0fbc
00000250: 022f 0abe 40ac 24bb 810c 01bd 3e21 4dbd
00000260: 9c03 50bb 3c3c 6e3b e16c 7fbb 3281 e63c
00000270: 9824 523b 1c67 9a3b a1d1 453d d399 373d
00000280: f138 41bd dc47 e43e 6296 9cbd 4c89 37be
00000290: 356b 413d 76cb 83bc 1ed9 023e 23d9 3c3d
000002a0: 0c68 e6bc ef92 cdbd 904b d3bd bb86 65bd
000002b0: 1f2d 023b 30f3 cbbd dc40 97bd 7e6d a4bd
000002c0: 3a1c 92b8 acbd c03d e43c 903b b872 bcbc
000002d0: 914c 6fbd d96d 24bb 9a59 aabc 8be8 81bd
000002e0: ba8c 6bbd a3ee 833d 11e4 323c 41f9 093d
000002f0: baa5 6f3c 6a9b 32be 792c 9e3d 9fc4 873d
00000300: 5212 b2bb 3ee0 0e3a 1995 103e 1412 29bd
00000310: e2c6 19bd 1e42 303c 17c4 293d e33d 91bd
00000320: 2d38 19bd 34fd 683d 90fe 5b3d c1f1 d8ba
00000330: cdbd 843e b82d 953d 9e19 b8bb 48bb 883d
00000340: 520c 7e3d adf8 523d 013b bf3c ee9f c6bc
00000350: 31a1 06be a7ed 2b3c af78 1a3d 0154 e1bd
00000360: f5ad e43c 897c 20be bbde 5bbc 4351 47be
00000370: 0d3e aabd a64f f13c 3718 813d 5843 7bbd
00000380: f30c c13c 95f8 77bd 0dd4 d5bd b82b b43c
00000390: 4fd5 3abd 6d0c 22be 2087 2dbc cde3 0abb
000003a0: a0e7 8fbc 9dca e0bc e9dc 96bc 9b77 6e3d
000003b0: e1cc 203d 8244 f83c 394e 063c 9d54 103b
000003c0: 3bf8 31bd 87b3 7abc a468 563c a0a2 19be
000003d0: 65b8 35be c285 bdbe 86ef 79bc 5a2a 16bc
000003e0: d881 263c d25d e7bb 973f e23c 943c a4be
000003f0: 5f3e fb3c 82a3 4c3e a6fa 95bd ca75 17bd

hidden_layer_u1.4.bias f4 [128]
-0.018577257 -0.06885992 0.080233745 0.061946828 0.023946323 -0.200991 -0.3994485 -0.10419874
-0.106681734 -0.23584267 0.047917034 -0.07174867 0.041148607 0.06702921 0.41697443 0.16973121
-0.092611656 -0.054940242 0.18300933 0.093883246 -0.101504155 0.016200125 -0.008824421 -0.06171066
0.058131803 -0.084778056 0.14090104 0.22137755 -0.035965055 0.019668462 0.10443417 -0.07878622
0.114148624 0.0913598 0.18158048 0.03672081 -0.008549271 -0.0120352525 -0.06137891 0.08027505
-0.034854457 0.035088163 -0.05466683 -0.09323092 0.006642759 -0.028342534 0.03073225 -0.14803044
0.04008429 0.052946515 -0.15493819 0.25379544 -0.015092708 0.08725054 -0.09789147 0.024449171
-0.033008892 0.12484626 -0.04642658 0.103269525 0.13898659 -0.25670636 0.1099412 -0.3576641
-0.010943811 0.00013030859 -0.0646078 0.11210985 -0.07730726 0.047336966 0.26852685 0.042492054
0.15374427 0.17559403 0.06690866 -0.21289551 0.0569082 0.052276473 -6.773108e-05 0.013975457
0.007216366 -0.08493935 0.076336615 -0.120571636 -0.002758052 -0.0129338605 0.1736424 -0.050914325
-0.1346376 0.14170305 0.23348376 -0.02688813 0.1479988 0.010410484 0.24265656 -0.084333554
-0.049904246 -0.108537614 0.12474204 -0.07020322 -0.07271533 -0.026127338 0.16597283 -0.055851884
-0.0030766346 0.050788596 0.20940496 0.060241494 0.06274446 -0.061144404 0.15019883 0.057497375
-0.027949668 0.14568175 -0.14890164 0.10280649 0.014019567 -0.0017307597 -0.044857193 -0.0070457105
0.055701047 -0.09481371 -0.034703147 0.025370052 -0.082516186 -0.022546444 0.024775691 -0.07280669
00000000: 552f 98bc 6e06 8dbd 9751 a43d f5bb 7d3d
00000010: 142b c43c 96d0 4dbe 8484 ccbe 2666 d5bd
00000020: f47b dabd be80 71be a744 443d f7f0 92bd
00000030: 718b 283d 9c46 893d ac7d d53e 05ce 2d3e
00000040: 2eab bdbd 0509 61bd cc66 3b3e dc45 c03d
00000050: 69e1 cfbd 20b6 843c 4e94 10bc 51c4 7cbd
00000060: 9d1b 6e3d 1ea0 adbd 5d48 103e ccb0 623e
00000070: 1850 13bd c11f a13c 95e1 d53d ab5a a1bd
00000080: c1c6 e93d d91a bb3d 3cf0 393e 8f68 163d
00000090: 3e12 0cbc 822f 45bc 7468 7bbd 3f67 a43d
000000a0: 8cc3 0ebd 9bb8 0f3d 53ea 5fbd daef bebd
000000b0: 80ab d93b 9a2e e8bc 33c2 fb3c 4b95 17be
000000c0: 6d2f 243d 72de 583d 1ea8 1ebe 7af1 813e
000000d0: 6847 77bc 69b0 b23d 537b c8bd a149 c83c
000000e0: 5534 07bd 65af ff3d cc29 3ebd f97e d33d
000000f0: 8052 0e3e 046f 83be da28 e13d c01f b7be
00000100: ac4d 33bc 72a3 0839 1851 84bd d999 e53d
00000110: 4553 9ebd 68e4 413d 5a7c 893e 260c 2e3d
00000120: 236f 1d3e ecce 333e 6807 893d 4801 5abe
00000130: 9318 693d db1f 563d d90a 8eb8 51f9 643c
00000140: 4477 ec3b aff4 adbd 5f56 9c3d 43ee f6bd
00000150: 6fc0 34bb 8be8 53bc 50cf 313e 8a8b 50bd
00000160: 70de 09be 9b1a 113e 5e16 6f3e 7f44 dcbc
00000170: ff8c 173e bc90 2a3c f67a 783e 12b7 acbd
00000180: 6568 4cbd f848 debd c178 ff3d b5c6 8fbd
00000190: c6eb 94bd 0009 d6bc c8f4 293e f2c4 64bd
000001a0: 5da1 49bb b407 503d 416e 563e c9bf 763d
000001b0: 2b80 803d 8e72 7abd b9cd 193e 5e82 6b3d
000001c0: b4f6 e4bc 992d 153e ac79 18be 368c d23d
000001d0: 53b2 653c a9da e2ba 2dbc 37bd b4df e6bb
000001e0: c826 643d b12d c2bd e324 0ebd dbd4 cf3c
000001f0: 3ffe a8bd 52b3 b8bc 64f6 ca3c ad1b 95bd
