PDE_solution_data/7_27_13h_Training_4.pt (torch, 338153 bytes, 13 tensors)

hidden_layer_u1.0.weight f4 [128, 2]
-0.28650695 -1.3512498 -0.25548786 -2.0049865 -0.07886306 2.899185 0.2557143 0.5843618
0.16122255 2.0424504 -0.16691771 2.238705 0.12894785 -2.3612366 -0.34822538 -0.48233098
-0.27286366 -0.06786175 0.35081282 0.45810428 -0.2698786 -0.34810063 -0.045610994 -2.8418329
0.40795147 -0.23226179 -0.14705473 -2.4541855 0.25315195 -1.922947 -0.3524163 1.3268362
-0.029651102 2.881339 -0.33630696 -1.2367623 0.35054076 -0.42901552 -0.3145843 -0.3521719
0.15148224 -2.3638844 0.18808995 -2.2333097 0.32287857 -0.6907118 0.25807568 -0.9143083
-0.15683198 2.570562 0.13482274 2.0531607 -0.3034243 -1.2323475 0.012561354 -2.3510787
-0.41409692 0.63245475 0.33394092 1.044459 -0.3825325 -1.4156086 -0.18627854 0.8187608
-0.38981 -1.197437 0.30194458 1.3768945 -0.24371488 -0.046319462 0.35780066 1.8901811
-0.02003338 1.6112515 -0.012677829 -2.814448 -0.35598928 -1.1436352 0.06330751 -1.2802256
-0.25478134 1.0464747 0.036371224 -2.2200916 -0.13545172 -2.0097127 0.26598144 2.0493324
-0.30780244 -0.9317678 -0.12416407 -0.83995545 0.047067955 -2.5299144 -0.17000106 1.7849979
-0.21544656 -1.5640095 -0.17582524 -1.699899 -0.31035778 -0.8593531 -0.09206598 -2.089468
-0.3537397 0.12818827 0.18250468 -0.14581296 -0.3732962 -0.47927144 0.11795467 2.2665474
-0.2515189 1.4485097 -0.2965835 2.0639665 0.26602665 -0.1737021 -0.39264825 -0.13013293
0.1433037 -2.6079876 -0.17168617 0.85572445 0.0006399288 -2.4861796 -0.3603299 -0.38130474
-0.12904562 -2.2197604 -0.16111353 1.5109813 -0.15715088 -2.3537292 -0.2181832 1.095013
0.27450156 1.0888624 0.36254585 -0.1955862 -0.3892504 -0.13991182 -0.19901201 1.6585644
-0.24763998 -1.0860327 0.013701727 2.8075755 -0.046735696 2.8466315 0.16692814 0.023315156
0.33750054 -1.2482826 -0.38020632 -1.3292 -0.24837387 -1.6770222 -0.36947688 0.09420479
-0.18077774 2.7212875 -0.38152543 0.08621008 0.2521481 -2.1334703 0.120757796 1.8927339
0.24337046 -1.673992 0.29042917 -1.4037899 0.3570866 1.0115715 0.377155 -0.21946244
0.12672566 1.8906597 -0.29647446 1.514796 -0.35566396 -1.0818081 0.10887833 1.3630245
-0.2699985 -1.3121605 0.33604446 -0.66998076 0.1648012 -2.6180387 0.40504214 0.21716934
0.3303322 1.1153969 0.3013091 -1.2179697 0.3000977 1.0615472 -0.37875015 0.53216267
0.3690512 0.7958992 -0.32400697 0.5169508 -0.27003658 -1.5452251 0.36591443 -0.9680215
-0.4067914 -0.24641654 0.08245469 2.7408798 0.28656867 -0.40273774 -0.17626628 2.1407027
-0.27119917 1.276786 -0.20461662 0.09526899 0.31721357 0.59385157 0.12805763 2.2646174
0.18073241 1.0813223 0.21526465 0.8803625 0.22386166 -1.0223417 0.036122233 -2.7058635
-0.3189317 -0.0964511 -0.34421682 0.43907535 -0.10178917 -2.1145887 -0.28016168 1.325005
0.20500737 2.0818963 -0.31559977 0.644644 -0.16237833 1.574558 -0.1670591 -2.5362825
-0.17688508 -0.0671983 0.42024344 0.7127728 -0.17070894 -1.803651 -0.36879447 1.0722132
00000000: 0ab1 92be c1f5 acbf 4ecf 82be b351 00c0
00000010: f582 a1bd 3f8c 3940 fcec 823e bc98 153f
00000020: 8617 253e 82b7 0240 7aec 2abe f146 0f40
00000030: e80a 043e 801e 17c0 994a b2be 16f4 f6be
00000040: c9b4 8bbe 1afb 8abd bd9d b33e a58c ea3e
00000050: 872d 8abe 3f3a b2be 98d2 3abd 97e0 35c0
00000060: 04df d03e 09d6 6dbe 8495 16be 6011 1dc0
00000070: 229d 813e 2123 f6bf e96f b4be c5d5 a93f
00000080: dee6 f2bc dc67 3840 6d30 acbe 3a4e 9ebf
00000090: 147a b33e eca7 dbbe 3211 a1be e04f b4be
000000a0: 291e 1b3e e249 17c0 a79a 403e 8cee 0ec0
000000b0: 5750 a53e 7dd2 30bf 7f22 843e 1c10 6abf
000000c0: 9098 20be 1684 2440 f90e 0a3e fc66 0340
000000d0: 6e5a 9bbe 90bd 9dbf 23ce 4d3c 1378 16c0
000000e0: 8304 d4be 8ee8 213f 4efa aa3e d5b0 853f
000000f0: 4ddb c3be aa32 b5bf cdbf 3ebe 4f9a 513f
00000100: 2d95 c7be 9e45 99bf 7b98 9a3e 143e b03f
00000110: 6590 79be 7ab9 3dbd a631 b73e 74f1 f13f
00000120: 0b1d a4bc 7d3d ce3f abb6 4fbc eb1f 34c0
00000130: 3a44 b6be a362 92bf 5ea7 813d 6fde a3bf
00000140: b372 82be e2f2 853f fef9 143d fb15 0ec0
00000150: dbb3 0abe 229f 00c0 b82e 883e 4328 0340
00000160: 4898 9dbe 5688 6ebf bb49 febd 5207 57bf
00000170: 54ca 403d 1eea 21c0 c214 2ebe d07a e43f
00000180: 069e 5cbe 7731 c8bf 880b 34be 4a96 d9bf
00000190: 37e7 9ebe 91fe 5bbf 178d bcbd d8b9 05c0
000001a0: 5f1d b5be c943 033e 82e2 3a3e fe4f 15be
000001b0: ae20 bfbe 1163 f5be 3892 f13d 1d0f 1140
000001c0: 16c7 80be c468 b93f cbd9 97be 0718 0440
000001d0: a534 883e f7de 31be 3109 c9be 9141 05be
000001e0: 35be 123e 45e9 26c0 80ce 2fbe c210 5b3f
000001f0: e5c0 273a 911d 1fc0 297d b8be 603a c3be
00000200: 8924 04be 8e10 0ec0 f2fa 24be d667 c13f
00000210: 29ec 20be 80a3 16c0 6b6b 5fbe 6329 8c3f
00000220: 788b 8c3e d85f 8b3f 9c9f b93e c047 48be
00000230: d44b c7be 0b45 0fbe cec9 4bbe d74b d43f
00000240: 5695 7dbe 1f03 8bbf 357d 603c 51af 3340
00000250: ee6d 3fbd 362f 3640 36ef 2a3e 6dff be3c
00000260: dfcc ac3e b9c7 9fbf 67aa c2be 3a23 aabf
00000270: b855 7ebe aaa8 d6bf 132c bdbe 71ee c03d
00000280: cd1d 39be 9329 2e40 4d57 c3be e98e b03d
00000290: 8e19 813e c78a 08c0 dd4f f73d 1b45 f23f
000002a0: 1b36 793e 5f45 d6bf 22b3 943e 63af b3bf
000002b0: 0ed4 b63e 2d7b 813f 761a c13e c3ba 60be
000002c0: 5fc4 013e 2301 f23f 80cb 97be d6e4 c13f
000002d0: 9619 b6be b078 8abf 9afb de3d 9677 ae3f
000002e0: 3e3d 8abe e0f4 a7bf 050e ac3e dc83 2bbf
000002f0: a5c1 283e f28d 27c0 af61 cf3e a461 5e3e
00000300: 4d21 a93e 53c5 8e3f 3045 9a3e 6ee6 9bbf
00000310: 68a6 993e c7e0 873f 8aeb c1be d03b 083f
00000320: 47f4 bc3e 0dc0 4b3f 3ee4 a5be e356 043f
00000330: 3c42 8abe f0c9 c5bf 2359 bb3e 42d0 77bf
00000340: f646 d0be 9e54 7cbe 01de a83d 936a 2f40
00000350: 21b9 923e a433 cebe 267f 34be 4601 0940
00000360: 9eda 8abe b96d a33f 0587 51be 631c c33d
00000370: d169 a23e a806 183f 8a21 033e 7eef 1040
00000380: eb11 393e c568 8a3f 566e 5c3e 705f 613f
00000390: fe3b 653e 18dc 82bf e8f4 133d de2c 2dc0
000003a0: 044b a3be 2888 c5bd 303d b0be 7cce e03e
000003b0: d776 d0bd 6c55 07c0 5a71 8fbe c499 a93f
000003c0: 74ed 513e ca3d 0540 4b96 a1be 6407 253f
000003d0: 8146 26be 1e8b c93f 8a11 2bbe 7452 22c0
000003e0: 5d21 35be 439f 89bd 262a d73e 4778 363f
000003f0: 53ce 2ebe 09de e6bf a1d2 bcbe 483e 893f

hidden_layer_u1.0.bias f4 [128]
-0.10538072 -0.29402962 0.4467335 -0.27906117 -0.18668355 0.33055946 0.041051485 0.1966658
0.046392187 0.3421106 0.04762525 -0.02227748 0.35517126 0.02221175 0.18283348 0.22740382
0.020921942 -0.47356766 -0.25032714 0.31347546 -0.29867083 -0.010632461 0.13991512 0.2240083
0.13856956 0.050317295 -0.5443551 -0.1994516 0.27586883 0.17943513 -0.19909368 0.025098162
0.45347625 0.2134288 0.30569533 0.40405646 -0.21305625 0.49773142 0.5149367 -0.11528315
0.29172027 0.26296204 -0.0779145 0.06632133 0.17589651 -0.4530418 -0.57205784 0.35920975
-0.1562046 0.15443628 0.42595083 -0.57944715 0.17721736 -0.20771316 0.38891405 0.22327018
-0.106897414 -0.3069076 0.37583667 0.4529137 0.40593117 -0.2433977 -0.53983665 -0.08667148
0.28194088 -0.41639745 0.12279631 -0.5187001 -0.3403667 0.2737999 0.48557726 -0.23416731
0.15959124 0.045760076 -0.04727934 0.5064836 -0.14677376 -0.23416305 0.1016058 -0.39454752
0.300057 -0.4262807 0.3474584 0.27415013 -0.1996104 -0.011149634 -0.1835409 0.39504543
-0.56051606 -0.13427131 0.4990748 0.5046571 0.1687909 0.024732811 -0.01000432 0.4053039
0.35913345 0.078214064 0.25767753 0.32316765 -0.26374674 -0.5741481 0.35615617 0.49588153
0.35582706 0.067268565 0.26111874 0.028049998 -0.008550396 0.08612615 0.58128446 -0.21055198
0.43546048 -0.51835 -0.025774254 -0.13678367 -0.2104689 0.45182043 -0.17903425 -0.31417772
0.017647728 0.33568224 0.3459928 -0.0039134757 -0.33514228 0.55341303 -0.44075763 0.036615383
00000000: d9d1 d7bd 0d8b 96be 41ba e43e 1be1 8ebe
00000010: f929 3fbe 173f a93e 9a25 283d c262 493e
00000020: bc05 3e3d 1f29 af3e b212 433d 437f b6bc
00000030: 02d9 b53e 6af5 b53c b338 3b3e 8cdc 683e
00000040: 7e64 ab3c 7677 f2be e12a 80be db7f a03e
00000050: 62eb 98be c633 2ebc e945 0f3e 6f62 653e
00000060: 2ee5 0d3e 8219 4e3d db5a 0bbf 0a3d 4cbe
00000070: ae3e 8d3e d8bd 373e 37df 4bbe a99a cd3c
00000080: 0a2e e83e 148d 5a3e 1984 9c3e 7de0 ce3e
00000090: 6b2b 5abe a7d6 fe3e e4d2 033f 9219 ecbd
000000a0: 5c5c 953e f6a2 863e a391 9fbd 7ad3 873d
000000b0: 371e 343e 18f5 e7be 6272 12bf 57ea b73e
000000c0: 19f4 1fbe 8b24 1e3e 3a16 da3e a656 14bf
000000d0: 7878 353e c2b2 54be be1f c73e f0a0 643e
000000e0: 08ed dabd fe22 9dbe aa6d c03e 4ee4 e73e
000000f0: 36d6 cf3e 3f3d 79be bc32 0abf d180 b1bd
00000100: 8e5a 903e 0c32 d5be a27c fb3d 88c9 04bf
00000110: 8b44 aebe 802f 8c3e 959d f83e 8ec9 6fbe
00000120: e36b 233e eb6e 3b3d fba7 41bd e9a8 013f
00000130: dc4b 16be 70c8 6fbe b416 d03d 2202 cabe
00000140: 12a1 993e 7741 dabe 11e6 b13e 685d 8c3e
00000150: ab66 4cbe f4ac 36bc 25f2 3bbe 6543 ca3e
00000160: fb7d 0fbf 6b7e 09be bb86 ff3e 3531 013f
00000170: 86d7 2c3e 779c ca3c 29e9 23bc fe83 cf3e
00000180: 57e0 b73e b22e a03d 4fee 833e 3b76 a53e
00000190: d009 87be 5ffb 12bf 1a5a b63e 2fe4 fd3e
000001a0: f72e b63e 1ac4 893d 5bb1 853e 1cc9 e53c
000001b0: f616 0cbc e862 b03d 0fcf 143f f09a 57be
000001c0: adf4 de3e 96b2 04bf 8724 d3bc 0511 0cbe
000001d0: 2985 57be 0255 e73e c154 37be e7db a0be
000001e0: f891 903c 8bde ab3e f825 b13e 9d3c 80bb
000001f0: c597 abbe 7aac 0d3f fcaa e1be 03fa 153d

hidden_layer_u1.1.weight f4 [128, 128]
-0.1731821 0.045694284 0.10829146 0.13736014 0.16649657 0.070361465 -0.006909008 0.11064555
-0.17001124 0.13001718 0.045668546 -0.1007397 0.13491257 -0.075058706 0.050242167 -0.0155785
0.1482898 0.096741706 0.04123942 -0.049911484 0.03834873 -0.011139918 -0.035908993 0.05330561
0.07459411 0.0056044273 -0.14418031 -0.0147293415 -0.16743621 0.20734416 0.035012204 -0.008662797
0.119154625 0.15177609 -0.12061103 0.042361654 -0.026158234 0.14502566 -0.062662385 0.027100774
-0.05147564 0.03253033 -0.16796987 0.23049323 0.003481412 -0.045394614 0.10743075 -0.094510876
0.0027247688 0.07349147 -0.15405007 0.038128678 0.034589212 -0.0033702373 0.121138126 0.09203978
0.032253455 -0.072137356 0.12079025 -0.1565084 -0.12376407 -0.045563772 -0.034167636 -0.25150958
-0.066101626 -0.13207789 -0.06511235 -0.114132516 0.09250912 0.10159644 0.049926832 -0.026184192
-0.03904193 -0.039061595 -0.012965837 0.021890076 0.05394823 -0.20616305 0.055774696 0.032695405
0.10134607 -0.022605533 0.07025344 0.034945726 0.003284348 0.23541403 0.10973825 0.1654217
0.10569672 -0.04491448 -0.078627676 -0.01849714 -0.17554004 0.25766957 0.1058719 0.09019795
-0.030312095 0.19178103 -0.110246055 -0.13609855 0.09669631 -0.15101229 0.05018897 0.15394971
0.020425096 0.16373044 0.025353158 -0.19552627 -0.23411931 0.004714225 -0.088109985 0.12867023
0.14893101 0.14210196 0.16142958 0.05299352 -0.019111527 -0.08191877 -0.06874364 0.039689843
0.08883686 -0.14363489 -0.1478785 -0.17618899 -0.053626984 0.031890575 0.042544182 -0.07450685
-0.051416527 0.060782373 -0.0705642 -0.13333116 0.13464482 -0.06180787 -0.09881326 0.17073704
0.25051752 0.012996195 0.2621155 -0.46824458 0.08410778 -0.16673405 -0.080217466 0.20844004
0.42210436 0.09470431 -0.0144369025 0.0286298 -0.107647136 -0.40502313 -0.029358102 -0.14003779
0.24725959 0.18789281 -0.069867 0.08149967 0.14373326 -0.18186122 -0.0146381175 0.16698702
-0.07910458 0.051542304 -0.08782444 0.042236935 0.019818733 0.061279632 0.066068105 -0.0978295
0.13526101 -0.106888786 -0.05331008 -0.046189316 0.14219004 0.09959471 0.015312862 0.11626832
-0.004436216 -0.085047 -0.05457534 0.0702918 -0.052158978 0.05415296 0.15561494 -0.10716938
-0.016431069 0.097717024 -0.09886051 0.14300445 0.089496754 0.019411892 -0.0101493895 0.17394345
0.040907715 -0.11771358 -0.17392708 -0.02997626 -0.0076597664 0.09248006 0.10951442 -0.014705267
-0.046755273 0.3277067 0.071593486 -0.07919202 -0.27295122 -0.06633167 0.028592825 0.1170531
0.120182924 0.12599519 -0.06812512 0.13164288 -8.6379885e-05 -0.43286535 0.005526582 0.060493585
0.07742881 0.13128668 0.15323089 0.01662528 0.10266153 -0.041066643 -0.65758365 -0.051354636
-0.061550032 -0.14233895 0.07578237 0.19133188 0.031571183 0.05268755 -0.11281882 -0.037771888
0.17423958 0.13748977 -0.011938592 0.5946318 0.12773277 0.13996163 -0.13274762 0.053326797
0.0058991225 0.048876952 -0.4083278 0.01649647 -0.11396202 0.012665668 0.026423512 0.1750617
0.12517862 0.0742015 0.015779583 -0.18510477 0.11155589 -0.1341952 -0.14406647 0.4529266
00000000: a656 31be ee29 3b3d eac7 dd3d 23a8 0c3e
00000010: 147e 2a3e ac19 903d f664 e2bb 229a e23d
00000020: 6d17 2ebe 3923 053e f10e 3b3d 9e50 cebd
00000030: 8526 0a3e 61b8 99bd bbca 4d3d f73c 7fbc
00000040: 48d9 173e 8420 c63d abea 283d fc6f 4cbd
00000050: 8f13 1d3d 3484 36bc 4f15 13bd fc56 5a3d
00000060: ccc4 983d 58a5 b73b 01a4 13be 5653 71bc
00000070: 6674 2bbe 0752 543e f568 0f3d 67ee 0dbc
00000080: 5707 f43d 316b 1b3e ea02 f7bd 6a83 2d3d
00000090: cb49 d6bc 9b81 143e 2355 80bd 7102 de3c
000000a0: 1fd8 52bd 863e 053d 4b00 2cbe 6b06 6c3e
000000b0: 6728 643b b4ef 39bd a704 dc3d eb8e c1bd
000000c0: 0992 323b b282 963d 4dbf 1dbe d12c 1c3d
000000d0: 6bad 0d3d 33df 5cbb 4417 f83d 5a7f bc3d
000000e0: 331c 043d c0bc 93bd e160 f73d bd43 20be
000000f0: 0478 fdbd 14a1 3abd 5df3 0bbd ddc5 80be
00000100: 4a60 87bd 6d3f 07be a059 85bd 4fbe e9bd
00000110: 6c75 bd3d cb11 d03d 1480 4c3d 3b80 d6bc
00000120: 6eea 1fbd 0dff 1fbd a96e 54bc d152 b33c
00000130: d2f8 5c3d 681c 53be 0274 643d 9eeb 053d
00000140: 878e cf3d 3d2f b9bc 09e1 8f3d 4023 0f3d
00000150: 373e 573b 6010 713e 73be e03d 4e64 293e
00000160: 8677 d83d 3ff8 37bd 8c07 a1bd 5087 97bc
00000170: c5c0 33be 44ed 833e 5ed3 d83d b4b9 b83d
00000180: 1251 f8bc 3f62 443e afc8 e1bd 6b5d 0bbe
00000190: b708 c63d f7a2 1abe f392 4d3d fea4 1d3e
000001a0: 8852 a73c f4a8 273e 6db1 cf3c 0a38 48be
000001b0: f9bc 6fbe c979 9a3b 0273 b4bd 21c2 033e
000001c0: 5f81 183e 2d83 113e cc4d 253e bc0f 593d
000001d0: c78f 9cbc 07c5 a7bd 77c9 8cbd d191 223d
000001e0: 1af0 b53d 0615 13be 766d 17be e36a 34be
000001f0: f8a7 5bbd b19f 023d cf42 2e3d 0c97 98bd
00000200: 239a 52bd f0f6 783d f783 90bd f787 08be
00000210: 55e0 093e 402a 7dbd 9b5e cabd b1d5 2e3e
00000220: d543 803e feed 543c 0134 863e c1bd efbe
00000230: b340 ac3d 55bc 2abe 0e49 a4bd 4e71 553e
00000240: 101e d83e 55f4 c13d c288 6cbc 0b89 ea3c
00000250: 1a76 dcbd 315f cfbe 6780 f0bc 1166 0fbe
00000260: 9e31 7d3e f966 403e 6e16 8fbd 4de9 a63d
00000270: d02e 133e d439 3abe b7d4 6fbc a5fe 2a3e
00000280: 9501 a2bd 061e 533d 4ddd b3bd a300 2d3d
00000290: e55a a23c 5a00 7b3d b74e 873d d55a c8bd
000002a0: dd81 0a3e 82e8 dabd ac5b 5abd 0231 3dbd
000002b0: 449a 113e 50f8 cb3d cce2 7a3c 161e ee3d
000002c0: ad5d 91bb 1f2d aebd 648a 5fbd 26f5 8f3d
000002d0: a7a4 55bd 7fcf 5d3d 8659 1f3e 9f7b dbbd
000002e0: 739a 86bc dd1f c83d 6177 cabd c26f 123e
000002f0: 134a b73d b005 9f3c a049 26bc 3b1e 323e
00000300: d98e 273d d113 f1bd f119 32be c690 f5bc
00000310: c7fe fabb 3066 bd3d 1949 e03d 5cee 70bc
00000320: 7582 3fbd 2cc9 a73e 9b9f 923d 6d2f a2bd
00000330: 43c0 8bbe e6d8 87bd 803b ea3c 89b9 ef3d
00000340: 7722 f63d e204 013e 2f85 8bbd 64cd 063e
00000350: d926 b5b8 87a0 ddbe 5418 b53b 1fc8 773d
00000360: ff92 9e3d 0470 063e 8fe8 1c3e bd31 883c
00000370: 3540 d23d 7f35 28bd 6757 28bf 3d59 52bd
00000380: e31b 7cbd 4dc1 11be ca33 9b3d 81ec 433e
00000390: c950 013d e7ce 573d 8e0d e7bd b2b6 1abd
000003a0: dc6b 323e 1eca 0c3e 169a 43bc ca39 183f
000003b0: 61cc 023e 1a52 0f3e feee 07be 336d 5a3d
000003c0: 6d4d c13b 3333 483d 5710 d1be 9b23 873c
000003d0: eb64 e9bd a983 4f3c 1f76 d83c 6043 333e
000003e0: d32e 003e f5f6 973d 2f44 813c 1b8c 3dbe
000003f0: 6a77 e43d 776a 09be 2986 13be ffe5 e73e

hidden_layer_u1.1.bias f4 [128]
0.002233624 0.07707488 0.0326271 -0.06823705 -0.08061693 0.0398397 0.06959859 0.062987655
-0.045267053 0.076390296 -0.014017961 0.0034894003 0.022177584 -0.050109956 0.021106735 0.01749463
-0.0067696236 0.016785251 -0.06909063 -0.023501923 0.0054929038 0.07107749 -0.027907565 0.078134485
-0.029915322 -0.10267255 -0.052588195 0.027580034 -0.050119266 -0.03769416 -0.026082722 -0.03293302
0.090709485 -0.010452278 -0.034821697 0.011429941 -0.0069580614 -0.047973868 -0.084809855 0.037830513
-0.09076264 0.051337548 -0.00680583 0.043731567 0.004818908 0.027061353 0.087750055 -0.01317061
-0.07913124 -0.034042735 -0.04087128 -0.047231555 -0.043513894 -0.06447877 -0.021240022 -0.022312908
0.06940464 0.020918798 0.026438411 -0.06564709 0.033331707 -0.06555634 0.03685121 0.0845281
-0.02728166 -0.046385262 -0.05862991 -0.033500504 -0.027944392 -0.006987776 0.045722973 -0.07102441
0.0009884366 0.062964395 0.069330834 0.042118244 0.040769406 -0.048406266 -0.09413044 -0.027632924
0.05568707 -0.013097441 0.010311348 -0.05592659 -0.056844592 0.07139041 -0.0373423 0.05879334
0.03302708 -0.035978537 -0.061689127 0.036578942 0.064072885 0.012983241 -0.060658555 0.066368975
0.015007589 -0.059969854 -0.014881361 -0.0755362 0.047596432 -0.036509417 0.032099694 -0.048846286
-0.09303561 0.06681458 -0.00027631884 0.014827375 0.015980806 -0.00061285216 -0.047191195 -0.001288346
-0.016784137 0.00022684419 -0.08903135 0.038504623 -0.010463966 -0.0020541914 0.0733967 -0.037940454
-0.102306105 -0.028783284 0.076832056 -0.063424475 -0.08267935 -0.018972052 0.06255952 -0.0047560036
00000000: fe61 123b 6fd9 9d3d fea3 053d debf 8bbd
00000010: 7d1a a5bd f42e 233d b589 8e3d acff 803d
00000020: f269 39bd 8472 9c3d 97ab 65bc 6cae 643b
00000030: c4ad b53c 1940 4dbd 08e8 ac3c e650 8f3c
00000040: b8d3 ddbb 3981 893c 637f 8dbd 1b87 c0bc
00000050: d1fd b33b 1391 913d 689e e4bc f904 a03d
00000060: fa10 f5bc fc45 d2bd b866 57bd 86ef e13c
00000070: dc49 4dbd 3165 1abd 6fab d5bc c6e4 06bd
00000080: e5c5 b93d 0840 2bbc 32a1 0ebd a644 3b3c
00000090: 7300 e4bb 3f80 44bd cab0 adbd 2bf4 1a3d
000000a0: c3e1 b9bd 5247 523d 7103 dfbb df1f 333d
000000b0: eee7 9d3b c5af dd3c 4db6 b33d 8bc9 57bc
000000c0: 8f0f a2bd 6570 0bbd a568 27bd e075 41bd
000000d0: a03b 32bd 720d 84bd 8eff adbc 8fc9 b6bc
000000e0: 0524 8e3d e65d ab3c 5e95 d83c fb71 86bd
000000f0: d486 083d 6742 86bd 4bf1 163d 121d ad3d
00000100: ca7d dfbc 79fe 3dbd eb25 70bd d337 09bd
00000110: a3eb e4bc b7f9 e4bb 0348 3b3d 3f75 91bd
00000120: 6e8e 813a 7af3 803d 53fd 8d3d 2e84 2c3d
00000130: d2fd 263d a645 46bd 76c7 c0bd 715e e2bc
00000140: 2018 643d a696 56bc eef0 283c 4813 65bd
00000150: e0d5 68bd 2335 923d 3df4 18bd 49d1 703d
00000160: 6747 073d 3b5e 13bd bdad 7cbd cdd3 153d
00000170: a538 833d a9b7 543c 1b75 78bd 75ec 873d
00000180: 64e2 753c f3a2 75bd f4d0 73bc b9b2 9abd
00000190: 7af4 423d e68a 15bd f87a 033d 0b13 48bd
000001a0: 7489 bebd 15d6 883d e3de 90b9 85ee 723c
000001b0: 2eea 823c d0a7 20ba 8e4b 41bd b8dd a8ba
000001c0: e37e 89bc 06dd 6d39 1256 b6bd 06b7 1d3d
000001d0: 0e71 2bbc 9d9f 06bb 0251 963d 7367 1bbd
000001e0: dd85 d1bd ecca ebbc 205a 9d3d b1e4 81bd
000001f0: cb53 a9bd 476b 9bbc 351f 803d 40d8 9bbb

hidden_layer_u1.2.weight f4 [128, 128]
0.09052359 -0.09116947 -0.109581895 -0.084081165 0.018683188 0.044485755 0.08218178 -0.06642255
0.011753924 -0.11244566 -0.10159555 -0.03938898 0.17730923 0.010619697 0.015905494 0.08052022
0.021677794 0.02253762 0.103805155 0.073071726 0.068478115 0.04464513 0.005309275 0.10405687
0.00027528498 0.069216885 -0.056632064 0.014129957 0.032696016 -0.09969707 0.0868282 -0.114283495
-0.10783301 -0.017653693 -0.10030195 -0.056679096 -0.073482804 -0.21411178 -0.0913126 0.029225376
-0.16632946 -0.028836338 0.122559875 -0.118957326 0.14924377 0.092274435 -0.07145507 0.02120478
-0.0287193 -0.028535683 0.012377725 0.09692021 -0.010826497 0.09751957 0.1006189 -0.018295983
0.036585502 0.018309131 0.0904876 -0.06920032 0.08784505 0.054350894 0.01078421 -0.13077503
-0.059494633 -0.10497634 -0.05019617 0.026566818 -0.001574774 -0.013126935 0.1207634 0.041804906
-0.16017303 -0.15612309 0.14361575 0.07001476 -0.10988139 0.13405629 -0.023122149 0.106762335
0.05801747 -0.033862896 0.00068416214 0.10479792 0.11075648 0.09207584 -0.033541773 -0.09756454
0.025243914 0.028087597 0.108945094 -0.1036 0.0058976905 0.124359965 -0.08006543 -0.12374397
0.090566516 -0.10642292 0.070640095 0.011107902 0.0124011785 0.019100664 -0.034298606 0.02991626
0.056339018 -0.12536533 0.13966285 0.056911584 0.08619275 4.7968224e-06 -0.062446702 0.06879192
0.006252823 -0.07122595 -0.03973499 -0.072430655 0.078117 -0.09956944 0.16907477 0.0066544586
0.03747127 -0.157436 0.019234682 -0.0097827 0.13612436 0.10110417 0.09717389 0.011277802
-0.06881522 -0.07628166 0.06350108 0.13240533 -0.07919513 -0.014352609 -0.002795894 -0.03911706
0.09879569 0.10121248 0.012732933 0.06013407 -0.095261805 0.07535267 -0.080723815 -0.0805839
0.026718874 0.055228904 -0.036952116 -0.0024781204 -0.06761653 -0.13089062 -0.0057850857 -0.06110566
0.03362986 0.13225989 0.02860196 0.05817605 0.055384073 0.06540263 -0.14841326 0.04961806
-0.10710498 -0.016951151 0.0013812016 -0.05118646 0.014356851 0.10121482 0.035216298 -0.06570872
0.028146777 0.1286711 0.049545385 -0.053450875 -0.04245252 -0.030218158 -0.11323926 0.096087895
0.06138249 0.09081506 0.12815465 0.08229277 -0.087261975 0.034890153 -0.14335595 -0.022373509
-0.12715697 0.0039991764 0.021009568 -0.051990967 -0.13922033 -0.0571254 0.020020267 0.116980195
0.025693372 0.14742514 0.021879958 -0.024812398 0.105406605 -0.08119848 0.11433354 -0.0011636039
-0.15326123 -0.024808751 -0.0058637126 -0.0027886638 -0.075896196 0.17423865 0.01426224 -0.096282095
-0.05911188 -0.0073911482 -0.056061894 0.04791632 0.1052109 0.124248624 0.052763548 0.12989624
0.08128131 0.13738586 -0.050749365 0.025155662 -0.018429397 0.13189416 -0.07847384 -0.1213419
-0.11329435 0.039851047 0.093465246 0.11772295 0.0379172 0.015491281 -0.00793255 0.011359709
-0.0049712006 0.07040963 -0.09693507 0.09222018 -0.0789711 -0.03784401 -0.10229914 -0.115266785
-0.08476895 0.12840831 0.07449099 -0.0044913525 -0.000970533 0.15280841 -0.068883665 -0.14969061
0.19069582 -0.1288117 0.08053521 -0.05427676 0.011505806 0.05248228 -0.026643543 -0.01823941
00000000: 6f64 b93d 0fb7 babd 796c e0bd bf32 acbd
00000010: 7c0d 993c b236 363d ec4e a83d 8c08 88bd
00000020: 8893 403c e949 e6bd 5411 d0bd 5756 21bd
00000030: 8d90 353e 3dfe 2d3c 3d4c 823c c9e7 a43d
00000040: a195 b13c d1a0 b83c cc97 d43d a1a6 953d
00000050: 413e 8c3d d0dd 363d 6df9 ad3b c51b d53d
00000060: 2054 9039 95c1 8d3d 06f7 67bd 5681 673c
00000070: 42ec 053d fa2d ccbd fcd2 b13d 770d eabd
00000080: 8ed7 dcbd 7a9e 90bc 1c6b cdbd 5728 68bd
00000090: 277e 96bd 1e40 5bbe 1a02 bbbd 0e6a ef3c
000000a0: 4552 2abe 2f3a ecbc ac00 fb3d e69f f3bd
000000b0: 5cd3 183e 61fa bc3d 0957 92bd a6b5 ad3c
000000c0: bd44 ebbc aac3 e9bc f1cb 4a3c 1a7e c63d
000000d0: 9f61 31bc 57b8 c73d 4811 ce3d 75e1 95bc
000000e0: aeda 153d 08fd 953c 9051 b93d e6b8 8dbd
000000f0: 1be8 b33d 0b9f 5e3d 41b0 303c e4e9 05be
00000100: a5b0 73bd d6fd d6bd 809a 4dbd a8a2 d93c
00000110: a668 ceba 5b12 57bc cd52 f73d 9f3b 2b3d
00000120: 6604 24be bbde 1fbe 0210 133e e663 8f3d
00000130: 7f09 e1bd 0d46 093e a96a bdbc 36a6 da3d
00000140: baa3 6d3d d2b3 0abd 5859 333a 4ba0 d63d
00000150: 4bd4 e23d 4292 bc3d 1963 09bd ebcf c7bd
00000160: 53cc ce3c f617 e63c 9b1e df3d 3d2c d4bd
00000170: 6a41 c13b 70b0 fe3d 58f9 a3bd 7b6d fdbd
00000180: f07a b93d 43f4 d9bd c1ab 903d ebfd 353c
00000190: 502e 4b3c ff78 9c3c b27c 0cbd f212 f53c
000001a0: bec3 663d c55f 00be c703 0f3e 1f1c 693d
000001b0: d385 b03d 64f4 a036 1dc8 7fbd c7e2 8c3d
000001c0: 7be4 cc3b e9de 91bd 28c1 22bd 8656 94bd
000001d0: cefb 9f3d 10eb cbbd f021 2d3e a50d da3b
000001e0: 797b 193d e736 21be 0d92 9d3c 9e47 20bc
000001f0: 2f64 0b3e b40f cf3d 1b03 c73d 88c6 383c
00000200: feee 8cbd 8f39 9cbd db0c 823d 4395 073e
00000210: 0e31 a2bd 3527 6bbc 513b 37bb 3639 20bd
00000220: 6555 ca3d 7d48 cf3d cb9d 503c 254f 763d
00000230: 9f18 c3bd 8052 9a3d 8752 a5bd 2c09 a5bd
00000240: 8ae1 da3c b437 623d 1a5b 17bd f667 22bb
00000250: 897a 8abd 3108 06be d190 bdbb ee49 7abd
00000260: 77bf 093d 236f 073e a84e ea3c 034a 6e3d
00000270: 69da 623d d0f1 853d a5f9 17be 4f3c 4b3d
00000280: db59 dbbd 24dd 8abc 6f09 b53a e5a8 51bd
00000290: ff38 6b3c b749 cf3d f73e 103d 4b92 86bd
000002a0: 1294 e63c 5bc2 033e 1af0 4a3d 4eef 5abd
000002b0: b2e2 2dbd 128c f7bc fce9 e7bd bbc9 c43d
000002c0: 356c 7b3d 3ffd b93d f93a 033e 1d89 a83d
000002d0: 68b6 b2bd fae8 0e3d e7cb 12be a648 b7bc
000002e0: 7035 02be 860b 833b 421c ac3c 7bf4 54bd
000002f0: c68f 0ebe 53fc 69bd 8b01 a43c 5093 ef3d
00000300: e87a d23c 9ef6 163e 993d b33c 5f43 cbbc
00000310: 6bdf d73d 644b a6bd b427 ea3d 1184 98ba
00000320: 83f0 1cbe b93b cbbc 6324 c0bb 04c2 36bb
00000330: 776f 9bbd 9e6b 323e 2cac 693c 8c2f c5bd
00000340: 4c1f 72bd 7231 f2bb 28a1 65bd e743 443d
00000350: d078 d73d 1076 fe3d 971e 583d 8503 053e
00000360: d176 a63d e1ae 0c3e 91de 4fbd 3f13 ce3c
00000370: 3ff9 96bc 430f 073e e5b6 a0bd 1a82 f8bd
00000380: de06 e8bd da3a 233d b56a bf3d bb18 f13d
00000390: 114f 1b3d 24cf 7d3c 87f7 01bc 131e 3a3c
000003a0: 74e5 a2bb ed32 903d e585 c6bd efdd bc3d
000003b0: 9abb a1bd 5202 1bbd 3682 d1bd fe10 ecbd
000003c0: 589b adbd 787d 033e bb8e 983d 322c 93bb
000003d0: 5e6b 7eba cf79 1c3e e112 8dbd 7f48 19be
000003e0: c445 433e 37e7 03be a5ef a43d 4f51 5ebd
000003f0: d982 3c3c a9f7 563d 8f43 dabc d16a 95bc

hidden_layer_u1.2.bias f4 [128]
0.036685072 -0.035353333 -0.007208673 0.08653808 0.037682015 -0.03525627 0.047842324 0.04944709
0.034022395 0.055141095 -0.06444862 -0.03894019 0.014289072 -0.073649004 0.04884373 -0.01616009
0.027656393 -0.014494886 0.04154336 0.07578915 0.10254187 0.0574282 -0.0068873297 -0.07807918
0.06756302 -0.016399452 0.029346736 0.03312996 -0.057859365 -0.071069494 0.08442908 0.079190284
-0.028268987 -0.08772662 -0.02732928 -0.00021305314 0.04957781 0.021091776 0.008777812 -0.06804204
0.052851103 -0.038639296 0.06454316 0.08265677 -0.06740736 -0.028982278 0.0019970688 0.074409544
-0.06086181 -0.061655115 0.09076086 0.001687308 0.09261395 0.029589474 -0.029238371 0.004719369
-0.018256413 -0.04182142 0.06182743 -0.07112633 0.0848432 -0.045705594 -0.061020333 -0.076591134
0.0794033 0.032617733 -0.03697744 -0.017561266 0.044531625 -0.09497734 -0.04083782 0.08389931
-0.029430183 -0.04263625 0.05196746 -0.018154519 -0.07424455 0.026619233 -0.025248794 0.020687977
-0.14173923 -0.02930284 0.02157636 -0.02404129 0.005170781 -0.109239675 0.037396222 0.04648343
-0.005122531 -0.037569378 -0.057357695 -0.005519742 0.061067484 0.11813199 -0.04625596 0.023093276
0.09595121 -0.04764737 0.095602736 0.02877417 -0.05180208 -0.025347989 0.04884205 0.0012264394
0.07070626 0.041495256 0.007177829 -0.010328398 0.042913035 -0.061437678 0.06887149 0.07920702
-0.021652717 -0.07827149 -0.039868668 0.011529994 0.021963116 0.04969076 -0.039188538 -0.07643237
0.0761434 -0.002902302 -0.094055325 -0.025993938 0.03921306 0.10912296 0.0053792684 0.06760469
00000000: 1643 163d a8ce 10bd bb36 ecbb e03a b13d
00000010: 7558 1a3d e168 10bd 50f6 433d 0889 4a3d
00000020: 115b 0b3d a1db 613d a3fd 83bd c07f 1fbd
00000030: b61c 6a3c 4ad5 96bd 5d10 483d 2a62 84bc
00000040: a98f e23c f57b 6dbc 5f29 2a3d 5837 9b3d
00000050: 7901 d23d d539 6b3d 1caf e1bb fae7 9fbd
00000060: 7b5e 8a3d 2558 86bc 9168 f03c 48b3 073d
00000070: f1fd 6cbd e28c 91bd 27e9 ac3d 842e a23d
00000080: 5d94 e7bc 04aa b3bd a7e1 dfbc 0467 5fb9
00000090: 1a12 4b3d a9c8 ac3c d0d0 0f3c a059 8bbd
000000a0: 667a 583d 3d44 1ebd 342f 843d f447 a93d
000000b0: df0c 8abd 3e6c edbc 41e1 023b 0864 983d
000000c0: 3c4a 79bd 138a 7cbd d4e0 b93d a928 dd3a
000000d0: 62ac bd3d a065 f23c 4f85 efbc f0a4 9a3b
000000e0: 798e 95bc f04c 2bbd c23e 7d3d aeaa 91bd
000000f0: 46c2 ad3d ca35 3bbd 75f0 79bd d0db 9cbd
00000100: 339e a23d 2c9a 053d a875 17bd a5dc 8fbc
00000110: cb66 363d 7b83 c2bd 8f45 27bd 67d3 ab3d
00000120: 9117 f1bc 59a3 2ebd d5db 543d c9b8 94bc
00000130: 870d 98bd 9410 da3c 8fd6 cebc d579 a93c
00000140: 1724 11be 820c f0bc e8c0 b03c 3df2 c4bc
00000150: a86f a93b 0db9 dfbd c82c 193d 6965 3e3d
00000160: e8da a7bb 59e2 19bd e7ef 6abd f4de b4bb
00000170: e621 7a3d 2fef f13d e476 3dbd 1c2e bd3c
00000180: 1182 c43d e329 43bd 5ecb c33d cfb7 eb3c
00000190: 6b2e 54bd 96a6 cfbc 9a0e 483d 7ac0 a03a
000001a0: 72ce 903d eef6 293d fe33 eb3b 7138 29bc
000001b0: 94c5 2f3d 13a6 7bbd 7f0c 8d3d 4a37 a23d
000001c0: 0a61 b1bc ce4c a0bd 544d 23bd 4de8 3c3c
000001d0: feeb b33c 8a88 4b3d 2984 20bd 9388 9cbd
000001e0: 12f1 9b3d 8c34 3ebb 14a0 c0bd 3df1 d4bc
000001f0: e09d 203d dc7b df3d 9344 b03b 5474 8a3d

hidden_layer_u1.3.weight f4 [128, 128]
-0.09390181 -0.097035415 0.039428905 0.027448466 -0.038860276 -0.08886035 -0.0032992875 -0.13306919
0.1197461 0.104209885 0.007101331 -0.050519597 -0.039771263 -0.06251199 -0.06188663 0.055421997
-0.012017937 -0.08567848 -0.0456238 0.021914566 0.005358118 -0.05046441 0.02583816 0.009857304
-0.01855366 -0.061316155 0.010534129 0.034238685 -0.07897273 0.031325735 0.021715494 -0.1400676
0.016521528 -0.047154 -0.02060828 0.095004484 -0.05096276 0.13321878 0.052671365 -0.058970667
-0.117152564 0.03219692 -0.06476816 -0.11475583 0.010601655 0.005516537 0.037951812 0.039005324
0.0638313 -0.021074397 -0.096966095 0.03719093 -0.03364655 -0.08066172 0.029059963 0.0045225117
-0.08711313 -0.07803451 -0.0036913939 0.012338365 0.032252815 -0.14961386 0.0068437536 0.12230194
0.118795365 0.086758316 -0.026598597 -0.056910165 -0.09333684 0.07670847 0.020452915 -0.044465937
-0.02755167 0.07708023 -0.07238769 0.03367291 -0.056099012 0.025272693 -0.0102160275 -0.048034396
-0.059129562 0.04688162 -0.04864373 -0.038738854 -0.06448065 -0.027153766 0.012761703 -0.065814346
-0.035834514 0.030834049 0.025978077 0.040271215 0.05137197 0.06456847 -0.1175675 -0.011267607
0.02478074 0.007955477 0.062827095 0.008628019 0.034382798 0.13573189 0.032048356 -0.08248664
-0.0076431166 -0.070813835 -0.05120323 0.057119347 0.039443776 0.026480906 -0.08938461 -0.06874323
0.07625854 0.019253647 -0.02704193 -0.10243647 0.06720792 0.0007775243 0.02697448 -0.08306843
-0.119698755 -0.0737965 0.116525866 0.028603595 0.0594205 -0.10662579 -0.048460852 0.04615857
-0.17343964 -0.049060818 -0.047231156 0.09932561 -0.05066382 0.055549495 0.07047384 -0.09922283
0.038173385 0.02009473 0.04556521 -0.09333063 -0.12460868 -0.10688715 0.057701003 0.10625953
0.009854428 -0.09927892 -0.043618035 0.08693885 -0.023933303 0.07654487 -0.042227715 0.11508438
-0.11165354 -0.03605501 -0.09511876 0.019212594 0.008569837 0.01736707 -0.0730891 -0.14132552
0.03749824 -0.07981716 -0.010153926 0.053653453 0.029965116 0.12204607 -0.06716981 -0.020717924
-0.08035591 -0.08372173 0.05203606 -0.004260905 -0.013333611 -0.12761825 -0.031900432 -0.046805855
0.01907017 0.005465159 0.16367741 0.020723825 0.14547111 -0.08183417 0.06725785 -0.059952855
0.02211633 -0.12255117 -0.07026312 -0.0964726 -0.07462789 -0.13523631 0.07516935 0.014495731
0.06630216 -0.036881045 -0.05510234 -0.07999329 0.0787105 -0.05402513 0.009673523 0.029123323
0.017335206 0.0032872346 0.030627863 0.16750099 -0.04474852 0.007878577 0.043274697 0.0012410202
0.019039737 0.074547105 0.068705946 0.05203569 0.031415828 -0.032980856 -0.0971331 -0.15145774
0.0032195633 0.022215908 0.043459516 -0.10645704 0.08438136 0.11749383 -0.09446509 -0.09918224
0.03616927 0.012845868 -0.067742266 0.06458093 -0.06666487 0.007582955 0.03857994 0.12862675
-0.07724788 -0.039200045 0.029908273 0.0016774 -0.0026455699 0.07005619 -0.021577964 0.065319516
-0.12521137 -0.14064926 -0.0989233 0.19053589 0.15640041 -0.015785664 -0.033439945 0.036003258
0.025638519 -0.09381733 -0.07414637 0.046132702 0.11640782 0.053816877 0.076786466 -0.16913883
00000000: 984f c0bd 81ba c6bd 3480 213d 9bdb e03c
00000010: f42b 1fbd 6afc b5bd dc38 58bb 4a43 08be
00000020: 713d f53d fe6b d53d 48b2 e83b a3ed 4ebd
00000030: 31e7 22bd 4906 80bd d67c 7dbd 2d02 633d
00000040: e2e6 44bc 3378 afbd 06e0 3abd 2d86 b33c
00000050: 2793 af3b c5b3 4ebd 8daa d33c 8880 213c
00000060: d8fd 97bc a626 7bbd 5797 2c3c dd3d 0c3d
00000070: 74bc a1bd 6a4f 003d b1e4 b13c e26d 0fbe
00000080: 2858 873c 8d24 41bd b2d2 a8bc b691 c23d
00000090: 54be 50bd 816a 083e eebd 573d 3a8b 71bd
000000a0: afed efbd ebe0 033d 2ba5 84bd 1b05 ebbd
000000b0: 90b2 2d3c 11c4 b43b 5c73 1b3d 0cc4 1f3d
000000c0: fcb9 823d 37a4 acbc 2996 c6bd 8455 183d
000000d0: f7d0 09bd f931 a5bd 290f ee3c 9431 943b
000000e0: 5e68 b2bd 8fd0 9fbd 50eb 71bb db26 4a3c
000000f0: 871b 043d 6034 19be 9141 e03b 7179 fa3d
00000100: fc4a f33d 58ae b13d 4de5 d9bc a21a 69bd
00000110: 6327 bfbd 5519 9d3d df8c a73c ea21 36bd
00000120: 0ab4 e1bc 3ddc 9d3d ff3f 94bd 9bec 093d
00000130: 14c8 65bd ae08 cf3c 2061 27bc b7bf 44bd
00000140: d731 72bd f106 403d a63e 47bd a2ac 1ebd
00000150: 6e0e 84bd 9371 debc 7616 513c acc9 86bd
00000160: 36c7 12bd b097 fc3c facf d43c 6ef3 243d
00000170: 6a6b 523d 793c 843d 3bc7 f0bd c59b 38bc
00000180: fa00 cb3c b057 023c 7eab 803d 895c 0d3c
00000190: fad4 0c3d 4dfd 0a3e 2345 033d c1ee a8bd
000001a0: 1c73 fabb d806 91bd 7aba 51bd faf5 693d
000001b0: cc8f 213d 7cee d83c 470f b7bd 40c9 8cbd
000001c0: 702d 9c3d d3b9 9d3c 0a87 ddbc 36ca d1bd
000001d0: 4ea4 893d c6d2 4b3a 96f9 dc3c c81f aabd
000001e0: 9f24 f5bd 9f22 97bd 1da5 ee3d 1652 ea3c
000001f0: e962 733d 9f5e dabd e37e 46bd c510 3d3d
00000200: 299a 31be fff3 48bd 7575 41bd 3a6b cb3d
00000210: de84 4fbd de87 633d 9754 903d 5735 cbbd
00000220: b25b 1c3d b49d a43c 96a2 3a3d 2124 bfbd
00000230: d632 ffbd a6e7 dabd e357 6c3d 999e d93d
00000240: 7774 213c bf52 cbbd d3a8 32bd ff0c b23d
00000250: c60f c4bc 8fc3 9c3d f8f6 2cbd 5cb1 eb3d
00000260: 9caa e4bd 6bae 13bd a0cd c2bd bb63 9d3c
00000270: 8068 0c3c 6345 8e3c bdaf 95bd a3b7 10be
00000280: c197 193d 2e77 a3bd a75c 26bc b9c3 5b3d
00000290: 6779 f53c 4af3 f93d 5390 89bd a3b8 a9bc
000002a0: a491 a4bd 4c76 abbd c323 553d 109f 8bbb
000002b0: 3875 5abc 5cae 02be 07aa 02bd 7fb7 3fbd
000002c0: 0c39 9c3c 1415 b33b 0d9b 273e 03c5 a93c
000002d0: 61f6 143e ac98 a7bd 7cbe 893d 2091 75bd
000002e0: 4e2d b53c 1cfc fabd 1ce6 8fbd 6d93 c5bd
000002f0: 82d6 98bd 637b 0abe 63f2 993d 817f 6d3c
00000300: 6dc9 873d 9410 17bd feb2 61bd 86d3 a3bd
00000310: f832 a13d 7449 5dbd b27d 1e3c 0994 ee3c
00000320: 9002 8e3c a56e 573b 49e7 fa3c 6185 2b3e
00000330: 394a 37bd 2615 013c cf40 313d baa9 a23a
00000340: 39f9 9b3c 27ac 983d b4b5 8c3d 6023 553d
00000350: e2ad 003d ef16 07bd b8ed c6bd bd17 1bbe
00000360: 4fff 523b 23fe b53c 9b02 323d 2606 dabd
00000370: 22d0 ac3d 9ba0 f03d ea76 c1bd 0f20 cbbd
00000380: 3a26 143d 7a77 523c 75bc 8abd 0243 843d
00000390: 9787 88bd 707a f83b 0006 1e3d bbb6 033e
000003a0: 2334 9ebd 3a90 20bd 3202 f53c 34dc db3a
000003b0: 4c61 2dbb 9f79 8f3d 45c4 b0bc 3dc6 853d
000003c0: 6937 00be 5c06 10be 4d98 cabd d71b 433e
000003d0: 6e27 203e f050 81bc 53f8 08bd 2778 133d
000003e0: df07 d23c 4d23 c0bd 0dda 97bd a5f5 3c3d
000003f0: 3967 ee3d 166f 5c3d 3942 9d3d bb32 2dbe

hidden_layer_u1.3.bias f4 [128]
0.045808997 -0.03391344 0.050731465 0.026403833 -0.0025921783 0.022490459 -0.061941262 0.071890384
-0.04967481 0.013978982 0.028946498 0.06831902 0.063640885 -0.07319915 -0.012935299 -0.021369101
0.1358799 -0.06565534 -0.022101082 -0.018921915 0.08972525 0.031010639 0.07795238 0.047597744
-0.0127297 -0.012841308 -0.0031110474 0.029626373 -0.004753155 -0.0411349 -0.055489905 0.072460584
0.11216524 -0.023204885 0.025272442 -0.07335065 -0.060717087 -0.018302144 -0.09318176 -0.053014375
-0.073118255 -0.08805486 -0.001421184 -0.09452864 -0.079930976 0.06596932 0.066695005 -0.008473683
-0.00042779936 -0.05916912 -0.04196519 -0.0778529 -0.0068735494 0.06120689 -0.09279521 0.049144413
-0.036419597 0.04207357 0.053808823 -0.004480739 0.058322668 -0.031392027 -0.013202646 0.08076
-0.061472047 0.0061171395 -0.11484099 0.087883666 0.04815042 -0.03002158 -0.040164363 0.023847606
0.097496726 0.04892253 -0.03299987 0.014612599 -0.0555157 -0.041218963 -0.035278853 0.067295894
0.0042737005 0.05412618 -0.024502901 -0.03886536 0.021867964 -0.037358638 -0.016795104 -0.031458065
0.029380588 -0.124414034 0.13030046 0.00050680584 0.03065186 -0.07343558 0.020587986 0.042729065
-0.10574245 -0.02872212 0.047115445 0.044019435 -0.014520426 0.08348733 0.057513326 -0.09527789
-0.011258306 -0.092100866 0.07064171 0.07218772 -0.016949663 0.000947867 0.03269134 -0.04055349
-0.007655474 0.021423835 -0.08409956 0.074225344 0.056604803 0.010913271 -0.044286475 -0.057877403
-0.019656494 0.021298982 -0.08778721 0.078401685 0.034647737 -0.091946974 0.11204202 0.046953328
00000000: 37a2 3b3d d2e8 0abd cccb 4f3d da4c d83c
00000010: 89e1 29bb e93d b83c 1fb6 7dbd 443b 933d
00000020: d077 4bbd 1a08 653c 3521 ed3c d8ea 8b3d
00000030: 2756 823d 70e9 95bd 94ee 53bc 410e afbc
00000040: 1a24 0b3e 4f76 86bd 540d b5bc 2202 9bbc
00000050: dfc1 b73d 060a fe3c 7fa5 9f3d daf5 423d
00000060: 3b90 50bc 5964 52bc b7e2 4bbb 02b3 f23c
00000070: 5bc0 9bbb 127d 28bd 6249 63bd 3766 943d
00000080: e4b6 e53d 2c18 bebc 2708 cf3c de38 96bd
00000090: 7bb2 78bd 61ee 95bc 14d6 bebd 9a25 59bd
000000a0: 06bf 95bd 1b56 b4bd 0647 baba 3b98 c1bd
000000b0: dab2 a3bd ec1a 873d 6497 883d 34d5 0abc
000000c0: 424a e0b9 525b 72bd b1e3 2bbd 5771 9fbd
000000d0: 833b e1bb 13b4 7a3d 6a0b bebd a74b 493d
000000e0: b72c 15bd 5655 2c3d a466 5c3d 2ad3 92bb
000000f0: c0e3 6e3d ed94 00bd e94f 58bc 8065 a53d
00000100: 1dca 7bbd 4972 c83b c131 ebbd 5afc b33d
00000110: 6039 453d d1ef f5bc 6383 24bd 0e5c c33c
00000120: 5dac c73d fe62 483d df2a 07bd af69 6f3c
00000130: 6e64 63bd 37d5 28bd 8f80 10bd 6ed2 893d
00000140: 660a 8c3b 6ab3 5d3d 4fba c8bc 4931 1fbd
00000150: 7224 b33c 5f05 19bd e395 89bc 2cda 00bd
00000160: 8faf f03c c9cc febd 7c6d 053e 2adb 043a
00000170: 9c19 fb3c 6565 96bd 23a8 a83c ac04 2f3d
00000180: 7f8f d8bd a74a ebbc 20fc 403d b94d 343d
00000190: 15e7 6dbc 68fb aa3d 1893 6b3d 0e21 c3bd
000001a0: c274 38bc 619f bcbd 9aac 903d 28d7 933d
000001b0: 05da 8abc 477a 783a 5be7 053d 6b1b 26bd
000001c0: c5da fabb 0a81 af3c 643c acbd 7503 983d
000001d0: 70da 673d 94cd 323c bc65 35bd db10 6dbd
000001e0: a806 a1bc 347b ae3c c8c9 b3bd 1091 a03d
000001f0: c9ea 0d3d b24e bcbd 4976 e53d 2252 403d

hidden_layer_u1.4.weight f4 [128, 128]
-0.015775822 -0.03729981 -0.033106357 -0.02495674 -0.15957022 0.026949553 0.0406654 -0.052343585
0.0072214813 0.6911447 -0.07347279 -0.04306422 -0.04156795 0.02660984 -0.14939393 -0.046835147
-0.27299848 0.05059855 0.29612437 0.047399182 -0.07969611 0.012554517 -0.083873026 0.016183095
-0.09659771 -0.03530802 0.10102355 -0.09559167 0.6908105 -0.07854343 0.03570658 0.383876
0.7061853 -0.041108795 0.09291986 -0.09033292 0.18932761 0.23815529 -0.54335445 0.33319348
-0.0077005224 -0.12828662 0.07672229 0.04121463 -0.08139301 0.058021985 0.2705607 -0.038634975
0.009924792 0.61058104 -0.10723451 -0.10543549 0.05911274 0.045330897 -0.0833795 -0.11740452
-0.20047393 -0.06851208 0.26009998 0.03619416 -0.112973586 -0.03059455 0.015195028 0.05088689
0.22515252 -0.17854346 -0.11172503 -0.16134717 0.05554178 -0.0134684 0.25253797 0.12757038
-0.13563089 0.0012944861 0.023180677 -0.06574163 -0.6222597 0.041414104 -0.052125804 -0.028118411
0.021389516 0.011282404 -0.015610408 0.18148173 -0.015261439 -0.19620666 0.056067184 -0.014945463
0.24675433 0.061585136 -0.04210739 -0.024435865 -0.031419165 -0.056911737 -0.060994357 0.031075826
-0.1585285 -0.16768542 0.1714403 0.40017745 -0.028033074 0.011977173 -0.76504153 0.045136806
-0.011727938 -0.68910784 -0.04169045 0.18242262 -0.38212168 -0.34676012 -0.103750244 -0.10937011
0.054570764 0.03433907 0.22647034 -0.22694011 0.26947862 0.44966835 -0.06774958 -0.095126174
-0.017445099 -0.081870146 0.048034307 -0.44167033 -0.033274908 -0.014208916 -0.17909285 -0.0134621635
-0.038618937 -0.09468815 0.0021748724 -0.08069166 -0.066247195 -0.072795816 0.11488263 -0.0037284414
0.09293719 -0.11320937 0.19841644 -0.048172526 -0.06995376 0.011317231 -0.0841118 -0.014663602
0.1010497 0.0835969 -0.038550667 -0.09683585 -0.06208972 0.063171096 -0.023893712 0.025026003
0.012049084 0.010717783 0.01713632 0.003917784 0.1573592 0.031892568 0.061459143 -0.052587986
-0.15574616 -0.08515777 0.015745506 -0.048083887 -0.0981491 -0.11880748 0.1558718 0.018737447
-0.041174997 -0.008000487 0.06968676 0.030860059 -0.014769887 -0.07386887 0.08247889 0.034691483
0.0059323567 -0.10759021 -0.0809777 0.02289883 -0.06747921 -0.13083681 -0.080253825 -0.051273286
0.059836153 0.033889472 -0.038959477 -0.061153103 -0.01625284 0.03541609 -0.069891155 0.08378367
0.016295636 0.03373839 0.03174578 0.02437402 0.11182529 -0.015423389 0.0057263197 0.023061436
0.14877145 -0.028018631 -0.056675725 -0.02457503 -0.05602139 -0.024667686 -0.10376084 0.009740174
-0.06774084 -0.008340062 -0.06044036 0.12017629 0.05600133 -0.038988322 0.15593158 -0.07291134
-0.13044465 0.04179824 -0.13213257 -0.03316376 0.1187127 0.02047455 0.0059845927 -0.103958026
-0.05489834 0.0988977 0.011695597 -0.059041876 -0.12207079 0.026386473 0.11496838 -0.06369454
0.041336775 0.11143459 -0.06511963 -0.043086804 0.027658872 -0.09933721 -0.07049439 -0.07205629
-0.06837392 0.008914821 -0.08549764 0.089577965 -0.084047824 0.12500282 -0.11527968 0.11103469
-0.02702703 0.038918167 -0.05 0.03548328 0.081122585 -0.005154774 0.17096838 0.06595985
00000000: 4c3c 81bc b0c7 18bd 889a 07bd 1472 ccbc
00000010: 6066 23be 4fc5 dc3c c390 263d 3a66 56bd
00000020: 2da2 ec3b dcee 303f e778 96bd 1c64 30bd
00000030: 2843 2abd e1fc d93c b9fa 18be 36d6 3fbd
00000040: 75c6 8bbe 6d40 4f3d 9d9d 973e a525 423d
00000050: b737 a3bd 76b1 4d3c 9fc5 abbd 6992 843c
00000060: 05d5 c5bd 249f 10bd 6fe5 ce3d 91c5 c3bd
00000070: f5d8 303f 61db a0bd 1041 123d 658b c43e
00000080: 8fc8 343f b261 28bd c44c be3d 7700 b9bd
00000090: 19df 413e fbde 733e 4719 0bbf 5698 aa3e
000000a0: aa54 fcbb 915d 03be 9320 9d3d acd0 283d
000000b0: 61b1 a6bd 76a8 6d3d ef86 8a3e b53f 1ebd
000000c0: 989b 223c 0a4f 1c3f c49d dbbd 90ee d7bd
000000d0: 3320 723d e4ac 393d dfc2 aabd c871 f0bd
000000e0: 0a49 4dbe 1050 8cbd d32b 853e 5440 143d
000000f0: b25e e7bd 6ca1 fabc 91f4 783c c66e 503d
00000100: 628e 663e 19d4 36be 18d0 e4bd 3138 25be
00000110: c77f 633d 90aa 5cbc a84c 813e cfa1 023e
00000120: d3e2 0abe bfab a93a 67e5 bd3c 8ca3 86bd
00000130: 694c 1fbf d6a1 293d de81 55bd 9558 e6bc
00000140: 1139 af3c d5d9 383c ccc2 7fbc 59d6 393e
00000150: 1d0b 7abc 66ea 48be b4a6 653d d1dd 74bc
00000160: 2bad 7c3e b240 7c3d cc78 2cbd b92d c8bc
00000170: 62b1 00bd 481c 69bd 38d5 79bd bb92 fe3c
00000180: 4c55 22be bab5 2bbe 0c8e 2f3e 0fe4 cc3e
00000190: 9ea5 e5bc e83b 443c c3d9 43bf 5fe1 383d
000001a0: 8a26 40bc 5f69 30bf 9bc3 2abd ffcc 3a3e
000001b0: 74a5 c3be 8b8a b1be 027b d4bd 70fd dfbd
000001c0: 9885 5f3d 20a7 0c3d d7e7 673e fd62 68be
000001d0: 1af9 893e ee3a e63e 4bc0 8abd 83d1 c2bd
000001e0: 06e9 8ebc 89ab a7bd 9fbf 443d 9d22 e2be
000001f0: 454b 08bd 83cc 68bc 1e64 37be 6890 5cbc
00000200: e42e 1ebd dceb c1bd 4e88 0e3b ab41 a5bd
00000210: 9cac 87bd f915 95bd 9647 eb3d de58 74bb
00000220: da55 be3d 50da e7bd ae2d 4b3e 8e50 45bd
00000230: eb43 8fbd e86b 393c cf42 acbd 9b3f 70bc
00000240: 25f3 ce3d da34 ab3d 4ee7 1dbd e051 c6bd
00000250: ca51 7ebd d95f 813d bfbc c3bc 5503 cd3c
00000260: 8569 453c a499 2f3c 7861 8c3c c160 803b
00000270: c522 213e c8a1 023d 95bc 7b3d 8066 57bd
00000280: ec7b 1fbe 3267 aebd b8fc 803c 9cf3 44bd
00000290: 6502 c9bd 5651 f3bd db9c 1f3e 467f 993c
000002a0: 1da7 28bd 7a14 03bc efb7 8e3d 3cce fc3c
000002b0: 65fd 71bc 9048 97bd b1ea a83d a818 0e3d
000002c0: 3764 c23b 4258 dcbd a3d7 a5bd 5496 bb3c
000002d0: 8a32 8abd 16fa 05be 1e5c a4bd f003 52bd
000002e0: c116 753d b0cf 0a3d f993 1fbd ad7b 7abd
000002f0: ad24 85bc 7610 113d 1823 8fbd c696 ab3d
00000300: 6d7e 853c 4431 0a3d dd07 023d 06ac c73c
00000310: a804 e53d 62b2 7cbc daa3 bb3b 56eb bc3c
00000320: 8b57 183e 5487 e5bc ce24 68bd 9351 c9bc
00000330: af76 65bd e313 cabc 9080 d4bd 4095 1f3c
00000340: b6bb 8abd c1a4 08bc 5090 77bd fd1e f63d
00000350: a761 653d 38b2 1fbd 87ac 1f3e 8a52 95bd
00000360: 4893 05be a234 2b3d c34d 07be b9d6 07bd
00000370: a51f f33d 3eba a73c 671a c43b f2e7 d4bd
00000380: 15dd 60bd e18a ca3d e49e 3f3c e5d5 71bd
00000390: 4000 fabd 7228 d83c 8b74 eb3d 4872 82bd
000003a0: c050 293d d137 e43d 715d 85bd ca7b 30bd
000003b0: dc94 e23c 4f71 cbbd 5d5f 90bd 4092 93bd
000003c0: a007 8cbd 780f 123c 6319 afbd a774 b73d
000003d0: 4421 acbd bd00 003e c117 ecbd 2866 e33d
000003e0: ca67 ddbc a868 1f3d cdcc 4cbd ea56 113d
000003f0: 9923 a63d 61e9 a8bb 5612 2f3e f515 873d

hidden_layer_u1.4.bias f4 [128]
0.039888732 0.04285537 -0.030655095 -0.03988331 0.0072645615 0.009586688 0.027103355 0.0057637603
-0.061660383 -0.049750745 0.098510966 0.03446678 0.04607687 0.02673693 -0.062778935 0.0023335584
0.045670155 -0.037594132 0.066881984 0.056348342 0.08556771 -0.049640425 0.10388977 0.016821604
-0.0027300478 -0.09155614 -0.06166771 -0.0017097498 -0.07826287 0.034443367 -0.014274174 -0.1024705
0.02425117 0.0485861 0.023330225 -0.0034957747 -0.000121461584 -0.048558768 0.04243298 0.038161926
0.024761315 0.02379598 -0.061003864 0.026621073 -0.005777826 -0.037054926 -0.0554419 0.011952577
-0.040996466 0.020712236 -0.030922985 0.09357372 -0.037746675 -0.0426428 -0.014842669 0.013410477
-0.032791946 -0.03070807 0.011266878 0.045447037 0.06658374 0.04906141 -0.006752197 -0.0132318195
-0.0014819946 0.055435892 0.009381388 0.0052437843 0.06546048 0.02547099 -0.0485982 0.027724868
-0.032806862 -0.037491653 0.04351252 0.046391085 -0.007925657 0.0658917 0.0667326 0.02122951
0.015928254 0.028486932 -0.053737428 0.009723484 0.047345888 0.026688 0.0029141118 0.027499693
0.038252592 0.018652705 0.08821897 -0.014981186 0.10110751 0.050112482 0.063512385 -0.029973289
-0.020651635 -0.050029263 -0.064757906 0.04203443 0.008328474 -0.043650996 -0.033661228 0.0021234965
0.04946232 -0.020052256 -0.08577125 0.04613802 -0.027688218 -0.018454187 0.012473073 -0.057957187
-0.022149628 -0.099774 -0.050067596 -0.052932423 0.058152642 0.0496896 -0.07488475 0.040104717
-0.07092801 0.01672054 -0.04592268 -0.022981051 -0.05672767 -0.071576074 0.0386987 0.086968355
00000000: 5e62 233d 1d89 2f3d 6520 fbbc af5c 23bd
00000010: 8f0b ee3b 7c11 1d3c db07 de3c eddd bc3b
00000020: 998f 7cbd 70c7 4bbd 1ec0 c93d 0a2d 0d3d
00000030: 1abb 3c3d 6807 db3c 3e92 80bd 9dee 183b
00000040: a110 3b3d 4efc 19bd 6cf9 883d 85cd 663d
00000050: 203e af3d c253 4bbd 29c4 d43d 76cd 893c
00000060: 9aea 32bb c981 bbbd 4897 7cbd af19 e0ba
00000070: 4948 a0bd 7d14 0d3d 3ade 69bc 0edc d1bd
00000080: 64aa c63c 3802 473d 071f bf3c 5e19 65bb
00000090: 31b9 feb8 8fe5 46bd 34ce 2d3d ae4f 1c3d
000000a0: 3ed8 ca3c c9ef c23c 30df 79bd 7014 da3c
000000b0: eb53 bdbb e8c6 17bd 0c17 63bd bed4 433c
000000c0: e9eb 27bd b5ac a93c 3352 fdbc 94a3 bf3d
000000d0: 429c 1abd 37aa 2ebd aa2e 73bc 9eb7 5b3c
000000e0: d950 06bd 7e8f fbbc b698 383c ac26 3a3d
000000f0: 0e5d 883d 9ef4 483d 8941 ddbb 46ca 58bc
00000100: 7d3f c2ba bf10 633d 65b4 193c 0dd4 ab3b
00000110: 2510 863d 8aa8 d03c e80e 47bd 431f e33c
00000120: 7d60 06bd d990 19bd 2f3a 323d 9404 3e3d
00000130: 9dda 01bc 3af2 863d 1aab 883d 82e9 ad3c
00000140: f87b 823c 6d5d e93c c71b 5cbd 3f4f 1f3c
00000150: c3ed 413d cba0 da3c affa 3e3b 0947 e13c
00000160: c0ae 1c3d 8fcd 983c 26ac b43d a673 75bc
00000170: 7411 cf3d bf42 4d3d c812 823d 8b8a f5bc
00000180: 9e2d a9bc 7ceb 4cbd cb9f 84bd 4b2c 2c3d
00000190: 2774 083c 63cb 32bd 5be0 09bd 5c2a 0b3b
000001a0: 0099 4a3d a144 a4bc d6a8 afbd 38fb 3c3d
000001b0: 67d2 e2bc 3c2d 97bc dc5b 4c3c 8464 6dbd
000001c0: 2373 b5bc 5056 ccbd ae13 4dbd abcf 58bd
000001d0: 7731 6e3d 5287 4b3d 2d5d 99bd d844 243d
000001e0: b442 91bd 84f9 883c 6c19 3cbd c242 bcbc
000001f0: 465b 68bd 7a96 92bd 8782 1e3d 771c b23d
