demo/Loss_adaptive_g4/final_time_1.0_0.9.pt (torch, 338069 bytes, 13 tensors)

layers_phi.0.weight f4 [128, 2]
-0.21858442 0.12852117 0.36022887 -0.073408544 0.35360864 0.20494035 0.01409888 -0.8459144
-0.0044384915 -2.453082 -0.18260533 -0.26705766 -0.3013175 -0.012901206 0.044450097 -3.5065608
0.2806643 1.0200089 0.30662626 0.85081524 0.2985948 -0.76599973 -0.26523656 -0.23176093
-0.22268477 0.45842516 -0.34084725 -0.04585591 -0.071401864 -1.7976781 -0.18287978 -0.37479126
0.22474228 -0.16751996 0.3835687 0.7769713 -0.27920747 -0.039573707 -0.26541105 0.080959074
0.29911572 -0.35648763 -0.30707034 0.40120646 0.37368798 -0.587512 -0.015541377 -0.8505657
-0.3158319 -0.74290925 -0.22558916 -0.0825067 -0.016216345 -0.45508766 -0.18943362 2.9726217
-0.104954034 1.0214581 0.24610263 -0.17217538 -0.25455496 0.39397085 -0.43148938 0.4811166
0.22097756 -1.1225908 -0.19701648 -0.84536767 -0.31663665 0.67837596 -0.22016105 -0.13030915
-0.38958603 0.8695677 0.008455836 0.83127785 -0.2496269 0.1381031 0.2151764 0.56751424
0.339635 -0.26702657 -0.13327238 -1.0199234 -0.32524258 -0.097647294 0.37538064 -0.15164629
0.22561067 -0.14496815 -0.36266947 -0.05240324 0.11925644 -2.815966 0.33834097 -0.532792
-0.24042878 -0.22527817 -0.26455948 -0.37728244 -0.3568191 -0.5992777 0.051191557 -0.17125827
0.30530974 0.24688427 0.15953843 -1.7596141 0.4003134 -0.46835503 0.2830092 0.8112565
0.33755815 -0.27540618 -0.2092018 0.6093163 0.14559312 -1.3239018 0.13369708 1.7965646
-0.27208143 0.16203779 -0.2658807 -1.8460916 -0.4325914 -0.2770095 -0.19056706 1.5654893
0.07543751 2.0263002 0.26792026 1.0901113 0.009349266 -3.2129495 0.30091038 0.13216597
-0.32340533 -0.32903463 -0.33746043 -1.4915943 -0.09495623 1.97594 0.29538947 1.5850527
0.18869734 0.28154787 -0.27337444 0.2827489 -0.2908264 -0.5898117 0.24392611 -0.52470505
-0.081095256 0.34465292 0.34308204 0.07834654 -0.32997242 -0.5513851 -0.36991015 0.004114507
-0.3019462 -0.012280544 0.35458848 -1.0329127 0.09589322 3.7913842 0.28983644 -0.18559681
-0.37162414 -0.72455966 0.29091755 0.1379131 -0.39523783 0.15005712 -0.3452798 -0.06965169
0.18901159 -0.33716267 0.37102345 -0.05621757 0.28157312 0.76425016 0.19913116 0.062311135
-0.30384126 0.3259101 0.0061099334 0.024084419 -0.24433115 1.3684374 -0.36774963 -0.5152336
0.25848734 -0.04415005 0.20280312 -0.1684489 0.26458386 0.60246855 0.01647928 -2.7077754
-0.2580824 -0.021325355 -0.37465852 0.08809951 -0.35991874 0.39083758 -0.36318538 0.06173469
0.30069193 0.0032960526 0.24229135 -0.16559836 -0.07736452 -1.7264403 0.21799386 1.4295171
-0.33478945 -2.409133 0.3556732 -0.24045321 0.081657894 2.935127 0.21076973 -0.22484723
0.3497001 0.42939097 0.38688555 -0.03201444 0.25753346 -0.5532314 -0.0103487605 -1.5307066
0.29077864 -0.107572675 0.18393315 0.9638054 -0.14415684 1.4101212 -0.20697282 0.8285687
-0.09358167 2.0788941 0.23382388 -0.112436645 -0.24051681 0.38691032 0.36714995 0.22892116
0.10722028 -0.7238538 0.1306482 0.99377835 0.053578407 -1.40005 -0.326909 -0.6155284
00000000: 98d4 5fbe 0e9b 033e eb6f b83e 3857 96bd
00000010: 310c b53e e2db 513e fdfe 663c d98d 58bf
00000020: c470 91bb 4cff 1cc0 e4fc 3abe c8bb 88be
00000030: 4a46 9abe 945f 53bc 4e11 363d 7e6b 60c0
00000040: 3bb3 8f3e a78f 823f 1efe 9c3e 07cf 593f
00000050: 6be1 983e 8f18 44bf 16cd 87be bd52 6dbe
00000060: 7a07 64be b4b6 ea3e 8883 aebe 68d3 3bbd
00000070: 243b 92bd 511a e6bf d644 3bbe a4e4 bfbe
00000080: d722 663e 5a8a 2bbe 1e63 c43e 97e7 463f
00000090: 48f4 8ebe 0a18 22bd f5e3 87be dfcd a53d
000000a0: b225 993e 8c85 b6be 5338 9dbe ef6a cd3e
000000b0: 0854 bf3e 3067 16bf 42a1 7ebc acbe 59bf
000000c0: b8b4 a1be 4d2f 3ebf d800 67be 46f9 a8bd
000000d0: 24d8 84bc 4001 e9be e3fa 41be 6f3f 3e40
000000e0: 24f2 d6bd 24bf 823f 5402 7c3e be4e 30be
000000f0: 0755 82be 8cb6 c93e 2dec dcbe ea54 f63e
00000100: f147 623e 0eb1 8fbf b0be 49be 046a 58bf
00000110: 331e a2be 0caa 2d3f e671 61be c36f 05be
00000120: d277 c7be fd9b 5e3f 598a 0a3c a0ce 543f
00000130: 329e 7fbe e66a 0d3e 3457 5c3e 9d48 113f
00000140: a4e4 ad3e b5b7 88be 8e78 08be da8c 82bf
00000150: 3286 a6be 4efb c7bd e431 c03e 2a49 1bbe
00000160: 7c06 673e 8872 14be d0af b9be c8a4 56bd
00000170: b83c f43d c938 34c0 073b ad3e 0e65 08bf
00000180: f632 76be 52af 66be 5774 87be 2a2b c1be
00000190: feb0 b6be 436a 19bf 3dae 513d 545e 2fbe
000001a0: 8f51 9c3e 3bcf 7c3e 0b5e 233e 093b e1bf
000001b0: e1f5 cc3e 3bcc efbe 95e6 903e 82ae 4f3f
000001c0: 6cd4 ac3e 0a02 8dbe ff38 56be 27fc 1b3f
000001d0: 5d16 153e 9d75 a9bf e3e7 083e d4f5 e53f
000001e0: 424e 8bbe 3ced 253e 8421 88be bb4c ecbf
000001f0: 9f7c ddbe 30d4 8dbe 0324 43be f461 c83f
00000200: fb7e 9a3d e7ae 0140 d82c 893e c488 8b3f
00000210: aa2d 193c f7a0 4dc0 ed10 9a3e 8456 073e
00000220: 6295 a5be 3a77 a8be 9dc7 acbe 90ec bebf
00000230: 6978 c2bd 9aeb fc3f 4a3d 973e 02e3 ca3f
00000240: e039 413e 0b27 903e bcf7 8bbe 77c4 903e
00000250: 33e7 94be e6fd 16bf c4c7 793e 1253 06bf
00000260: 4515 a6bd 5976 b03e 73a8 af3e 2774 a03d
00000270: 25f2 a8be 9327 0dbf dd64 bdbe fdd2 863b
00000280: b198 9abe 5634 49bc 9f8c b53e 7c36 84bf
00000290: aa63 c43d 0aa6 7240 7165 943e 170d 3ebe
000002a0: 8545 bebe be7c 39bf 25f3 943e 1739 0d3e
000002b0: 9d5c cabe 93a8 193e 84c8 b0be 8ca5 8ebd
000002c0: 418c 413e 96a0 acbe c9f6 bd3e 6544 66bd
000002d0: 5a2a 903e e6a5 433f 0ae9 4b3e f639 7f3d
000002e0: 1591 9bbe b0dd a63e d635 c83b b04c c53c
000002f0: f231 7abe f528 af3f ae49 bcbe 59e6 03bf
00000300: 7458 843e afd6 34bd 9fab 4f3e de7d 2cbe
00000310: 8977 873e 613b 1a3f 8eff 863c 314c 2dc0
00000320: 6023 84be 83b2 aebc 3ed3 bfbe 846d b43d
00000330: 4547 b8be dd1b c83e 6ff3 b9be 84dd 7c3d
00000340: 4bf4 993e 9602 583b 391b 783e 9e92 29be
00000350: 4a71 9ebd fffb dcbf c839 5f3e 6bfa b63f
00000360: 8669 abbe 3c2f 1ac0 cc1a b63e 5e39 76be
00000370: 413c a73d 1fd9 3b40 05d4 573e 5a3e 66be
00000380: e40b b33e 22d9 db3e dd15 c63e 9321 03bd
00000390: 6ddb 833e 93a0 0dbf d98d 29bc 32ee c3bf
000003a0: f0e0 943e 104f dcbd f958 3c3e f3bb 763f
000003b0: da9d 13be da7e b43f aff0 53be 141d 543f
000003c0: bfa7 bfbd 9a0c 0540 876f 6f3e 2f45 e6bd
000003d0: 0a4a 76be 1c19 c63e 14fb bb3e 4f6a 6a3e
000003e0: 4e96 db3d 7c4e 39bf a4c8 053e 4268 7e3f
000003f0: 0875 5b3d d734 b3bf 9e60 a7be 4593 1dbf

layers_phi.0.bias f4 [128]
0.004405426 -0.41338587 0.21995156 0.027035473 0.0011538375 -0.12294262 -0.07818842 0.2305315
-0.44647473 -0.46866947 0.27971435 -0.13596827 -0.38220257 0.29705453 -0.18053181 0.38482696
-0.06063876 -0.5791135 0.24723418 -0.06578661 -0.011894756 0.26563662 0.42621934 0.0548554
0.36598927 -0.22196002 0.025178542 -0.32558426 -0.4373367 -0.33272988 0.5398679 0.5874694
0.19810955 -0.38534763 0.43506002 -0.15135176 -0.5315994 0.4398578 0.034436736 0.18714023
-0.26998514 -0.047326062 0.2085748 0.3705159 0.19652341 -0.34030375 -0.05399535 0.17298931
0.049292605 -0.26128677 0.3382297 -0.053360697 0.20279944 0.43963826 0.6298332 0.2879047
-0.22754437 0.37223175 -0.05175474 0.46979365 -0.23861995 0.4583622 0.6015654 -0.102160655
0.22479278 0.3451638 0.11956764 -0.21919045 0.40657568 -0.48638266 -0.10261938 0.5427586
0.13893181 0.03395364 -0.18500356 0.40072715 -0.17617352 0.3188933 -0.30333972 -0.3606728
-0.27721432 -0.5366335 0.07397504 -0.058981605 -0.39610326 0.22162071 0.34841877 -0.1697321
0.43190065 -0.39044777 0.1942136 -0.0127701685 0.22391808 -0.016044386 -0.25765574 -0.44506136
-0.21348207 -0.16277373 -0.19893163 -0.027860478 0.36394498 -0.5231753 0.37575817 0.23894866
0.027008051 0.24064367 0.41228124 -0.49402267 0.4818539 -0.15645207 -0.16710466 -0.08370506
-0.5718881 -0.27238783 -0.13979548 -0.14686275 0.21952145 -0.16351375 0.34808618 0.156104
0.2484408 -0.116856635 -0.1444458 -0.37205362 -0.36080894 -0.26168945 -0.32556412 0.27509278
00000000: 645b 903b 50a7 d3be fb3a 613e 7f79 dd3c
00000010: 5d3c 973a 57c9 fbbd 4021 a0bd 7310 6c3e
00000020: 5698 e4be 72f5 efbe b836 8f3e 443b 0bbe
00000030: 0eb0 c3be 8817 983e 55dd 38be 0a08 c53e
00000040: 5960 78bd c840 14bf f52a 7d3e 21bb 86bd
00000050: 39e2 42bc 8601 883e 6c39 da3e 0eb0 603d
00000060: f262 bb3e 7d49 63be 3b43 ce3c fbb2 a6be
00000070: 99ea dfbe 925b aabe c834 0a3f 6564 163f
00000080: 3bdd 4a3e 494c c5be 30c0 de3e f5fb 1abe
00000090: e616 08bf 0b35 e13e 890d 0d3d b0a1 3f3e
000000a0: 7e3b 8abe f9d8 41bd a294 553e 43b4 bd3e
000000b0: 6f3d 493e 4b3c aebe 3a2a 5dbd 1c24 313e
000000c0: 0be7 493d 61c7 85be 712c ad3e bf90 5abd
000000d0: a8aa 4f3e 4418 e13e c03c 213f 3f68 933e
000000e0: 6401 69be 2995 be3e c7fc 53bd cb88 f03e
000000f0: ca58 74be 73ae ea3e 3100 1a3f 9b39 d1bd
00000100: 1430 663e 4fb9 b03e e1df f43d 7673 60be
00000110: b02a d03e 2607 f9be 1c2a d2bd 3af2 0a3f
00000120: 2444 0e3e f912 0b3d 9371 3dbe 1c2c cd3e
00000130: d566 34be fc45 a33e 584f 9bbe 1baa b8be
00000140: 09ef 8dbe d060 09bf 3a80 973d b296 71bd
00000150: 0cce cabe 8af0 623e f263 b23e 40ce 2dbe
00000160: 1522 dd3e c5e8 c7be eedf 463e f839 51bc
00000170: c84a 653e 846f 83bc 74eb 83be 15df e3be
00000180: 0b9b 5abe 28ae 26be bcb4 4bbe a83b e4bc
00000190: ff56 ba3e d1ee 05bf 6063 c03e f5ae 743e
000001a0: fd3f dd3c 4b6b 763e 8716 d33e 8af0 fcbe
000001b0: 8eb5 f63e f934 20be 7c1d 2bbe 8f6d abbd
000001c0: 4267 12bf 6b76 8bbe 8c26 0fbe 3063 16be
000001d0: 3bca 603e 2670 27be 5a38 b23e bad9 1f3e
000001e0: 4467 7e3e 8852 efbd 9ae9 13be d07d bebe
000001f0: f3bb b8be 29fc 85be 57b0 a6be f6d8 8c3e

layers_phi.1.weight f4 [128, 128]
0.047312733 -0.18140787 0.05615615 -0.036291435 0.1185976 -0.013305703 0.07710423 0.12626924
0.0032021713 -0.11093562 -0.035715394 0.22932366 -0.09382546 0.6582669 0.12488378 0.061210077
-0.25002086 -0.24690537 0.3401372 0.18475865 -0.2479397 0.31039265 -0.11371982 0.015511813
0.2697867 0.15788785 -0.10635354 -0.07882683 0.15520337 -0.10378146 -0.012555846 0.24148323
-0.01600239 0.014990347 0.2563419 0.12307422 0.08909079 0.14753889 0.062623635 0.049397998
-0.6131163 0.0134115275 0.5357629 -0.02990887 0.0070700347 0.06775989 0.019537201 -0.18228374
0.25413564 -0.09779466 0.39996526 0.0739889 -0.08403255 -0.13028409 -0.075637154 -0.15959686
-0.4758075 0.20715316 -0.14336973 0.050251354 -0.08987736 0.12792641 0.118691884 0.039243806
0.10936215 0.12858671 0.08109794 -0.45518753 0.17344649 0.067494914 0.104006626 0.035210904
-0.11719892 0.27688947 0.04947349 -0.0013807755 0.045237888 0.04768166 0.16975136 0.079159014
0.037949253 -0.09612871 -0.1636216 -0.15353231 -0.024919387 0.05730982 0.621304 0.13605852
-0.032655973 -0.27072805 0.013565323 -0.17834818 0.5327986 -0.118523605 0.18209092 -0.019982282
-0.19526422 -0.21286646 -0.35620955 -0.0916936 0.2049992 -0.08307355 0.14584878 0.4366178
-0.23461932 0.0133101 0.14366312 -0.12954076 0.2121492 -0.30035883 0.120227374 -0.0763233
-0.12764278 -0.6409138 -0.42374456 -0.12763424 -0.11023839 -0.05479797 0.05099527 0.25757065
-0.03288869 -0.17950006 0.052357826 -0.43211654 0.0091819065 0.07744929 0.0853225 0.5651999
-0.022389976 0.180751 0.001859009 0.22819397 0.19690777 -0.17511646 -0.13401473 0.10661841
-0.028183244 0.058967087 0.10844565 -0.19052958 -0.11167605 0.052388903 -0.11569227 0.08737443
0.09713204 0.13509949 0.05378522 0.026320182 0.08304947 0.018773556 0.061293896 0.20393555
-0.17387018 -0.13306421 0.088239096 -0.1982973 -0.05307381 -0.1124895 0.081676364 0.03991448
0.09053646 -0.05934023 -0.14695056 -0.049949527 -0.08481092 -0.15151986 -0.22417115 0.015669087
-0.058493417 0.18194266 0.061757464 -0.100557536 0.06922534 -0.19499713 0.21681799 0.017085548
-0.115987614 0.055669475 0.030833216 0.08677762 -0.037253164 0.074369065 -0.029195683 -0.13213304
0.12460356 0.04505437 0.16587241 -0.020743823 -0.15775141 0.08260295 0.08820978 -0.11495519
0.08038614 0.11968726 0.0960158 -0.04967327 -0.12353103 -0.08922693 -0.20331134 -0.10643025
0.09949132 0.03059309 -0.06438214 0.08256884 0.027598005 0.09191611 0.011115957 -0.064170234
-0.07300235 0.049923137 -0.24989064 0.013384003 0.10469817 0.013669008 -0.12754238 -0.19452183
0.10523119 0.16241439 0.07107017 0.19179632 -0.14119571 -0.3231408 -0.14957643 -0.022414867
0.06316332 -0.115827724 -0.087517895 0.17946249 -0.04917512 -0.10532939 -0.0995665 -0.15636167
-0.020875338 0.078980274 0.10469611 -0.11034338 0.014657497 0.22870217 -0.03176253 0.19776009
-0.08786437 0.02092535 0.12243798 0.122772336 0.1649929 0.19841807 0.00042844552 -0.18435097
-0.120046295 0.20563719 -0.1760115 -0.032170065 -0.005055443 0.04055819 0.10925766 0.08038497
00000000: ffca 413d fcc2 39be fe03 663d 54a6 14bd
00000010: 4ce3 f23d 2a00 5abc d3e8 9d3d b94c 013e
00000020: 85db 513b 3732 e3bd 4e4a 12bd d2d3 6a3e
00000030: 9027 c0bd 2e84 283f 11c3 ff3d 6bb7 7a3d
00000040: bc02 80be c3d4 7cbe 7726 ae3e 5f31 3d3e
00000050: e8e3 7dbe c9eb 9e3e f0e5 e8bd 4225 7e3c
00000060: 7b21 8a3e 5aad 213e e3cf d9bd f66f a1bd
00000070: a2ed 1e3e 608b d4bd 09b7 4dbc 6147 773e
00000080: 7217 83bc 139a 753c 3f3f 833e 560e fc3d
00000090: 3b75 b63d 6f14 173e d240 803d 8e55 4a3d
000000a0: 31f5 1cbf 06bc 5b3c c227 093f 7203 f5bc
000000b0: c0ab e73b b2c5 8a3d 7b0c a03c 97a8 3abe
000000c0: 111e 823e 9148 c8bd 3fc8 cc3e 7e87 973d
000000d0: 4219 acbd 3169 05be a7e7 9abd 5c6d 23be
000000e0: 0a9d f3be f51f 543e 84cf 12be 5dd4 4d3d
000000f0: 9f11 b8bd 24ff 023e bb14 f33d 1dbe 203d
00000100: 43f9 df3d 3cac 033e ad16 a63d 570e e9be
00000110: f59b 313e c63a 8a3d 6d01 d53d 4f39 103d
00000120: fd05 f0bd 75c4 8d3e b7a4 4a3d 23fb b4ba
00000130: 5d4b 393d d84d 433d 4dd3 2d3e 1f1e a23d
00000140: ad70 1b3d 21df c4bd 6c8c 27be 9337 1dbe
00000150: be23 ccbc b4bd 6a3d c70d 1f3f ed52 0b3e
00000160: 45c2 05bd de9c 8abe 1741 5e3c e8a0 36be
00000170: 7d65 083f 81bc f2bd 0b76 3a3e e2b1 a3bc
00000180: 58f3 47be aaf9 59be 1961 b6be dbc9 bbbd
00000190: 4feb 513e 7722 aabd 6259 153e 5e8c df3e
000001a0: 0c40 70be 9b12 5a3c 6d1c 133e 55a6 04be
000001b0: a43d 593e a2c8 99be c539 f63d 644f 9cbd
000001c0: cab4 02be ed12 24bf 0cf5 d8be 8db2 02be
000001d0: aac4 e1bd d673 60bd 6be0 503d 4de0 833e
000001e0: 4ab6 06bd ddce 37be 2975 563d 613e ddbe
000001f0: b56f 163c bc9d 9e3d 90bd ae3d f1b0 103f
00000200: 2f6b b7bc ca16 393e fea9 f33a aeab 693e
00000210: 31a2 493e bb51 33be 283b 09be c15a da3d
00000220: 8ce0 e6bc 7987 713d c118 de3d 301a 43be
00000230: 6ab6 e4bd bf95 563d 12f0 ecbd 5df1 b23d
00000240: 2aed c63d 8557 0a3e e44d 5c3d 6c9d d73c
00000250: d715 aa3d 00cb 993c 4f0f 7b3d 7bd4 503e
00000260: 060b 32be fc41 08be b3b6 b43d 730e 4bbe
00000270: ec63 59bd e560 e6bd f045 a73d 5e7d 233d
00000280: 2e6b b93d be0e 73bd 357a 16be e097 4cbd
00000290: 59b1 adbd 0628 1bbe 1f8d 65be 755c 803c
000002a0: cb96 6fbd 2d4f 3a3e 65f5 7c3d 1cf1 cdbd
000002b0: 04c6 8d3d 54ad 47be 8905 5e3e fef6 8b3c
000002c0: ea8a edbd ad05 643d f195 fc3c 77b8 b13d
000002d0: c696 18bd cf4e 983d c92b efbc e24d 07be
000002e0: 2730 ff3d ee8a 383d 75da 293e f3ee a9bc
000002f0: 9689 21be bc2b a93d 54a7 b43d a06d ebbd
00000300: 7da1 a43d 981e f53d efa3 c43d 3376 4bbd
00000310: d6fd fcbd 9cbc b6bd d930 50be 1af8 d9bd
00000320: 1bc2 cb3d 5c9e fa3c c9da 83bd da19 a93d
00000330: 3615 e23c 833e bc3d b41f 363c af6b 83bd
00000340: 4282 95bd 347c 4c3d 55e3 7fbe 9448 5b3c
00000350: ff6b d63d faf3 5f3c 789a 02be bb30 47be
00000360: 7383 d73d f54f 263e 3d8d 913d 4166 443e
00000370: 9c95 10be b672 a5be 902a 19be 629f b7bc
00000380: c55b 813d 1637 edbd 953c b3bd 04c5 373e
00000390: da6b 49bd efb6 d7bd 85e9 cbbd 461d 20be
000003a0: c202 abbc 69c0 a13d ea6a d63d b6fb e1bd
000003b0: 0026 703c e730 6a3e 6d19 02bd 9f81 4a3e
000003c0: 3cf2 b3bd a46b ab3c c3c0 fa3d 1070 fb3d
000003d0: e6f3 283e 1b2e 4b3e fca0 e039 80c6 3cbe
000003e0: d5da f5bd 8e92 523e 5c3c 34be c2c4 03bd
000003f0: 21a8 a5bb 5820 263d 7bc2 df3d e0a0 a43d

layers_phi.1.bias f4 [128]
-0.008323846 -0.035822604 0.096880846 0.07392444 0.0536223 0.11775664 0.105419345 0.13250966
-0.054536674 -0.06789329 -0.053443786 -0.08027014 -0.05243439 -0.058415107 0.06268978 0.018395703
-0.0094575165 -0.06449581 0.010591968 0.020039134 0.10757736 0.10974396 0.088308364 0.064199254
-0.19537212 -0.04015951 0.031740002 -0.1488994 0.14548726 -0.08573086 0.0036088184 0.054986246
0.0017179764 -0.010060281 -0.09875742 -0.10048349 -0.041489292 -0.02915979 0.07918905 0.017914638
-0.02148521 -0.0591777 0.0008256965 -0.08996154 -0.047119677 0.1122322 0.012399677 0.058160942
-0.13158192 0.04242596 -0.02205182 0.0665171 -0.025552114 0.050866727 0.01925348 -0.09230971
0.15869823 -0.1482546 0.06363003 0.03346193 0.031332277 0.03506506 0.061699476 -0.01916588
0.060825933 -0.029412717 -0.042399682 0.06039423 0.045718025 0.035358462 -0.038878083 -0.0527272
-0.051487572 0.07300814 -0.07986499 0.06202801 0.006273705 -0.037454914 0.13024145 0.057786003
0.0005358131 0.01712025 -0.043169703 -0.07463864 0.07875661 -0.0897847 0.18110138 0.10184134
-0.025133664 0.092673734 0.0076270946 0.099577874 0.10478535 0.025210017 -0.06587107 -0.01895294
-0.0055135484 0.0076990635 0.07922392 0.038839586 0.13727844 0.009758768 -0.113078974 0.06974831
0.0927427 0.048140105 -0.050426014 -0.05962349 0.067246966 -0.06617 0.0011565454 -0.08696484
0.060171574 0.042225845 0.12995985 -0.08651688 -0.042881984 -0.08266738 -0.10267049 0.018478058
0.0980044 -0.013273764 -0.15709099 0.012708537 0.11911924 0.124597594 -0.051739205 -0.06865617
00000000: be60 08bc b9ba 12bd 7769 c63d b265 973d
00000010: 0fa3 5b3d 652a f13d 19e6 d73d 9db0 073e
00000020: d961 5fbd a30b 8bbd dfe7 5abd ac64 a4bd
00000030: 71c5 56bd ae44 6fbd 8063 803d 96b2 963c
00000040: b3f3 1abc 6116 84bd ef89 2d3c 1c29 a43c
00000050: 8551 dc3d 71c1 e03d 04db b43d e67a 833d
00000060: a10f 48be 4c7e 24bd ce01 023d 1679 18be
00000070: 9dfa 143e a993 afbd ed81 6c3b 4239 613d
00000080: b92d e13a e0d3 24bc 5541 cabd 4aca cdbd
00000090: adf0 29bd 83e0 eebc de2d a23d b8c1 923c
000000a0: c001 b0bc 5164 72bd 8e73 583a c23d b8bd
000000b0: 9000 41bd ffd9 e53d 0428 4b3c 2b3a 6e3d
000000c0: 69bd 06be d8c6 2d3d 05a6 b4bc 1e3a 883d
000000d0: ab52 d1bc a159 503d 79b9 9d3c e00c bdbd
000000e0: ca81 223e 0ed0 17be 7650 823d 600f 093d
000000f0: 4656 003d 61a0 0f3d 97b8 7c3d c301 9dbc
00000100: 9d24 793d f0f2 f0bc 4aab 2dbd f15f 773d
00000110: d342 3b3d 09d4 103d a03e 1fbd 7af8 57bd
00000120: a2e4 52bd 4b85 953d 4290 a3bd 1511 7e3d
00000130: a793 cd3b 536a 19bd 045e 053e 04b1 6c3d
00000140: cf75 0c3a c43f 8c3c b7d2 30bd 25dc 98bd
00000150: 254b a13d 0ae1 b7bd a472 393e 3192 d03d
00000160: 1de5 cdbc bacb bd3d b5ec f93b 7cef cb3d
00000170: b499 d63d 3d85 ce3c 69e7 86bd 3243 9bbc
00000180: ffaa b4bb 6d48 fc3b 2740 a23d 4216 1f3d
00000190: b892 0c3e 3de3 1f3c f395 e7bd 34d8 8e3d
000001a0: e2ef bd3d 8f2e 453d 828b 4ebd c337 74bd
000001b0: c7b8 893d 2384 87bd 3997 973a 9f1a b2bd
000001c0: 7876 763d 02f5 2c3d 3214 053e c32f b1bd
000001d0: 05a5 2fbd 844d a9bd e844 d2bd 4c5f 973c
000001e0: 88b6 c83d 347a 59bc 76dc 20be 7837 503c
000001f0: caf4 f33d 062d ff3d 7dec 53bd 9b9b 8cbd

layers_phi.2.weight f4 [128, 128]
0.11386387 -0.3384335 -0.022885626 -0.16256121 0.08677808 -0.28565833 0.0037946254 -0.14494911
-0.04206249 0.15330265 0.022152739 0.25186116 -0.0071594906 -0.33942866 -0.018585939 0.31430325
0.12478762 0.03913716 -0.13389613 0.11570523 -0.07537367 -0.28835407 -0.123431966 -0.03742074
0.08709528 -0.2460013 -0.102082916 -0.013137177 -0.08162106 0.054457452 -0.04979463 0.09356019
-0.10328559 0.03137851 -0.015218928 -0.08192516 -0.14228493 0.11559787 -0.16128172 -0.05947256
-0.14857516 0.15797767 0.115484245 -0.0049388544 0.077626936 0.023337001 0.024729254 0.15884423
0.07805343 0.07528679 0.12978582 0.114281155 -0.008858351 0.08236023 -0.071492024 -0.07819823
-0.22707886 0.3441152 -0.08078108 -0.29445183 -0.19144173 -0.02821325 0.04563588 0.021956787
-0.07059558 0.03483609 0.09158783 -0.14288749 -0.1302677 -0.12907442 -0.0033167826 0.31167343
0.2499451 -0.061447926 -0.11357252 0.052145593 -0.08102915 0.060751244 0.14028318 0.0416602
-0.2245296 0.058391977 0.2001413 0.027102888 0.16569816 0.17910968 -0.14867932 0.049797915
-0.07414727 -0.04270799 -0.048092388 -0.5513277 0.07959626 0.032638922 0.05038228 0.16291347
-0.11289557 0.2556936 0.107783705 0.016854292 -0.009237117 0.035487466 0.15278707 0.12739044
-0.33826894 0.12015815 0.3540084 0.06008308 0.12697148 0.104302056 0.03826411 0.02673181
-0.1215987 0.2204067 -0.17625262 -0.14365186 -0.10379185 0.09111898 0.23684424 0.016386772
0.11667275 -0.073342964 0.227765 0.09065548 0.05160254 0.13706884 -0.060914095 0.149145
0.2407199 0.018098969 -0.08101667 0.21108396 0.051482864 -0.22866118 0.05365158 0.16243427
-0.049224593 -0.110040344 0.060225118 0.14528668 -0.2216893 0.17483549 0.029083842 0.12480178
0.30605695 0.16409084 -0.21870437 -0.23980808 -0.15302204 0.036784444 0.065696925 -0.07911458
-0.055486366 0.25149265 -0.01921725 0.047398865 -0.036638413 -0.0038899533 0.14296366 -0.059854575
-0.1936513 -0.028857 -0.09529572 -0.1887943 -0.089050725 -0.08625113 0.09608942 0.13616754
-0.14939716 -0.023631072 0.052573718 0.17529292 -0.21774915 0.24891612 -0.047276814 -0.018805923
-0.140011 0.089404464 0.046954475 0.11508176 -0.10947535 -0.04327056 0.005197305 -0.41873097
0.010089412 0.1975581 0.06441197 -0.13571675 -0.07921909 0.24087359 -0.01371712 0.2289687
-0.09630262 -0.044065166 -0.10027829 0.044283308 -0.098982655 0.020937003 0.0943725 -0.06145607
0.27022573 -0.022998916 -0.013697698 0.16647731 0.13637675 0.07055575 0.28845134 -0.09058416
-0.1533093 -0.072411306 -0.035773 -0.1794175 0.060971394 0.26420805 0.12946114 0.2110926
-0.042239714 0.033238992 -0.10514841 0.1807272 0.090896174 -0.07821016 -0.008917488 0.27118006
0.08738243 -0.068495974 0.0090457685 -0.023218239 0.21332106 0.13675256 0.04915794 0.09140791
0.00404056 0.31249434 0.070720285 0.06435544 0.15028323 -0.15220006 0.097307734 -0.077091955
0.00020465282 -0.009532468 -0.044859458 0.034417678 -0.05777206 0.110726506 -0.028068 0.2780629
-0.06835368 0.032815017 -0.0141232805 -0.14021222 0.22208926 -0.05708011 0.00092518755 0.0090726
00000000: 7631 e93d 2847 adbe a37a bbbc 7276 26be
00000010: b5b8 b13d cf41 92be 40af 783b 8a6d 14be
00000020: b849 2cbd 5ffb 1c3e a979 b53c f2f3 803e
00000030: 299a eabb 98c9 adbe 8a41 98bc 5bec a03e
00000040: a790 ff3d 494e 203d 111c 09be ddf6 ec3d
00000050: 835d 9abd 25a3 93be e6c9 fcbd 7d46 19bd
00000060: 035f b23d c4e7 7bbe d910 d1bd 503d 57bc
00000070: f128 a7bd c70e 5f3d 74f5 4bbd 7c9c bf3d
00000080: 6587 d3bd c186 003d d058 79bc 61c8 a7bd
00000090: 24b3 11be 93be ec3d 0927 25be 8099 73bd
000000a0: 1624 18be e6c4 213e 0183 ec3d 1dd6 a1bb
000000b0: dffa 9e3d 3d2d bf3c 0195 ca3c 10a8 223e
000000c0: 7ada 9f3d f62f 9a3d 93e6 043e 3d0c ea3d
000000d0: 9e22 11bc 7bac a83d 696a 92bd 6526 a0bd
000000e0: 5c87 68be de2f b03e 8d70 a5bd 64c2 96be
000000f0: 4d09 44be 791f e7bc b0ec 3a3d b8de b33c
00000100: 6a94 90bd 4ab0 0e3d 6692 bb3d 1951 12be
00000110: e564 05be 162c 04be 615e 59bb a993 9f3e
00000120: 9cf1 7f3e d2b0 7bbd b698 e8bd 9e96 553d
00000130: 9cf2 a5bd 4cd6 783d 65a6 0f3e e3a3 2a3d
00000140: 16eb 65be 6d2c 6f3d d7f1 4c3e e006 de3c
00000150: c7ac 293e 8768 373e 643f 18be e6f8 4b3d
00000160: 86da 97bd 93ee 2ebd 86fc 44bd d023 0dbf
00000170: 5d03 a33d 64b0 053d a65d 4e3d cad2 263e
00000180: cb35 e7bd 46ea 823e b4bd dc3d 0312 8a3c
00000190: 4757 17bc 4e5b 113d 3774 1c3e a472 023e
000001a0: 9631 adbe 7a15 f63d 9740 b53e ad19 763d
000001b0: d004 023e 519c d53d d4ba 1c3d abfc da3c
000001c0: bd08 f9bd 4bb2 613e 917b 34be 7919 13be
000001d0: d290 d4bd 969c ba3d 4c87 723e 8d3d 863c
000001e0: 1ff2 ee3d d634 96bd 3a3b 693e 95a9 b93d
000001f0: 2f5d 533d c65b 0c3e 0f81 79bd 78b9 183e
00000200: 477f 763e 4a44 943c 11ec a5bd 6526 583e
00000210: b2df 523d 2826 6abe c2c1 5b3d 2b55 263e
00000220: ba9f 49bd d55c e1bd 9dae 763d 08c6 143e
00000230: 8502 63be 1308 333e 3d41 ee3c 1398 ff3d
00000240: 7fb3 9c3e 6e07 283e 0af4 5fbe 4090 75be
00000250: cfb1 1cbe 49ab 163d 1c8c 863d d306 a2bd
00000260: ac45 63bd a5c3 803e 7f6d 9dbc 5025 423d
00000270: 2912 16bd 96ee 7ebb 1165 123e 122a 75bd
00000280: 874c 46be 8465 ecbc 672a c3bd 4b53 41be
00000290: 3a60 b6bd 6fa4 b0bd 88ca c43d 816f 0b3e
000002a0: 92fb 18be f395 c1bc 8a57 573d fd7f 333e
000002b0: a2f9 5ebe dee3 7e3e 55a5 41bd e10e 9abc
000002c0: 0b5f 0fbe b019 b73d 5653 403d fcaf eb3d
000002d0: 9d34 e0bd 793c 31bd 284e aa3b e863 d6be
000002e0: 104e 253c ac4c 4a3e 6cea 833d 55f9 0abe
000002f0: 9e3d a2bd 91a7 763e c5bd 60bc c576 6a3e
00000300: 4f3a c5bd ad7d 34bd b45e cdbd 6a62 353d
00000310: 6bb7 cabd 1484 ab3c 5f46 c13d 5cb9 7bbd
00000320: 075b 8a3e 3968 bcbc 4f6c 60bc 0779 2a3e
00000330: 59a6 0b3e 887f 903d e5af 933e 3084 b9bd
00000340: 1dfd 1cbe 614c 94bd b686 12bd 39b9 37be
00000350: 24bd 793d 4746 873e 7691 043e a928 583e
00000360: 8d03 2dbd 9c25 083d 0d58 d7bd 8d10 393e
00000370: c627 ba3d a62c a0bd a81a 12bc 1dd8 8a3e
00000380: 8ff5 b23d 9e47 8cbd b434 143c 2d34 bebc
00000390: d670 5a3e dd08 0c3e d659 493d 1234 bb3d
000003a0: ad66 843b 42ff 9f3e ccd5 903d c9cc 833d
000003b0: d9e3 193e 55da 1bbe 4749 c73d 63e2 9dbd
000003c0: 1398 5639 122e 1cbc 8dbe 37bd 8df9 0c3d
000003d0: 65a2 6cbd 94c4 e23d ddee e5bc 435e 8e3e
000003e0: 04fd 8bbd 0a69 063d 5565 67bc cb93 0fbe
000003f0: 5e6b 633e d5cc 69bd 4988 723a 3ea5 143c

layers_phi.2.bias f4 [128]
-0.10803208 -0.043131202 -0.28157622 -0.023211174 0.041057047 -0.16746001 -0.22721392 0.06253024
0.030781634 0.08579916 -0.04690171 -0.060469322 0.20612691 0.096503735 0.013619695 -0.0029308174
-0.06771064 0.2907579 -0.08339058 -0.09089278 0.022955678 0.028698847 0.32277733 0.007710568
-0.11987499 -0.02071968 0.16767147 -0.16880454 -0.026358621 0.022510136 0.0014877438 -0.016516428
0.08625633 -0.048750523 0.03545793 -0.029161569 0.012641054 0.12711877 -0.19872813 -0.012817505
-0.1477399 0.19961593 -0.043554805 0.25610715 0.23416574 -0.060986783 -0.054860804 0.18818171
-0.015909512 -0.122439474 -0.20554365 3.447463e-05 0.0060593267 0.14421357 0.007543001 -0.051617738
0.031815827 0.03405044 -0.063456886 -0.063500606 -0.111270405 -0.060952056 0.14876385 0.06726036
0.17037597 0.008455032 0.090199426 -0.0167119 -0.03878958 -0.07306573 -0.10086502 0.008335509
-0.046869673 0.024903936 -0.009332893 0.06115801 0.17545909 -0.0186581 0.085460395 0.060729004
-0.07301335 -0.07039384 0.034034017 0.013699296 -0.16240358 0.1956459 0.06843933 0.004969465
0.056448974 0.09181864 -0.10645196 -0.2323605 0.24157684 0.15016235 -0.09742876 -0.075155266
0.035349 -0.018314844 0.046652164 0.21045016 0.032689366 -0.0096875 -0.038757913 0.14321418
-0.047663845 0.015924815 0.07537398 -0.08226332 -0.035327535 -0.058597364 0.01629115 0.06458744
-0.075640894 -0.15274954 -0.056542706 0.15088175 0.06854773 0.026638051 0.25477433 -0.008642392
-0.046751004 -0.043433137 0.09591806 -0.3341375 0.023937702 -0.035250027 0.047414787 0.15411633
00000000: ec3f ddbd 58aa 30bd c22a 90be 5c25 bebc
00000010: 6f2b 283d a37a 2bbe c4aa 68be db0f 803d
00000020: c429 fc3c 78b7 af3d 021c 40bd aeae 77bd
00000030: ef12 533e c0a3 c53d 2425 5f3c f512 40bb
00000040: e0ab 8abd 38de 943e aec8 aabd fe25 babd
00000050: 8c0d bc3c d819 eb3c 1243 a53e efa8 fc3b
00000060: 0581 f5bd 51bc a9bc 12b2 2b3e 19db 2cbe
00000070: 09ee d7bc 2d67 b83c 6600 c33a 764d 87bc
00000080: 29a7 b03d a1ae 47bd 563c 113d 3ee4 eebc
00000090: 6c1c 4f3c 6c2b 023e 637f 4bbe 8300 52bc
000000a0: 2149 17be 1e68 4c3e 8666 32bd 7a20 833e
000000b0: 25c9 6f3e 47cd 79bd b9b5 60bd b5b2 403e
000000c0: aa54 82bc 8cc1 fabd 097a 52be da98 1038
000000d0: 518d c63b b9ac 133e 472b f73b 1f6d 53bd
000000e0: 5051 023d 7978 0b3d aff5 81bd 9b0c 82bd
000000f0: bde1 e3bd dda8 79bd 8d55 183e cdbf 893d
00000100: 0a77 2e3e f986 0a3c 7aba b83d 65e7 88bc
00000110: d3e1 1ebd 7ca3 95bd 5292 cebd a991 083c
00000120: 6afa 3fbd 5703 cc3c fee8 18bc d280 7a3d
00000130: 8cab 333e dfd8 98bc dc05 af3d fabe 783d
00000140: 0688 95bd a52a 90bd 4167 0b3d 0373 603c
00000150: 204d 26be 6657 483e eb29 8c3d e5d6 a23b
00000160: 0a37 673d 690b bc3d 7c03 dabd e9ef 6dbe
00000170: eb5f 773e 29c4 193e bb88 c7bd 01eb 99bd
00000180: 1dca 103d 0309 96bc 5716 3f3d 3f80 573e
00000190: 49e5 053d 52b8 1ebc 9ec0 1ebd bda6 123e
000001a0: 2a3b 43bd c274 823c ac5d 9a3d ac79 a8bd
000001b0: 9bb3 10bd ca03 70bd 0575 853c 6b46 843d
000001c0: 9de9 9abd 606a 1cbe 5399 67bd bf80 1a3e
000001d0: c162 8c3d 0b38 da3c c871 823e d298 0dbc
000001e0: fb7d 3fbd f2e6 31bd b070 c43d 1214 abbe
000001f0: 0019 c43c 5562 10bd 0236 423d acd0 1d3e

layers_phi.3.weight f4 [128, 128]
0.09172522 0.13330232 0.10795449 0.15253222 0.18689454 -0.13456762 0.08029256 0.11295168
-0.003825265 0.14406312 -0.2571621 0.113555074 -0.07684958 -0.124579184 0.41542494 -0.058198813
-0.18070816 0.07274724 -0.14484215 0.09930287 -0.022142382 0.045774646 0.032017086 0.13495684
0.13436402 -0.10708122 0.40369052 -0.01745799 -0.16763265 -0.13214873 -0.08263898 -0.12714238
-0.07571079 0.099004135 0.04778419 -0.045773227 -0.23866367 0.027704641 -0.061965894 0.017000314
-0.3244484 0.0306596 0.06692202 0.038387764 -0.0026458083 -0.16629663 0.10063945 -0.06371943
0.15753338 0.055286307 -0.08646481 0.08086153 -0.10900876 0.9273789 0.20463616 0.13053608
-0.056897275 -0.07614817 -0.39746535 -0.032950316 -0.081411354 -0.07976364 -0.036886178 -0.061124705
0.07583738 0.16427705 0.05555338 -0.036036074 -0.37477002 0.010786939 -0.16623573 -0.12100764
-0.03108061 0.01944809 0.12486493 0.0034219862 0.0431609 0.074858 0.11136272 0.11532287
0.009296108 -0.12666748 -0.034980323 0.14780578 0.008707921 0.16503192 -0.0223775 0.08598729
-0.027973728 0.15302067 -0.009023752 0.05640302 -0.18244086 0.13114105 -0.1315496 -0.14983563
0.067556046 0.11755233 0.05163845 -0.06532232 -0.15061094 0.02441919 -0.17513853 -0.01656418
-0.14107674 0.45093238 0.011516292 -0.17257084 0.015754338 -0.12703143 -0.028348586 -0.025963461
0.05129188 0.063819386 -0.009253104 0.069206886 0.020967128 -0.03223944 -0.03336766 -0.049447197
-0.5580921 0.09743829 0.056273893 0.21845943 -0.16823101 0.266457 0.0914326 0.1040448
-0.04910773 -0.1888139 -0.18068944 0.34312734 -0.0013795933 -0.2849176 0.17936589 -0.20956677
0.1414114 -0.032395158 -0.015741508 -0.066322565 0.16755201 0.03302645 0.24429241 -0.12286449
-0.061247647 0.24926126 -0.1382719 0.07025946 -0.10498072 0.39497742 0.25663245 -0.22919577
-0.21027516 -0.26622313 0.19613113 -0.22852324 0.017252354 -0.055716384 0.15640734 0.110360935
0.043269854 0.046633855 0.06501824 0.4334866 -0.006416656 0.1064948 -0.2299266 -0.11001685
-0.16205175 0.30095735 0.17556384 0.20293967 0.28110602 -0.0636724 0.20743854 0.07237194
0.051761117 -0.0146933375 0.012486606 0.26319027 0.058800712 0.13318746 0.18390891 0.11833097
-0.12222447 0.15612814 -0.05590601 -0.18318605 -0.067009464 0.11279025 -0.25218695 0.33651465
0.3363978 -0.21450494 0.48216555 0.12700422 -0.069591045 -0.03472104 -0.08349996 -0.01921719
0.23104075 0.17657985 0.11302907 -0.14662032 0.05827312 0.19031122 0.23879543 -0.21043295
-0.09115882 -0.09750487 -0.27228045 0.33699363 -0.18768044 0.28603312 0.7115845 -0.30724615
0.11280893 0.18866922 -0.08446439 -0.19083251 0.41710958 0.10777759 0.07477363 0.0039677494
-0.2491142 0.16429433 -0.261316 0.011563624 0.31292507 -0.116760425 0.1444898 0.5462367
0.018233504 0.10128114 -0.18850225 -0.22560234 -0.032249227 -0.06684986 0.21382718 -0.046840876
0.20260304 0.09696093 0.09541647 0.17699672 0.1279758 0.04363258 0.30141434 0.2428573
-0.14314209 0.01746078 0.20085204 -0.16563228 0.080745175 0.13024169 -0.019890878 0.22980301
00000000: 6fda bb3d 6780 083e 3e17 dd3d 6831 1c3e
00000010: 4861 3f3e 18cc 09be 6d70 a43d 3653 e73d
00000020: 4cb1 7abb 4885 133e c0aa 83be 908f e83d
00000030: 5063 9dbd 5f23 ffbd 94b2 d43e e161 6ebd
00000040: 8f0b 39be 81fc 943d 8051 14be 4e5f cb3d
00000050: f163 b5bc 327e 3b3d 5924 033d 2032 0a3e
00000060: b996 093e 664d dbbd 86b0 ce3e 0f04 8fbc
00000070: e5a7 2bbe ff51 07be a03e a9bd 9d31 02be
00000080: 420e 9bbd aec2 ca3d 5bb9 433d b57c 3bbd
00000090: 4064 74be d8f4 e23c f3cf 7dbd 3e44 8b3c
000000a0: 1a1e a6be d729 fb3c 690e 893d 7d3c 1d3d
000000b0: 4c65 2dbb aa49 2abe 0e1c ce3d 557f 82bd
000000c0: 6e50 213e e573 623d 7614 b1bd bb9a a53d
000000d0: fc3f dfbd b468 6d3f 248c 513e 40ab 053e
000000e0: 1e0d 69bd 92f3 9bbd 9480 cbbe e9f6 06bd
000000f0: ffba a6bd 1f5b a3bd f615 17bd e65d 7abd
00000100: a150 9b3d 3e38 283e f18b 633d 909a 13bd
00000110: dbe1 bfbe b4bb 303c b339 2abe dbd2 f7bd
00000120: c39c febc 9a51 9f3c 2fb9 ff3d 6743 603b
00000130: 7cc9 303d 274f 993d 2312 e43d 662e ec3d
00000140: b44e 183c 1fb5 01be 8747 0fbd 665a 173e
00000150: abab 0e3c 21fe 283e 0551 b7bc 1b1a b03d
00000160: 2929 e5bc 73b1 1c3e 5cd8 13bc da06 673d
00000170: c7d1 3abe d749 063e f0b4 06be 836e 19be
00000180: d35a 8a3d 47bf f03d d782 533d b5c7 85bd
00000190: c139 1abe c10a c83c 8457 33be 9ab1 87bc
000001a0: 6c76 10be 9ce0 e63e d4ae 3c3c 69b6 30be
000001b0: 3e0f 813c 8714 02be 4b3b e8bc 53b1 d4bc
000001c0: 6f17 523d bdb3 823d 559a 17bc 57bc 8d3d
000001d0: 41c3 ab3c 810d 04bd 87ac 08bd 2589 4abd
000001e0: 20df 0ebf ba8d c73d 747f 663d d4b3 5f3e
000001f0: c044 2cbe 0d6d 883e 0441 bb3d 7115 d53d
00000200: 3025 49bd 6e58 41be a706 39be 63ae af3e
00000210: 78d3 b4ba b8e0 91be b1ab 373e ac98 56be
00000220: 26ce 103e c9b0 04bd 56f4 80bc 20d4 87bd
00000230: c192 2b3e be46 073d ca27 7a3e 61a0 fbbd
00000240: d0de 7abd 583e 7f3e 2697 0dbe 31e4 8f3d
00000250: 2200 d7bd 7b3a ca3e 5465 833e 4cb2 6abe
00000260: 5f52 57be 664e 88be 99d6 483e ff01 6abe
00000270: cf54 8d3c dd36 64bd 3f29 203e ea04 e23d
00000280: bb3b 313d 2403 3f3d 4828 853d f5f1 dd3e
00000290: d042 d2bb f219 da3d e171 6bbe 8450 e1bd
000002a0: e5f0 25be 1517 9a3e 02c7 333e 6bcf 4f3e
000002b0: 21ed 8f3e ad66 82bd c56a 543e bd37 943d
000002c0: 7703 543d 53bc 70bc 9f94 4c3c e0c0 863e
000002d0: 04d9 703d 4b62 083e 9e52 3c3e 8257 f23d
000002e0: d350 fabd 0ee0 1f3e b3fd 64bd 2095 3bbe
000002f0: 423c 89bd 93fe e63d a61e 81be a64b ac3e
00000300: 553c ac3e 2fa7 5bbe 67de f63e 650d 023e
00000310: c085 8ebd a637 0ebd 0702 abbd 5e6d 9dbc
00000320: f295 6c3e 59d1 343e c97b e73d a323 16be
00000330: ccaf 6e3d f2e0 423e ca86 743e bc7b 57be
00000340: 7ab1 babd a2b0 c7bd 5868 8bbe 6e8a ac3e
00000350: 4d2f 40be ef72 923e 672a 363f 5e4f 9dbe
00000360: 5e08 e73d 8132 413e abfb acbd 9969 43be
00000370: 638f d53e 7fba dc3d eb22 993d e503 823b
00000380: cb17 7fbe c63c 283e 36cb 85be 5b75 3d3c
00000390: b737 a03e 1720 efbd 22f5 133e 2bd6 0b3f
000003a0: 6e5e 953c 7d6c cf3d bc06 41be 4d04 67be
000003b0: c417 04bd 94e8 88bd 83f5 5a3e 38dc 3fbd
000003c0: 2c77 4f3e 7493 c63d b669 c33d a13e 353e
000003d0: 170c 033e 14b8 323d fb52 9a3e 96af 783e
000003e0: d793 12be e909 8f3c 28ac 4d3e 829b 29be
000003f0: ba5d a53d 145e 053e 32f2 a2bc 7b51 6b3e

layers_phi.3.bias f4 [128]
-0.0019928736 0.24517499 -0.15106608 0.052335624 0.25329778 -0.08923789 0.03698197 0.43438607
0.15248547 0.057631757 0.021106305 -0.11620988 -0.14625204 -0.065703966 0.054320093 0.11726984
-0.17589411 -0.047866676 -0.13789836 0.32824814 0.0029046738 0.25241062 -0.032685187 0.101427324
0.08069149 0.12212442 0.033312965 0.15267959 -0.027885478 0.28960782 0.257217 0.066392
0.019971332 0.39925244 0.0057380605 0.015464167 0.10020297 -0.04116351 -0.021047972 -0.1532012
0.023796005 0.08285067 0.05005064 -0.078217156 0.06886667 -0.06564399 -0.07756774 -0.009673762
-0.0145503 0.08529231 0.12116216 -0.036806114 0.18168905 0.117156036 0.12200379 0.09738919
0.016853942 0.040751457 -0.034761682 0.34858748 0.01707465 -0.084102504 -0.08044377 0.010541926
-0.061145235 -0.22334698 -0.065879524 -0.018583544 -0.10270217 -0.09123953 0.4486105 0.071260564
0.011170852 -0.04277991 0.07189485 0.09011648 0.14098749 0.26787814 0.085372634 0.0977925
0.12441373 -0.06347309 0.19398278 -0.08078482 0.04176511 0.032178123 -0.18492964 -0.047604278
-0.0027395333 0.20510866 -0.35599235 -0.036907844 0.18905872 0.020144684 0.08545018 -0.02860974
0.029767197 0.08991876 -0.08819528 -0.07033061 -0.061349604 -0.23825395 -0.008177061 0.24761765
-0.022573683 0.106733285 -0.29781368 0.025329873 0.00017951551 -0.11062888 0.16272368 0.029331245
-0.17618367 -0.10137269 -0.07793162 0.12412387 -0.37133086 0.2170664 0.16232385 0.063898474
-0.3011 0.04084804 -0.05167446 0.057107233 -0.08110264 -0.35929096 -0.10528044 -0.058179643
00000000: df9a 02bb 270f 7b3e 11b1 1abe e15d 563d
00000010: 3fb0 813e 5bc2 b6bd 687a 173d da67 de3e
00000020: 2725 1c3e 470f 6c3d 21e7 ac3c 72ff edbd
00000030: 18c3 15be cd8f 86bd bf7e 5e3d 2b2b f03d
00000040: 961d 34be d90f 44bd 3a35 0dbe 2410 a83e
00000050: 575c 3e3b f73b 813e e7e0 05bd 21b9 cf3d
00000060: 9441 a53d 5e1c fa3d 2d73 083d 0a58 1c3e
00000070: 1670 e4bc 7a47 943e f2b1 833e 87f8 873d
00000080: eb9a a33c d16a cc3e 5706 bc3b 6b5d 7d3c
00000090: 3737 cd3d 129b 28bd cc6c acbc c6e0 1cbe
000000a0: d7ef c23c 9dad a93d e601 4d3d 5130 a0bd
000000b0: f809 8d3d 5b70 86bd d6db 9ebd b37e 1ebc
000000c0: 6264 6ebc bcad ae3d de23 f83d 02c2 16bd
000000d0: b20c 3a3e 81ef ef3d 20dd f93d fc73 c73d
000000e0: 4711 8a3c 00eb 263d 4462 0ebd 0f7a b23e
000000f0: 23e0 8b3c ef3d acbd b4bf a4bd 0bb8 2c3c
00000100: 6d73 7abd 12b5 64be d8eb 86bd 843c 98bc
00000110: 8455 d2bd cadb babd 47b0 e53e 0ff1 913d
00000120: f305 373c fd39 2fbd 9b3d 933d fd8e b83d
00000130: 065f 103e 5327 893e d9d7 ae3d 6f47 c83d
00000140: a0cc fe3d 2efe 81bd 6ca3 463e 8372 a5bd
00000150: e411 2b3d 35cd 033d 325e 3dbe b4fc 42bd
00000160: be89 33bb 0108 523e a144 b6be ae2c 17bd
00000170: 9c98 413e 7706 a53c 8100 af3d f95e eabc
00000180: 56da f33c 5427 b83d ba9f b4bd 7f09 90bd
00000190: b949 7bbd d8f8 73be 14f9 05bc 7b8f 7d3e
000001a0: 72ec b8bc fb96 da3d 097b 98be 9880 cf3c
000001b0: 543c 3c39 6591 e2bd 09a1 263e 1448 f03c
000001c0: 7e69 34be 7c9c cfbd 9d9a 9fbd a834 fe3d
000001d0: 141f bebe a846 5e3e 3938 263e 34dd 823d
000001e0: c729 9abe 4650 273d 99a8 53bd 46e9 693d
000001f0: 2419 a6bd fcf4 b7be 459d d7bd c74d 6ebd

layers_phi.4.weight f4 [128, 128]
-0.11625427 -0.13522017 0.13750176 0.040821277 -0.2544979 -0.0019038047 0.11296765 -0.28562883
0.21987008 0.17392193 0.08691469 0.3519919 -0.20165797 -0.2588414 -0.06239666 -0.28620982
0.045136947 0.07463186 0.67142487 -0.20964804 -0.09319688 -0.21360198 -0.073781095 -0.008913875
-0.12244144 -0.26239365 0.032328762 0.04416889 -0.12389547 -0.016830606 -0.115280375 0.1885105
0.08038521 -0.11073697 -0.15068328 -0.38674688 -0.07571039 0.030607533 -0.3645237 -0.17256942
0.0065436293 -0.088694796 -0.07122631 -0.023172984 -0.06477723 -0.14990784 -0.0159655 -0.038983975
0.10790053 0.027271233 0.025601385 -0.09320448 -0.611922 -0.38034666 0.10017025 0.13601045
-0.17082825 0.01884881 -0.003315326 -0.12502226 -0.12455986 0.056230407 0.27822962 -0.042218003
-0.08272798 -0.042645432 -0.15233932 0.04402582 0.1657184 0.062679015 -0.29662582 0.21168578
-0.14774777 -0.051919214 0.1567763 -0.4617592 0.041802976 -0.15382662 0.022248618 -0.16719857
-0.09141318 -0.057624675 -0.14848468 -0.13782157 0.02034464 -0.2447229 0.31265083 -0.05215685
-0.053646866 -0.17103389 0.24125887 0.14637595 -0.6990495 -0.25043797 -0.020487575 -0.128531
-0.1801723 -0.20052244 0.16086562 -0.09834156 0.14336468 0.084080994 -0.10070933 -0.03400137
0.04759483 -0.061489597 0.11514902 0.15660866 -0.01815673 0.13464782 -0.22936203 -0.24719603
-0.04701368 0.1125592 0.08587319 0.11231954 0.23775047 0.070751786 -0.06462104 -0.07293577
0.1544431 0.055856213 0.2387073 -0.12013512 -0.07451588 -0.028072534 0.19621685 0.07465178
0.21187389 0.0971978 -0.11982249 -0.09259869 0.35041082 0.13851517 -0.441186 0.030517507
-0.027200544 0.13895611 -0.101140335 -0.065801926 -0.013966083 0.2770077 0.26980418 0.23561649
-0.11934294 -0.23592536 -0.12813409 -0.10828864 0.17448485 0.18632358 -0.08361128 0.10209442
-0.12773377 0.2447034 0.043259818 -0.004415199 -0.006885329 -0.08224797 -0.12336822 -0.22221602
0.25245503 -0.07468426 -0.07489897 0.21548605 0.028691666 0.041383382 0.19520721 0.16811897
-0.12574369 0.013121823 0.16996618 0.2346894 0.10345434 -0.11902331 0.03161243 -0.16245906
-0.062046684 -0.3494336 0.09690633 -0.17058483 0.07804903 0.22390522 0.020182991 -0.10608449
0.013917557 0.14003001 0.09383214 -0.08221742 0.042090736 -0.040718798 -0.33323604 -0.0076854536
-0.15317774 0.06773708 0.16951072 0.040217448 -0.20154113 -0.069278166 0.23042153 0.035685886
-0.051918674 -0.16382948 -0.08767206 0.30818787 0.1551979 -0.15872148 0.1473725 -0.0011572083
0.17079124 -0.09132409 0.13819492 0.09026231 0.03513502 0.06095982 -0.32336757 -0.085877575
0.19085887 -0.059337333 -0.026456608 -0.17255674 0.15835541 0.047216456 -0.07551972 -0.15748028
-0.01741282 0.24738643 -0.06903742 -0.09428438 0.058280088 0.09018047 0.08897185 -0.09994333
0.021278292 0.21727365 -0.07713248 -0.097219825 0.10810965 -0.29046908 0.030671518 0.19889209
-0.1305148 0.11549534 -0.037835337 0.013612102 -0.65259856 -0.04938047 0.08945496 0.20854235
-0.092523165 -0.20186648 -0.2609334 0.0027293656 0.026875155 0.024967397 -0.31651402 -0.22875601
00000000: b816 eebd 2877 0abe 43cd 0c3e 3634 273d
00000010: 8c4d 82be 1689 f9ba 955b e73d f13d 92be
00000020: 9f25 613e 9718 323e 5400 b23d 4838 b43e
00000030: 6d7f 4ebe dc86 84be a493 7fbd 188a 92be
00000040: 85e1 383d 97d8 983d 80e2 2b3f faad 56be
00000050: 01de bebd 7aba 5abe 8b1a 97bd 800b 12bc
00000060: 94c2 fabd 7658 86be 2a6b 043d 70ea 343d
00000070: e8bc fdbd 57e0 89bc 1e18 ecbd e608 413e
00000080: 00a1 a43d 11ca e2bd b84c 1abe b003 c6be
00000090: 0d0e 9bbd a6bc fa3c daa2 babe 0ab6 30be
000000a0: f16b d63b 9ea5 b5bd 1adf 91bd 45d5 bdbc
000000b0: eda9 84bd 7181 19be 15ca 82bc a9ad 1fbd
000000c0: f4fa dc3d ec67 df3c ffb9 d13c fee1 bebd
000000d0: eca6 1cbf ccbc c2be 0f26 cd3d 5346 0b3e
000000e0: 9aed 2ebe d268 9a3c f145 59bb d605 00be
000000f0: 3d19 ffbd db51 663d 1d74 8e3e c9ec 2cbd
00000100: 4a6d a9bd faac 2ebd d7fe 1bbe 6b54 343d
00000110: 16b2 293e db5d 803d 57df 97be 28c4 583e
00000120: 314b 17be 3ea9 54bd f789 203e b46b ecbe
00000130: 9939 2b3d ba84 1dbe bc42 b63c 1a36 2bbe
00000140: d536 bbbd da07 6cbd 5e0c 18be 1921 0dbe
00000150: cda9 a63c a498 7abe c513 a03e 6ca2 55bd
00000160: d1bc 5bbd 8223 2fbe 910c 773e 94e3 153e
00000170: e8f4 32bf 6839 80be 8fd5 a7bc a19d 03be
00000180: 167f 38be c155 4dbe f5b9 243e 4d67 c9bd
00000190: 31ce 123e a832 ac3d b140 cebd 0545 0bbd
000001a0: ccf2 423d 84dc 7bbd 40d3 eb3d 055e 203e
000001b0: 6cbd 94bc 1ee1 093e e1dd 6abe f520 7dbe
000001c0: 6b91 40bd 7085 e63d 48de af3d c907 e63d
000001d0: dc74 733e 50e6 903d 0958 84bd 595f 95bd
000001e0: 5526 1e3e 7cc9 643d b06f 743e 6709 f6bd
000001f0: c89b 98bd 5ff8 e5bc 12ed 483e 08e3 983d
00000200: 78f5 583e a40f c73d 7e65 f5bd 62a4 bdbd
00000210: 0c69 b33e ecd6 0d3e 22e3 e1be daff f93c
00000220: add3 debc 834a 0e3e aa22 cfbd 29c3 86bd
00000230: ffd1 64bc f4d3 8d3e c623 8a3e 7345 713e
00000240: 126a f4bd 6b96 71be 9535 03be 6fc6 ddbd
00000250: 28ac 323e 9ccb 3e3e 643c abbd e116 d13d
00000260: a4cc 02be 8793 7a3e 3531 313d 60ad 90bb
00000270: 539e e1bb a071 a8bd 7aa8 fcbd 998c 63be
00000280: c941 813e 10f4 98bd a264 99bd 60a8 5c3e
00000290: c90a eb3c 9f81 293d 66e4 473e 6127 2c3e
000002a0: f4c2 00be eafc 563c 9d0b 2e3e 6b52 703e
000002b0: dedf d33d 7ec2 f3bd 097c 013d ab5b 26be
000002c0: aa24 7ebd f6e8 b2be d376 c63d caad 2ebe
000002d0: 2bd8 9f3d 6947 653e cd56 a53c d342 d9bd
000002e0: 7706 643c 0764 0f3e 112b c03d 9b61 a8bd
000002f0: 5667 2c3d c1c8 26bd ea9d aabe 42d6 fbbb
00000300: a0da 1cbe bdb9 8a3d 3894 2d3e 0dbb 243d
00000310: cc60 4ebe b6e1 8dbd 9ff3 6b3e 5d2b 123d
00000320: ada8 54bd eac2 27be 698d b3bd cdca 9d3e
00000330: 33ec 1e3e e287 22be d1e8 163e 78ad 97ba
00000340: e6e3 2e3e 2008 bbbd f882 0d3e 72db b83d
00000350: bde9 0f3d 01b1 793d 6f90 a5be 95e0 afbd
00000360: 8270 433e b40b 73bd 87bb d8bc b7b2 30be
00000370: ec27 223e 0b66 413d 15aa 9abd 8342 21be
00000380: 55a5 8ebc de52 7d3e 7e63 8dbd 2b18 c1bd
00000390: 1ab7 6e3d 8ab0 b83d e036 b63d 17af ccbd
000003a0: d04f ae3c fc7c 5e3e a2f7 9dbd 301b c7bd
000003b0: 9868 dd3d 5db8 94be d642 fb3c 5eaa 4b3e
000003c0: aca5 05be d288 ec3d 3af9 1abd 4b05 5f3c
000003d0: b310 27bf 2d43 4abd 2934 b73d 208c 553e
000003e0: c97c bdbd 16b6 4ebe 1099 85be 28df 323b
000003f0: 4929 dc3c 6d88 cc3c 200e a2be 043f 6abe

layers_phi.4.bias f4 [128]
-0.13572386 0.15966925 0.29908305 -0.25660884 -0.11576791 -0.027927136 -0.4494199 0.10174284
0.43433663 -0.08955632 -0.056155972 -0.03184076 0.1475157 0.0059152027 0.019110529 -0.3146298
-0.01951969 0.11601062 -0.012485667 0.03970313 -0.050351504 -0.012205833 0.16351153 0.12486009
0.13904643 0.08159965 0.1667154 -0.018647041 -0.3268121 0.014502164 -0.095969565 0.06362778
0.21324123 -0.06768353 0.1385862 0.44868883 0.028678346 0.039739393 -0.10450137 -0.02352344
-0.365839 0.033022717 -0.06993202 -0.07392956 0.46980703 0.010255961 -0.07432277 -0.07471735
-0.014871468 0.026678761 0.19212489 -0.0584288 0.24880731 0.061082534 -0.14555545 0.049660075
0.0028307172 0.085533485 -0.055196125 0.0622375 -0.22432281 -0.2964948 -0.13068326 -0.046752915
0.10935806 0.10193463 0.027824748 0.25570253 -0.0042782337 0.4821236 -0.13837583 0.099613935
0.052312426 -0.07067316 -0.08601325 -0.0015333735 0.24899387 0.34722412 -0.4253102 0.14003271
-0.0068447497 0.06376822 0.18051681 -0.06531457 -0.09527602 -0.44434234 0.38588 0.10508946
0.10430332 0.07061243 0.12560067 -0.16946775 0.019627254 0.083814666 -0.08126101 0.039479997
-0.22877729 0.08293552 0.14304033 0.19453734 0.0123115145 -0.07993162 0.05097014 0.26866215
0.1722725 -0.17746454 -0.23959653 -0.018390307 0.034845386 0.046959013 -0.030217605 -0.08669699
-0.36550593 -0.05638895 -0.36594513 -0.037380114 -0.5003906 -0.03955597 0.12940978 -0.007520625
-0.36940262 0.07487882 0.096838094 -0.051833015 -0.13911463 0.6282646 -0.027600044 -0.011429794
00000000: 32fb 0abe 5680 233e 6a21 993e 3c62 83be
00000010: ba17 edbd 73c7 e4bc 5d1a e6be 8d5e d03d
00000020: 5f61 de3e 4e69 b7bd ce03 66bd 756b 02bd
00000030: 5b0e 173e 51d4 c13b af8d 9c3c 2817 a1be
00000040: c2e7 9fbc fa96 ed3d af90 4cbc c09f 223d
00000050: 613d 4ebd f9fa 47bc 916f 273e a6b6 ff3d
00000060: 3062 0e3e b81d a73d 71b7 2a3e aec1 98bc
00000070: ea53 a7be 7c9a 6d3c b18b c4bd 484f 823d
00000080: e95b 5a3e aa9d 8abd 8ae9 0d3e 8bba e53e
00000090: daee ea3c c6c5 223d d004 d6bd 3bb4 c0bc
000000a0: 404f bbbe d442 073d 8538 8fbd 6268 97bd
000000b0: 8c8a f03e 9e08 283c 8936 98bd 6905 99bd
000000c0: 75a7 73bc 6b8d da3c 63bc 443e 0a53 6fbd
000000d0: 58c7 7e3e ae31 7a3d 7d0c 15be 5d68 4b3d
000000e0: 8e83 393b 2e2c af3d 5515 62bd c0ec 7e3d
000000f0: e1b4 65be 2bce 97be d5d1 05be fc7f 3fbd
00000100: 1ef7 df3d 1ac3 d03d baf0 e33c 71eb 823e
00000110: 6d30 8cbb e8d8 f63e 65b2 0dbe 6402 cc3d
00000120: 8e45 563d 17bd 90bd b727 b0bd 7afb c8ba
00000130: 40f8 7e3e 5cc7 b13e 42c2 d9be bc64 0f3e
00000140: ec49 e0bb ea98 823d 66d9 383e a5c3 85bd
00000150: 1320 c3bd d780 e3be 1092 c53e 2539 d73d
00000160: fb9c d53d 409d 903d 769d 003e f488 2dbe
00000170: 56c9 a03c 06a7 ab3d 2c6c a6bd c7b5 213d
00000180: 9844 6abe 19da a93d 2a79 123e cc34 473e
00000190: 3cb6 493c 30b3 a3bd 11c6 503d 168e 893e
000001a0: 3468 303e 44b9 35be cb58 75be 45a7 96bc
000001b0: 09ba 0e3d 1858 403d e98a f7bc 318e b1bd
000001c0: 9823 bbbe 1af8 66bd 295d bbbe e41b 19bd
000001d0: 9919 00bf 7105 22bd ff83 043e 936f f6bb
000001e0: 5722 bdbe 115a 993d 0d53 c63d db4e 54bd
000001f0: 1174 0ebe f3d5 203f 7d19 e2bc 0844 3bbc
