m_2_ver1/Loss_adaptive/7_25_8h_Training_4.pt (torch, 338133 bytes, 13 tensors)

hidden_layer_u1.0.weight f4 [128, 2]
0	0x3e7c9430	0.24665904
1	0xbe52ed02	-0.20598224
2	0xbeb5b0d3	-0.3548647
3	0x3e72fdc1	0.23729612
4	0x3e997dfe	0.29978937
5	0xbff32d91	-1.8998281
6	0x3cee0f4c	0.029060028
7	0x40220c2b	2.5319927
8	0xbeb2a0cd	-0.34888306
9	0x3ff37b89	1.9022075
10	0xbeb4a18e	-0.35279506
11	0xbfa40f61	-1.2817193
12	0xbdf34d8d	-0.11880026
13	0x40197017	2.3974664
14	0xbe6d4eb7	-0.23174559
15	0xbfcda7c7	-1.6066827
16	0x3e9d1cd5	0.3068606
17	0xbf23fc6e	-0.6405705
18	0x3eabb24b	0.33534464
19	0x3f7d4d63	0.9894621
20	0xbe63e6ce	-0.22256014
21	0xbf3c0fbf	-0.73461527
22	0x3e89638f	0.2683377
23	0x40179a1e	2.3687816
24	0x3e91961c	0.28434837
25	0xc0214329	-2.5197241
26	0x3e9d39ab	0.3070806
27	0x3f148ef3	0.58030623
28	0xbe05087e	-0.12991521
29	0xc0331180	-2.797943
30	0x3d5a4c57	0.05329546
31	0x4039b171	2.9014552
32	0xbec8e671	-0.39238313
33	0x3f69830e	0.912156
34	0xbe9bbca3	-0.30417356
35	0xbf8da9f6	-1.1067493
36	0x3e8e2d44	0.2776891
37	0x3f36727b	0.71268433
38	0x3e67ff95	0.2265609
39	0xbffdd4cc	-1.9830565
40	0x3e806f88	0.25085092
41	0x40003eda	2.0038362
42	0xbec90c9e	-0.3926744
43	0xbf993bd9	-1.1971389
44	0xbc10d57e	-0.008839963
45	0x402943d3	2.6447647
46	0xbea93239	-0.3304613
47	0xbf7dd5ac	-0.9915416
48	0x3e89dbee	0.26925606
49	0x400f2b34	2.237012
50	0xbeaa0c9f	-0.33212754
51	0x3fd9f2a5	1.7027174
52	0xbe645aa1	-0.22300197
53	0x3fd73e88	1.6815958
54	0x3e913abe	0.2836513
55	0xbfd94f22	-1.6977274
56	0x3d3c5bf2	0.045986123
57	0x401b0760	2.4223251
58	0xbe822394	-0.2541777
59	0xbd7d80b8	-0.061890334
60	0x3dd46452	0.10370697
61	0x3fbcaa6c	1.4739509
62	0x3d32b1e7	0.043626692
63	0xc034231a	-2.8146424
64	0x3d36772f	0.044547256
65	0x403ce1e2	2.9512868
66	0x3e4cbc65	0.19993742
67	0xc018df5f	-2.3886335
68	0x3dc8697e	0.09785746
69	0x402438b9	2.565962
70	0x3ecb1829	0.3966687
71	0xbddff6e0	-0.109357595
72	0x3ea3adb1	0.31968454
73	0x3f172cf8	0.5905299
74	0x3dcaad24	0.09896305
75	0xc0102aa9	-2.2526038
76	0x3ea4a4ca	0.32156974
77	0x3fa32e35	1.2748476
78	0x3ec0931b	0.37612233
79	0x3eaf0062	0.3417998
80	0xbea7ec2c	-0.32797372
81	0xbe3a8645	-0.18215282
82	0x3d5b974f	0.053611096
83	0x402fe0e7	2.748102
84	0xbe90d0e4	-0.2828437
85	0xbee56a77	-0.4480779
86	0xbeabcd70	-0.33555174
87	0x3fde0025	1.7343794
88	0xbe2ca3a5	-0.168593
89	0xc01f17bb	-2.4858234
90	0xbe018112	-0.12646893
91	0x3ffc6323	1.9717754
92	0xbe801131	-0.25013116
93	0x3fe60aed	1.7972084
94	0x3eadc7a9	0.3394139
95	0xbfd30175	-1.648482
96	0x3e62fdd8	0.22167146
97	0x40059c7b	2.0876758
98	0x3ecea194	0.4035765
99	0xbf0e74c8	-0.55646944
100	0xbe7b67c0	-0.24551296
101	0x3fff6f89	1.9955913
102	0xbcd7c1e1	-0.026337566
103	0xc00cb127	-2.1983125
104	0xbcceed66	-0.025259685
105	0xc037d62a	-2.8724465
106	0xbe974cf6	-0.29550904
107	0x40014b13	2.0202072
108	0x3d53190b	0.051537555
109	0x402f1905	2.735902
110	0x3ea0d3eb	0.3141168
111	0xbfa54bfe	-1.2913816
112	0xbeaf7f02	-0.34276587
113	0x3ff905eb	1.9454931
114	0x3e9928b1	0.29913858
115	0x3d66eec9	0.056380067
116	0x3e231b78	0.15928447
117	0xc0230911	-2.5474284
118	0x3eba4546	0.36380976
119	0xbf81fa99	-1.0154601
120	0xbebfe2d0	-0.37477732
121	0x3f405be5	0.7514022
122	0xbed21d0a	-0.4103778
123	0x3e38ee62	0.18059686
124	0xbbccb7cf	-0.0062474976
125	0x4038f41e	2.8898997
126	0xbe82e3a6	-0.25564307
127	0xbf8fbd83	-1.1229709
128	0xbd891d1e	-0.06695007
129	0x4036e505	2.8577282
130	0xbe82e264	-0.25563347
131	0xbf83389b	-1.025165
132	0xbebda4fc	-0.37039936
133	0x3decfbbf	0.11571454
134	0xbeaaddff	-0.33372495
135	0xbca31d79	-0.019911515
136	0x3e2ca66f	0.16860364
137	0x4009e38e	2.1545138
138	0x3ec16d4b	0.37778696
139	0xbf070acb	-0.52750844
140	0x3e2940c0	0.16528606
141	0x3d860057	0.065430336
142	0xbe07a6dc	-0.13247246
143	0xc028236a	-2.6271615
144	0x3ed7cac0	0.42146873
145	0x3e927357	0.28603622
146	0xbeb0b742	-0.34514815
147	0xbfafe7a0	-1.3742561
148	0xbd9b71c5	-0.07590059
149	0x40291601	2.641968
150	0xbeaaa196	-0.33326405
151	0xbff4cf57	-1.9125775
152	0x3e2d8454	0.1694501
153	0xbfc4efc1	-1.5385667
154	0xbd224ef0	-0.039626062
155	0xc02825c3	-2.6273048
156	0x3e272fc3	0.16326813
157	0x4026d259	2.6065886
158	0xbe1ebab5	-0.1550091
159	0xc0171946	-2.3609176
160	0x3e9d80d3	0.30762348
161	0x3f9a05e2	1.2033045
162	0x3eabd8c5	0.3356382
163	0x3faae5c2	1.3351367
164	0x3e52cc7b	0.20585816
165	0xc0049101	-2.0713503
166	0x3e2aee6c	0.16692513
167	0x40170aad	2.3600266
168	0x3e6d74e3	0.2318912
169	0xbfc1a336	-1.5127933
170	0xbe3d6c45	-0.18498333
171	0x40012243	2.0177162
172	0x3eb45041	0.3521748
173	0xbf6d57b6	-0.9271196
174	0xbe638ce0	-0.22221708
175	0xc01754ed	-2.3645585
176	0x3e94f3ec	0.29092348
177	0xbf9fdb9a	-1.2488892
178	0xbe48b176	-0.19598946
179	0xc01e824e	-2.4767032
180	0x3ebd7ce0	0.37009335
181	0xbf9c2d56	-1.2201335
182	0x3e89b961	0.26899245
183	0xc00bad48	-2.1824512
184	0x3d534565	0.05157985
185	0x401a8f1c	2.4149847
186	0x3e940429	0.28909424
187	0x3fbf8a54	1.4964089
188	0x3e117603	0.14205174
189	0xc02ac37f	-2.6681821
190	0xbe42ff8b	-0.19042794
191	0xbf83f41c	-1.0308871
192	0x3e9ed5a1	0.3102236
193	0x3fb62e99	1.423297
194	0x3e0f3508	0.13985074
195	0xc01a424e	-2.410297
196	0x3e0245ab	0.12721889
197	0x40311ecb	2.7675045
198	0x3e6de38f	0.23231338
199	0xbf8ade59	-1.0849105
200	0x3e9b3e8e	0.30321163
201	0xbfcee004	-1.6162114
202	0x3e2619c8	0.16220772
203	0x3fa12349	1.2588893
204	0xbe69fdc8	-0.22850716
205	0xc00811a1	-2.126076
206	0x3eab1c3d	0.33419982
207	0x3f9d2ca4	1.2279248
208	0x3dc80ff1	0.097686656
209	0x40231eab	2.5487468
210	0xbdc47723	-0.09593036
211	0x3fc9da5a	1.5769761
212	0xbda1fd38	-0.07909626
213	0xc03bb219	-2.9327452
214	0xbe90060f	-0.28129622
215	0xc0218184	-2.52353
216	0x3e1b7831	0.15182568
217	0x40202bf5	2.502683
218	0xbe7282d9	-0.23682727
219	0x4012f12a	2.2959695
220	0xbce5c558	-0.028048202
221	0xbfb61aef	-1.422697
222	0xbe73c4cb	-0.2380554
223	0xbffd3211	-1.9780904
224	0x3ecf0e98	0.40440822
225	0xbebab528	-0.36466336
226	0xbe048807	-0.12942515
227	0x40329541	2.7903597
228	0xbec74a5b	-0.38923916
229	0xbf01d82c	-0.5072048
230	0xbeaecacb	-0.34139094
231	0xbf216625	-0.63046485
232	0xbe954ec0	-0.29161644
233	0xbf80e685	-1.0070349
234	0xbe20b2af	-0.15693162
235	0x402075e9	2.5071967
236	0x3eb95b60	0.36202526
237	0x3fd16095	1.63576
238	0xbe5fd420	-0.21858263
239	0xc00dad70	-2.2137108
240	0x3e91f03c	0.28503597
241	0xbfadc481	-1.3575593
242	0xbe8743e1	-0.26418975
243	0x3e68a5ca	0.22719494
244	0x3e338145	0.17529781
245	0x40035bae	2.0524707
246	0x3b4bd2d9	0.0031101017
247	0xc02b367f	-2.6752012
248	0x3d620334	0.055178836
249	0xc004b2b7	-2.073408
250	0x3e8c369d	0.27385417
251	0x400bd9d8	2.1851711
252	0x3e8239d1	0.25434735
253	0xc006e419	-2.107672
254	0xbe835508	-0.2565081
255	0xbfe508b8	-1.7893286

hidden_layer_u1.0.bias f4 [128]
0	0x3d1097fe	0.0353012
1	0xbdd42464	-0.103585035
2	0x3ecf15ad	0.40446225
3	0xbe156395	-0.14588769
4	0x3e865dd7	0.2624347
5	0x3ec8a218	0.39186168
6	0xbdbdac9d	-0.09261439
7	0xbe512156	-0.20422873
8	0xbee96e56	-0.45591992
9	0x3da7573d	0.08170936
10	0x3d48c9e5	0.049020667
11	0x3ec61955	0.38691202
12	0xbf0d7acd	-0.55265504
13	0xbe24b980	-0.16086388
14	0xbea33561	-0.31876662
15	0xbd98427f	-0.07434558
16	0x3de5be23	0.11217906
17	0x3dad26eb	0.08454689
18	0x3ee3dc8f	0.4450421
19	0x3d9f613d	0.077822186
20	0x3e2fd18a	0.17169777
21	0x3edc0452	0.42972046
22	0x3f03fc00	0.51556396
23	0x3eb6bcdb	0.3569096
24	0xbe5f5d51	-0.21812941
25	0x3e17eb3f	0.14835833
26	0x3e524e8a	0.20537773
27	0xbde4fc3a	-0.11180921
28	0xbe3c1578	-0.18367565
29	0xbe0d4da3	-0.13799147
30	0xbe8870fc	-0.266487
31	0xbe0b7922	-0.13620427
32	0x3d2ff9b8	0.04296276
33	0xbebf682a	-0.37384158
34	0xbe444c4c	-0.1916973
35	0xbefc70e7	-0.49304888
36	0x3d9d69ba	0.07686181
37	0xbeba62a0	-0.3640337
38	0xbd071fca	-0.0329893
39	0x3e80c66c	0.25151384
40	0xbecc53ce	-0.39907688
41	0xbe5de8cc	-0.21670836
42	0xbd165774	-0.036704496
43	0x3de408d8	0.11134499
44	0x3efbc916	0.49176854
45	0xbf0afd4d	-0.54292756
46	0xbe08dad8	-0.13364732
47	0xbc22bfa9	-0.009933391
48	0x3ecbc34a	0.3979743
49	0xbecd6365	-0.40114895
50	0x3eeec323	0.46633253
51	0xbf0987ce	-0.53722847
52	0x3d04dbd4	0.032436207
53	0x3ed06aac	0.40706384
54	0x3e376d9c	0.17912906
55	0x3e46a5e8	0.19399226
56	0x3dc1aa23	0.09456279
57	0xbe26b3ac	-0.16279477
58	0x3d46d25e	0.048540466
59	0xbe41abb2	-0.18913153
60	0x3dcac7a3	0.09901359
61	0x3e8b636a	0.27224284
62	0x3e97c401	0.29641727
63	0xbea3e166	-0.32007903
64	0xbd2d1adc	-0.042261943
65	0xbda514c8	-0.08060604
66	0x3e5144e0	0.2043643
67	0xbe1ee638	-0.15517509
68	0xbeb8efe0	-0.3612051
69	0xbda3abcf	-0.07991754
70	0x3e8e1de5	0.27757183
71	0xbef769fd	-0.4832305
72	0xbe5ff85b	-0.21872084
73	0x3eb36c00	0.35043335
74	0xbea840ab	-0.32861838
75	0xbecd35c9	-0.40080097
76	0x3ed851f0	0.42250013
77	0x3e1e080a	0.15432754
78	0x3c80963b	0.015696635
79	0xbe2e7cbf	-0.17039774
80	0x3ec81daa	0.39085132
81	0xbd8303a6	-0.0639718
82	0xbecfea8c	-0.40608633
83	0xbd86bc88	-0.06578928
84	0xbe9021da	-0.28150827
85	0x3e73d0da	0.2381014
86	0x3f0b1206	0.54324377
87	0xbbe284fe	-0.0069128266
88	0xbd18369e	-0.037161462
89	0x3e319cf9	0.17345037
90	0x3d82f19b	0.06393739
91	0xbe37c21d	-0.17945142
92	0x3d7f3f71	0.06231636
93	0xbeb39ac4	-0.35079014
94	0x3d9c0ad2	0.07619251
95	0xbeaddabe	-0.3395595
96	0x3e5fdef0	0.21862388
97	0xbebedf22	-0.37279612
98	0x3e775561	0.24153663
99	0xbdc61c9f	-0.09673428
100	0x3f10c59f	0.56551546
101	0x3e090794	0.13381797
102	0x3d63b360	0.055590987
103	0xbdbf5a1f	-0.09343361
104	0xbd81bcde	-0.06334852
105	0x3e9a4203	0.30128488
106	0xbdd4e23f	-0.103947155
107	0xbea4c326	-0.32180136
108	0xbdd11d66	-0.102106854
109	0xbe1c2da5	-0.15251787
110	0x3eb51c0a	0.35372955
111	0x3e19258d	0.1495573
112	0x3dbd0f5d	0.09231446
113	0x3b0ffd4b	0.0021971043
114	0xbe63068b	-0.22170465
115	0x3cc74549	0.02432503
116	0x3ea07d6a	0.31345683
117	0xbf07baae	-0.53019226
118	0x3e2c9ec1	0.16857435
119	0xbe223bf0	-0.15843177
120	0xbe40e71b	-0.1883816
121	0xbe9827ed	-0.2971796
122	0xbeaac8c3	-0.33356294
123	0x3e8c9f43	0.27465257
124	0xbe0816da	-0.13289967
125	0x3e9b9c7d	0.3039283
126	0x3d9b86a9	0.07594044
127	0x3d733712	0.05937869

hidden_layer_u1.1.weight f4 [128, 128]
0	0xbc46aa89	-0.01212562
1	0xbc076192	-0.008263009
2	0x3dcf07da	0.101089194
3	0x3d26f8de	0.040764682
4	0xbe245dc0	-0.16051388
5	0xbe162656	-0.14663061
6	0xbdc58cfa	-0.0964603
7	0xbd6bb250	-0.0575431
8	0x3de5786a	0.11204608
9	0x3e3edd71	0.1863916
10	0xbe6fb2d2	-0.23408058
11	0x3ddef0d6	0.108857796
12	0x3d3557ba	0.044273116
13	0x3d99aa64	0.075032026
14	0xbcccbd34	-0.024992563
15	0x3d99625e	0.07489465
16	0xbe96c365	-0.2944595
17	0xbe54e204	-0.20789343
18	0xbde3b2de	-0.111181006
19	0x3dd803ff	0.10547637
20	0x3e2803ce	0.16407701
21	0x3d99066f	0.0747193
22	0x3d667621	0.056265
23	0x3dc55874	0.09636012
24	0x3d75e72f	0.060034927
25	0x3c0a688a	0.008447776
26	0xbd73023b	-0.0593283
27	0xbc94276b	-0.018085202
28	0x3d8886a1	0.066663034
29	0xbcca003b	-0.024658313
30	0x3cd8e668	0.026477054
31	0xba236f28	-0.000623452
32	0xbdaac6fb	-0.08338734
33	0xbd700c49	-0.058605466
34	0xbdb32092	-0.08746447
35	0x3e20d7a5	0.15707262
36	0x3ddf8b9f	0.109153025
37	0xbd92d5dc	-0.07169697
38	0x3ce64d54	0.028113045
39	0x3ccb4d95	0.024817267
40	0xbd04d369	-0.03242818
41	0x3db8469c	0.08997843
42	0xbe34549e	-0.17610404
43	0xbe5e9b17	-0.2173885
44	0xbde33d45	-0.110956706
45	0x3d214da1	0.039380673
46	0x3d9d19b7	0.0767092
47	0x3eaa9333	0.3331543
48	0x3c9b7b85	0.018979797
49	0xbde8db3d	-0.113699414
50	0x3d2b49e8	0.04181853
51	0x3d0966fc	0.03354548
52	0x3e0ccd53	0.137502
53	0xbd2d79cb	-0.04235248
54	0xbddc4fbf	-0.10757398
55	0x3e204e13	0.15654783
56	0xbe624519	-0.22096671
57	0x3e07bd0e	0.13255712
58	0x3e2c1b07	0.16807185
59	0x3de5371d	0.11192153
60	0xbe59273e	-0.21206376
61	0xbda8d0e9	-0.082429715
62	0xbde10c1b	-0.10988637
63	0xbd92ebd3	-0.07173886
64	0xbddf021a	-0.10889073
65	0xbdae7352	-0.08518089
66	0xbe55a624	-0.20864159
67	0x3d9a5489	0.07535655
68	0x3e1914c7	0.14949332
69	0x3e3f4271	0.18677689
70	0x3df1ca57	0.118061714
71	0x3e024e65	0.12725218
72	0x3c0905b2	0.008363174
73	0xbe361a61	-0.177835
74	0xbde2b71a	-0.1107008
75	0x3ddab3f8	0.106788576
76	0xbd83f5ba	-0.06443353
77	0x3d958919	0.0730154
78	0x3d9db578	0.07700628
79	0x3c9f8c2e	0.019476023
80	0x3b91b197	0.004446219
81	0x3e4e3acf	0.20139621
82	0xbd16ca37	-0.03681394
83	0x3dec9e0e	0.11553584
84	0xbc128c82	-0.0089446325
85	0xbd391042	-0.04518152
86	0xbd999c30	-0.075004935
87	0xbdc27325	-0.09494618
88	0x3eb9d8d3	0.36298236
89	0xbdeda986	-0.116046
90	0xbd0f4012	-0.03497321
91	0x3ce710e6	0.0282063
92	0x3dcc828b	0.099858366
93	0x3df7716b	0.1208218
94	0x3e5b1497	0.21394573
95	0xbe15b17a	-0.14618483
96	0xbd9c891e	-0.076433405
97	0x3df2ed4e	0.118616685
98	0x3d1cb01a	0.03825388
99	0x3d4a6196	0.04940947
100	0x3e055910	0.13022256
101	0xbde7ec8f	-0.11324417
102	0xbdfed9f9	-0.12443919
103	0x3e35dcc3	0.17759995
104	0xbe08b5dd	-0.13350625
105	0xbd5e1313	-0.05421741
106	0xbd5ba056	-0.053619705
107	0x3df12c37	0.117760114
108	0x3e24c486	0.16090593
109	0x3c108906	0.008821731
110	0xbbffd122	-0.007806913
111	0xbd895f5d	-0.06707642
112	0x3e1a42b2	0.15064505
113	0xbe77948a	-0.24177757
114	0xbdeb44ec	-0.11487755
115	0xbe58275f	-0.21108769
116	0xba2f811e	-0.000669496
117	0x3c380f19	0.011234068
118	0x3c188fff	0.009311675
119	0xbc0fc9ec	-0.008776169
120	0x3de7439d	0.11292193
121	0xbcd8051c	-0.026369624
122	0xbcb26363	-0.021775907
123	0xbdefaf69	-0.11703379
124	0x3bf06d32	0.007337236
125	0xbd539cce	-0.051663212
126	0x3b5d8b02	0.003380478
127	0x3c3bb43d	0.011456546
128	0xbda72d9e	-0.08162998
129	0x3dfb9e6f	0.12286078
130	0x3db14896	0.08656423
131	0xbdd344c6	-0.10315852
132	0xbd6ecf9f	-0.05830347
133	0xbd9ed0d8	-0.077546775
134	0x3e0370d7	0.12836014
135	0x3cb4af44	0.02205623
136	0xbe074f0b	-0.13213746
137	0x3cd2c686	0.025729429
138	0x3cd44b8d	0.025914932
139	0x3d851006	0.06497197
140	0x3d56ad78	0.052411526
141	0xbdf8c361	-0.121466406
142	0xbdccd973	-0.10002413
143	0x3d3c7e13	0.04601867
144	0xbdd49737	-0.103804044
145	0xbddba9a1	-0.107257135
146	0x3cd9d637	0.026591403
147	0x3d3b15d4	0.045675114
148	0x3dd703d1	0.10498775
149	0x3d8d0d0b	0.068872534
150	0xbdf53a49	-0.11974008
151	0xbe16fd75	-0.14745124
152	0xbd9b3095	-0.07577626
153	0x3d2761b3	0.040864658
154	0xbd1a6307	-0.037692096
155	0xbe166972	-0.14688662
156	0xbd57ae06	-0.052656196
157	0xbdaeb7eb	-0.08531173
158	0xbd7fc38a	-0.06244234
159	0xbdda0557	-0.1064555
160	0xbd8ddfa2	-0.0692742
161	0xbd993889	-0.07481486
162	0x3e159ed7	0.14611374
163	0xbdd6e8a3	-0.10493591
164	0x3dc87cfa	0.097894624
165	0x3c2beb75	0.010493149
166	0xbd227778	-0.039664716
167	0x3db51ced	0.08843408
168	0x3e0f6714	0.14004165
169	0x3c8357bf	0.016033052
170	0x3dd5c4df	0.10437941
171	0xbd7adb84	-0.061244503
172	0xbcb0e319	-0.021592664
173	0x3ddfe703	0.10932734
174	0x3de24963	0.11049154
175	0x3bbbbd1b	0.0057293302
176	0x3dcb3b47	0.09923416
177	0xbd557228	-0.05211082
178	0x3c1f5363	0.009724471
179	0xbd9c12f7	-0.07620805
180	0x3d91e32f	0.0712341
181	0x3d53f7f9	0.051750157
182	0x3d9ccb9e	0.076560244
183	0xbd9947bf	-0.074843876
184	0x3e176254	0.14783603
185	0x3d5008a6	0.050789498
186	0x3e140d40	0.1445818
187	0xbcc512bd	-0.024056787
188	0xbd82e16c	-0.06390652
189	0xbdb13615	-0.086528935
190	0x3b4abd13	0.003093545
191	0xbdc37cf3	-0.095453165
192	0xbdc7207f	-0.09722995
193	0x3d9dc13c	0.07702872
194	0xbdf7e67c	-0.12104508
195	0x3d52f6dc	0.051504955
196	0x3e14725b	0.14496748
197	0x3cefd6ee	0.029277291
198	0xbe067a2a	-0.1313254
199	0x3d542937	0.051797118
200	0x3dac910b	0.08426102
201	0xbd4c7c45	-0.0499232
202	0xbdefaee9	-0.11703283
203	0x3d818f80	0.063261986
204	0x3d77f7f7	0.060539212
205	0x3df575dc	0.119853705
206	0x3df8a359	0.12140531
207	0x3c8939ce	0.016751196
208	0xbd067768	-0.03282872
209	0xbce7e7cb	-0.02830877
210	0x3de17d71	0.11010254
211	0xbd86f4ef	-0.06589686
212	0xbcd225ca	-0.025652785
213	0xbd71b0c9	-0.059006486
214	0x3dae6db6	0.085170195
215	0x3ca3c5c0	0.019991755
216	0xbe34ed85	-0.17668732
217	0x3ccb1550	0.024790436
218	0xbdbf6d02	-0.093469635
219	0x3d770f1f	0.060317155
220	0xbc94114d	-0.018074656
221	0x3e2b320b	0.16718309
222	0x3c69e569	0.014275887
223	0xbe0048e1	-0.12527801
224	0x3db1a496	0.086739704
225	0xbd96dd29	-0.07366402
226	0x3dbbb585	0.091654815
227	0xbde238f1	-0.11046017
228	0xbe1e350d	-0.15449925
229	0x3c96ccc4	0.018408187
230	0x3d3c3e03	0.045957576
231	0xbcbed7c0	-0.023296237
232	0x3d081cc3	0.033230554
233	0xbdc7d02e	-0.09756504
234	0x3cc8f072	0.024528716
235	0x3dd3a9f7	0.103351526
236	0xbe33081b	-0.1748356
237	0xbcb81268	-0.022469714
238	0xbd2fab6e	-0.042888097
239	0xbe0909ff	-0.1338272
240	0x3d26005c	0.040527686
241	0xbb4527f6	-0.0030083633
242	0x3da364fb	0.07978245
243	0x3e19017f	0.14941977
244	0x3bf8d142	0.007593305
245	0xbdb2a859	-0.08723516
246	0x3de8cb7a	0.11366935
247	0xbd81492a	-0.06312783
248	0x3e06c186	0.13159761
249	0x3dc947ec	0.09828171
250	0xbda13b0b	-0.0787259
251	0x3db2b066	0.087250516
252	0x3de89f69	0.1135853
253	0x3d3b6a3e	0.045755617
254	0xbdead0c2	-0.11465599
255	0x3cbf3be0	0.02334398

hidden_layer_u1.1.bias f4 [128]
0	0x3d7e4f67	0.062087443
1	0x3cc0182f	0.023449032
2	0xbd1e172a	-0.03859631
3	0xbd88fe4f	-0.066891305
4	0x3d99f598	0.075175464
5	0x3d798d80	0.06092596
6	0x3cb653f1	0.022256823
7	0x3d7976a3	0.060904156
8	0xbd896aff	-0.06709861
9	0x3c4c28b1	0.012460873
10	0xbd2386fd	-0.039923657
11	0xbd9cfdde	-0.07665609
12	0x3d23fcfe	0.040036194
13	0x3d8561d1	0.065127976
14	0xbbfce20b	-0.007717376
15	0xbd8dc18b	-0.06921681
16	0x3c9e97ab	0.01935943
17	0x3d4c9ebe	0.049956076
18	0xbcb1fed8	-0.021727964
19	0xbc12065d	-0.00891265
20	0x3d19601d	0.037445176
21	0x3c5ce851	0.013483123
22	0xbc2003bf	-0.009766518
23	0xbd56146e	-0.052265577
24	0xbb177d49	-0.0023115447
25	0xbd729ce6	-0.05923166
26	0xbce9c47b	-0.028536072
27	0x3d8d9e9b	0.06915017
28	0x3d0d1dd4	0.034452274
29	0x3c8195db	0.015818527
30	0x3bddd0d6	0.00676928
31	0x3c931f5b	0.017959287
32	0xbc42952b	-0.011876385
33	0x3d90a423	0.070625566
34	0xbdc30c2e	-0.095238075
35	0xbd653846	-0.05596187
36	0xbd9fd4ad	-0.078042366
37	0x3d843421	0.06455255
38	0xbd8e05b2	-0.0693468
39	0xbcb8aa4d	-0.022542143
40	0xbdba3c14	-0.0909349
41	0xbc8ac444	-0.01693929
42	0xbd89badd	-0.067250945
43	0xbd62a182	-0.055329807
44	0xbc5fe531	-0.013665483
45	0x3d870582	0.065928474
46	0xbc8f5288	-0.017495409
47	0xbdb5953f	-0.08866357
48	0x3d842f42	0.06454326
49	0xbd88fb8a	-0.06688602
50	0x3d10b447	0.035328176
51	0x3c97092c	0.01843699
52	0x3d5abf63	0.053405177
53	0xbccca705	-0.024981985
54	0x3d8f827f	0.07007312
55	0x3c6ab24c	0.014324736
56	0xbdbf9fb2	-0.09356631
57	0xbd021011	-0.031753603
58	0x3da1f7ef	0.07908618
59	0xbd8ed874	-0.06974879
60	0xbda6af5f	-0.08138918
61	0x3db2d196	0.087313816
62	0xbd52e2c0	-0.051485777
63	0xbd6dbaf5	-0.058039624
64	0x3d2d1f4a	0.042266168
65	0x3d83abaa	0.06429227
66	0xbd664d51	-0.05622608
67	0x3d027865	0.0318531
68	0xbda6be66	-0.08141784
69	0x3d625399	0.055255506
70	0x3d64d106	0.055863403
71	0xbc9d9154	-0.019234337
72	0xbcf72550	-0.03016916
73	0xbce4f3f4	-0.027948357
74	0x3d2d24f0	0.042271554
75	0x3dae3d83	0.08507826
76	0x3d31df65	0.043425936
77	0xbd7a714d	-0.06114321
78	0xbc43cece	-0.011951162
79	0xb93a1cad	-0.00017749025
80	0x3ca0e614	0.01964096
81	0xbd4606b1	-0.048346225
82	0x3d8d8c21	0.06911493
83	0x3d999504	0.074991256
84	0x3c440097	0.011963031
85	0x3d9607e1	0.073257215
86	0x3c47d79c	0.012197401
87	0x3d16326b	0.036669176
88	0xbd80512b	-0.062654816
89	0x3d9b88e2	0.07594468
90	0xbd17d51b	-0.037068468
91	0x3d411637	0.047140326
92	0xbc731bbd	-0.014838156
93	0x3db932cb	0.09042891
94	0x3cafef84	0.021476515
95	0xbd3ceff3	-0.04612727
96	0x3d04574d	0.03230982
97	0xbd1dff81	-0.038573746
98	0x3dd35440	0.10318804
99	0x3bb23ce5	0.005439388
100	0x3da73dc3	0.08166077
101	0xbda9b338	-0.082861364
102	0xbc9d909d	-0.019233996
103	0xbb3f06d9	-0.0029148369
104	0x3c603911	0.013685481
105	0x3c731a58	0.014837824
106	0x3d2263cd	0.03964596
107	0x3d948d05	0.0725346
108	0x3d714c3b	0.05891059
109	0xbd8123dd	-0.063056685
110	0x3c52db2b	0.0128696365
111	0x3ad37a88	0.001613454
112	0x3d97f3e5	0.07419566
113	0xbc1f139b	-0.009709264
114	0x3c7561ee	0.014976962
115	0xbda16883	-0.07881262
116	0xbdb05091	-0.08609117
117	0x3ccb8850	0.024845272
118	0xbcad54a8	-0.021158531
119	0xbd47b601	-0.048757557
120	0xbcd5f590	-0.02611807
121	0x3b0d995c	0.0021606302
122	0xbd683792	-0.05669362
123	0xbd71bc47	-0.059017446
124	0x3d21ff04	0.039549842
125	0x3cb1300f	0.021629361
126	0xb9428e84	-0.00018554373
127	0xbd825b9c	-0.06365129

hidden_layer_u1.2.weight f4 [128, 128]
0	0xbde52263	-0.11188199
1	0x3d82a8e1	0.06379867
2	0xbc833e69	-0.01602097
3	0x3d6de6fc	0.058081612
4	0xbdd054d6	-0.10172431
5	0x3d8e0c84	0.06935981
6	0x3da634de	0.08115552
7	0x3d44bf75	0.04803415
8	0x3d952673	0.07282724
9	0x3dac35ce	0.084087
10	0xbdee34ef	-0.1163119
11	0xbd7753c2	-0.060382612
12	0xbe155fa2	-0.14587262
13	0x3dbc9723	0.092085145
14	0x3d75c8a1	0.060005788
15	0x3d806a2d	0.062702514
16	0x3c8931b9	0.016747342
17	0x3d7c7f94	0.061645105
18	0xbde99f4e	-0.11407338
19	0x3c1651f0	0.009174809
20	0xbb70e8e8	-0.0036759917
21	0x3d6d3fc6	0.057922147
22	0x3e06a58e	0.13149092
23	0x3c8e60a5	0.017380068
24	0xbdbd9316	-0.0925657
25	0x3d347ec1	0.044066194
26	0xbce16241	-0.027512671
27	0xba75d38a	-0.000937753
28	0x3caaf33d	0.020867938
29	0x3ca613e1	0.02027315
30	0xbc2ef214	-0.010677833
31	0x3db7bc99	0.08971519
32	0x3cefc607	0.029269231
33	0xbe165805	-0.14682014
34	0x3daa32f5	0.083105005
35	0x3d297844	0.04137446
36	0x3d1aa534	0.037755206
37	0x3dd8501a	0.10562153
38	0x3cba98e1	0.022777976
39	0xbe00dd3b	-0.12584393
40	0xbd58e1a8	-0.052949578
41	0xbd9a3563	-0.07529714
42	0xbb86119f	-0.004091456
43	0x3d7d268f	0.06180435
44	0xbd3dd476	-0.046345197
45	0x3c0f4991	0.008745567
46	0x3b53213d	0.0032215856
47	0xbcdbcca6	-0.026830982
48	0xbdbcf938	-0.09227222
49	0xbe203a6b	-0.15647285
50	0x3d09a1ad	0.03360145
51	0x3cba94b1	0.02277598
52	0x3bdf47c2	0.006813974
53	0x3cac182d	0.021007622
54	0x3d5604f1	0.052250806
55	0x3c2ca51b	0.010537411
56	0x3d5b82b5	0.05359145
57	0xbdee92d3	-0.11649098
58	0xbd6a123f	-0.057146307
59	0x3d968c37	0.073509626
60	0xbdb74831	-0.08949316
61	0x3d31ddf4	0.04342456
62	0xbd72b246	-0.059252046
63	0xbce16c69	-0.027517514
64	0xbde4352c	-0.11142954
65	0xbcb170d3	-0.021660244
66	0xbe0d0349	-0.13770784
67	0x3d2597c2	0.04042793
68	0x3d33ff8d	0.043944884
69	0xbd946375	-0.072455324
70	0xbd52ea68	-0.05149308
71	0x3bd5126d	0.0065024407
72	0xbd091c5d	-0.033474315
73	0xbe28b28e	-0.16474363
74	0xbd584873	-0.052803468
75	0xbdb2257b	-0.08698555
76	0x3d8788dc	0.06617901
77	0x3b8251f1	0.0039770533
78	0x3cbbaad6	0.02290861
79	0x3db85e27	0.09002333
80	0xbc285697	-0.010274551
81	0x3d21d0fc	0.039505944
82	0xbdbbce4a	-0.09170206
83	0x3de45dbb	0.1115069
84	0xbe100042	-0.14062598
85	0x3d945f3a	0.072447255
86	0xbdde616d	-0.10858426
87	0xbd5bcf5e	-0.053664558
88	0x3d0909ed	0.03345673
89	0xbd15ac79	-0.036541436
90	0xbd293a13	-0.04131515
91	0x3db411cc	0.08792457
92	0x3a279feb	0.0006394374
93	0x3d3945ab	0.045232456
94	0x3dc6d343	0.09708264
95	0x3dea0e2d	0.11428485
96	0x3e0b9f1b	0.13634913
97	0x3dfc198b	0.123095594
98	0xbd346b95	-0.04404791
99	0x3e0e6736	0.1390656
100	0x3d9c17f5	0.07621757
101	0x3de6452d	0.11243663
102	0xbdbf0088	-0.09326273
103	0x3d859ddc	0.0652425
104	0xbd9d38ef	-0.07676875
105	0xbbdc83a0	-0.006729558
106	0x3b5181b9	0.003196819
107	0xbd1450b3	-0.036209773
108	0x3bb39213	0.00548006
109	0x3d845e64	0.06463316
110	0x3cebb7c7	0.028774155
111	0x3d308cf6	0.04310318
112	0x3d4ce8c1	0.05002666
113	0xbd32be49	-0.0436385
114	0xbda2e59f	-0.07953953
115	0x3d909657	0.07059925
116	0xbd75901e	-0.059951894
117	0x3e10c0f4	0.14136106
118	0xbcb13792	-0.021632943
119	0x3b7b6ef2	0.003836569
120	0xbd95b5b7	-0.0731005
121	0xbddb4bfc	-0.10707852
122	0xbd227a34	-0.039667323
123	0xbd81ab8a	-0.063315466
124	0xbc5d37ea	-0.0135021005
125	0xbdc6b6b7	-0.09702819
126	0xbcd0c5dc	-0.025484972
127	0xba5cb2dc	-0.0008418986
128	0xbe0a7365	-0.13520582
129	0xbc4cd460	-0.012501806
130	0xbbd95372	-0.006632262
131	0xbdbdfd1d	-0.09276793
132	0x395d33ca	0.00021095495
133	0x3d05b43d	0.03264259
134	0xbd565700	-0.052329063
135	0x3d62153e	0.05519604
136	0x3c80aaa1	0.015706362
137	0xbc0aa0bd	-0.008461175
138	0xbddf45c9	-0.10901982
139	0x3e00df4e	0.12585184
140	0xbd9ca5bd	-0.076487996
141	0xbd80be89	-0.06286342
142	0x3d06126b	0.03273241
143	0x3d258546	0.040410303
144	0x3dc72f68	0.09725839
145	0xbcb9e325	-0.022691319
146	0x3da57d05	0.08080486
147	0xba85767d	-0.0010182407
148	0xbc422782	-0.01185024
149	0x3ce14091	0.027496608
150	0x3cf0c28d	0.029389644
151	0xbd24ad30	-0.040204227
152	0xbc871200	-0.016488075
153	0x3d4cea37	0.050028052
154	0xbe186bb4	-0.14884835
155	0xbe092bce	-0.13395616
156	0xbdd7a6a2	-0.105298296
157	0x3c4d8fb4	0.0125464685
158	0xbc6bdd2e	-0.014395995
159	0x3cc86946	0.02446426
160	0xbd8af530	-0.06785047
161	0xbc8f094b	-0.017460486
162	0xbd8a2b0d	-0.067464925
163	0xbcdef966	-0.027218532
164	0xbd8fb6b2	-0.07017268
165	0x3d0f061e	0.034917943
166	0x3cd9a941	0.026569964
167	0x3dc5e3bb	0.09662577
168	0x3dcf70a1	0.10128904
169	0xbd42a12f	-0.047516998
170	0xbdb29b3d	-0.087210156
171	0xbdf7fbab	-0.12108549
172	0xbc9d5049	-0.019203322
173	0x3e089fc8	0.13342202
174	0x3e045448	0.12922776
175	0xbc9c0bb4	-0.01904855
176	0x3d957410	0.07297528
177	0xbd74ff49	-0.05981377
178	0xbcfc7509	-0.030817525
179	0x3dc110f5	0.094270624
180	0xbcc0b272	-0.02352259
181	0xbb195f34	-0.0023402693
182	0xbd80e5f7	-0.06293862
183	0xbd7b9f4e	-0.06143122
184	0xbcce75ba	-0.02520262
185	0x3d4e6dd2	0.0503977
186	0xbe1f4ca9	-0.15556587
187	0xbdc2214e	-0.094790086
188	0x3ca691d2	0.020333204
189	0x3dc849e3	0.09779718
190	0x3c770880	0.01507771
191	0x3d35f217	0.044420328
192	0xbdf88c26	-0.12136106
193	0xbb92020d	-0.004455811
194	0x3d783dcb	0.060605805
195	0x3d82b87c	0.06382844
196	0xbce6e918	-0.02818732
197	0x3d3683e5	0.04455938
198	0xbc4e3178	-0.012585036
199	0xbc975f9c	-0.018478207
200	0x3e2ce050	0.16882443
201	0x3d5c711e	0.053818814
202	0x3d113a9f	0.035456296
203	0x3bc0f2a9	0.0058883023
204	0x3dfcffd0	0.1235348
205	0x3d2ecb51	0.042674366
206	0x3c2bb58c	0.010480296
207	0x3dd9bbe6	0.10631542
208	0x3ca08962	0.01959676
209	0x3cac43ea	0.021028478
210	0xbd8f5c86	-0.07000069
211	0xbdffb092	-0.1248485
212	0x3d895428	0.06705505
213	0xbdc6afbd	-0.09701488
214	0xbd6daa0d	-0.0580235
215	0x3c50d947	0.012747115
216	0xbd3029f7	-0.04300877
217	0x3d8f7adc	0.070058554
218	0x3dbf6b72	0.093466654
219	0xbdfa8ec6	-0.12234263
220	0x3c27f6a6	0.010251677
221	0xbdb34554	-0.08753458
222	0x3e593b3f	0.21214007
223	0x3de57675	0.112042345
224	0x3cc22cbf	0.023702977
225	0x3d25b7cf	0.040458497
226	0xbc4c64d2	-0.012475209
227	0xbb123b31	-0.0022313113
228	0x3e05de71	0.13073136
229	0xbc090fb5	-0.008365561
230	0x3d0e53bd	0.034747828
231	0xbb220526	-0.0024722307
232	0xbc946c48	-0.018118039
233	0x3cffe984	0.031239279
234	0x3cb4c29f	0.022065459
235	0x3d9e1989	0.07719714
236	0xbd733b4a	-0.059382714
237	0x3d2c18e4	0.042015925
238	0x3e035c3f	0.12828158
239	0x3d774c3d	0.06037544
240	0x3db4bbff	0.0882492
241	0xbd9a4502	-0.075326934
242	0x3e0025bb	0.12514393
243	0xbdbfbc65	-0.09362105
244	0x3df374d4	0.118875176
245	0x3d719d89	0.058988128
246	0xbb84f77d	-0.004057823
247	0x3d9c22ab	0.076238
248	0xbdc42c6a	-0.09578784
249	0x3d3b6c5f	0.045757648
250	0xbd3ca71b	-0.0460578
251	0x3cecdd5a	0.028914142
252	0xbbeded33	-0.0072609424
253	0xbdb86520	-0.09003663
254	0x3cbd542e	0.023111429
255	0x3d4d6936	0.050149165

hidden_layer_u1.2.bias f4 [128]
0	0x3db3d31d	0.08780501
1	0xbdb39aab	-0.08769735
2	0xbbc18203	-0.005905391
3	0xbb553283	-0.0032531328
4	0xbd6f7b4e	-0.058467202
5	0xbcba8359	-0.02276771
6	0x3d3b8288	0.04577878
7	0x3d219fc9	0.039459024
8	0xbd32f3db	-0.04368959
9	0x3cf7a92b	0.030232033
10	0xbe136db0	-0.14397311
11	0xbb72d5f1	-0.0037053789
12	0xbdb36d47	-0.087610774
13	0x3d7b9e33	0.061430167
14	0xbbe95752	-0.007121005
15	0x3cb4615e	0.022019085
16	0xbd1f6641	-0.038915876
17	0x3da11207	0.078647666
18	0xbd15924b	-0.03651647
19	0x3d2a846e	0.0416302
20	0xbd9673e1	-0.07346321
21	0x3ca19560	0.019724548
22	0x3d3c24da	0.045933582
23	0xbe0ca67f	-0.13735388
24	0x3de9881b	0.11402913
25	0x3df7d20f	0.12100612
26	0xbcbb49d9	-0.022862362
27	0x3d8d2ffc	0.06893918
28	0xbd0a7e5b	-0.03381191
29	0xbd111774	-0.035422757
30	0xbdfd92a2	-0.123814836
31	0xbcd7f487	-0.026361717
32	0x3d12f24c	0.035875604
33	0x3d3eda59	0.04659495
34	0x3cbe4691	0.023227008
35	0xbd93024c	-0.071781725
36	0x3d3b2f61	0.04569948
37	0x3c8d4794	0.017246045
38	0xbdac8922	-0.084245935
39	0x3da27cbc	0.079339474
40	0xbcc98063	-0.024597352
41	0xbd24dccd	-0.040249635
42	0xbd049d6a	-0.032376684
43	0xbc272000	-0.0102005005
44	0x3badc9ab	0.0053035817
45	0xbdbe77c0	-0.09300184
46	0x3c2d9152	0.010593729
47	0xbd9f5e6c	-0.077816814
48	0x3bb039d7	0.005377989
49	0x3d2b12b2	0.041765876
50	0xbdf98035	-0.12182657
51	0xbd662270	-0.056185186
52	0x3db98e4c	0.09060344
53	0x3dd7af8a	0.10531528
54	0x3d969009	0.07351691
55	0xbd6bf246	-0.057604097
56	0x3cb4ad13	0.022055184
57	0xbd931c7c	-0.07183167
58	0x3bcb9e00	0.0062139034
59	0x3d1efad0	0.038813412
60	0x3c9b3339	0.018945323
61	0x3df4c743	0.11952069
62	0x3df81894	0.12114063
63	0xbdd06313	-0.10175147
64	0xbd1d3ad5	-0.038386185
65	0x3d430399	0.047610853
66	0x3da22529	0.07917244
67	0xbdc6dddf	-0.09710287
68	0x3d807540	0.06272364
69	0x3d4c2b4e	0.049845986
70	0x3d6f7bf1	0.05846781
71	0x3c84d29f	0.016213713
72	0xbcf6ba23	-0.030118054
73	0x3d876aa9	0.06612141
74	0x3df7f610	0.121074796
75	0xbc82e0c9	-0.015976327
76	0xbd9d0ee2	-0.07668854
77	0xbb9c0749	-0.0047616106
78	0x3db8050f	0.0898534
79	0x3d60b447	0.054859426
80	0x3b986ed4	0.0046518836
81	0xba80e6e7	-0.0009834439
82	0x3d5476ec	0.051871225
83	0x3daf4bd8	0.08559388
84	0xbd5f5240	-0.0545218
85	0x389854b3	7.263701e-05
86	0xbd200035	-0.039062697
87	0x3db0f5b7	0.086406164
88	0xbd697ea4	-0.05700554
89	0xbdb63407	-0.08896642
90	0xbd1723f3	-0.03689952
91	0x3d91da5a	0.071217254
92	0xbc9c671e	-0.019092139
93	0xba632455	-0.00086647767
94	0xbdc60df2	-0.096706286
95	0xbb5e2299	-0.0033895134
96	0xbd18c54b	-0.03729753
97	0x3d7aaf25	0.061202187
98	0x3ab7d990	0.0014026631
99	0x3da25ff3	0.07928457
100	0xbd185da8	-0.037198693
101	0x3ce76ee7	0.028251125
102	0x3b936479	0.0044980613
103	0xbcea114a	-0.028572697
104	0xbc8630a5	-0.016380617
105	0x3d5bbc25	0.053646225
106	0x39c1bba7	0.0003695164
107	0xbc048840	-0.008089125
108	0x3b96a74c	0.00459758
109	0x3cf4a727	0.02986486
110	0x3d2317fa	0.039817788
111	0x3da25366	0.07926063
112	0x3d188339	0.03723452
113	0x3da6d359	0.0814578
114	0x3d804ab8	0.062642515
115	0xbc572905	-0.013132338
116	0x3ce18371	0.027528496
117	0xbda56c43	-0.0807729
118	0x3d490429	0.049076233
119	0x3d9a72f5	0.075414576
120	0x3e313314	0.17304641
121	0x3cb791fd	0.02240848
122	0x3bb2f170	0.0054609105
123	0xbd9b95e7	-0.07596951
124	0xbdfd628f	-0.12372314
125	0xbc5159fc	-0.012777802
126	0xbd2ccce7	-0.042187598
127	0xbcbf1373	-0.023324704

hidden_layer_u1.3.weight f4 [128, 128]
0	0x3d91c34b	0.07117327
1	0xbd769f2a	-0.060210384
2	0xbd8abad8	-0.06773919
3	0x3d652fbc	0.055953726
4	0x3c8370d9	0.01604502
5	0x3dab9bfb	0.0837936
6	0xbc88ce07	-0.016699804
7	0x3bc3e0a1	0.0059777056
8	0xbe1bcd8b	-0.15215127
9	0x3df2fac0	0.11864233
10	0x3e238249	0.15967669
11	0x3d0ea22a	0.03482262
12	0xbbc31731	-0.0059536924
13	0x3bdd7fd4	0.006759623
14	0x3cc8001b	0.024414113
15	0xbb8915d6	-0.0041835112
16	0x3bfb5b63	0.0076708063
17	0x3bf564c6	0.00748882
18	0x3d16e611	0.036840502
19	0x3cfebbb3	0.031095361
20	0xbda131e9	-0.07870848
21	0x3da85d92	0.08220972
22	0xbd2df4f2	-0.042469926
23	0x3e3e9261	0.18610527
24	0xbcb4b5a3	-0.022059267
25	0x3ca24cc1	0.01981199
26	0xbd3a9aeb	-0.045557898
27	0xbd407500	-0.04698658
28	0xbe0a0d42	-0.1348162
29	0xbd7b29ce	-0.061319165
30	0x3c3e67b3	0.0116214035
31	0xbdc5f662	-0.096661344
32	0x3c9bc83a	0.019016374
33	0x3d3cd3c7	0.046100404
34	0x3dbd4f65	0.09243659
35	0xbdb9bfb5	-0.09069768
36	0x3d564e92	0.052321024
37	0xbb233746	-0.0024904772
38	0x3decc9ec	0.11561951
39	0xbbd020e4	-0.006351577
40	0xbcc8d081	-0.024513485
41	0xbdf53141	-0.11972285
42	0x3dea78f9	0.11448855
43	0xbd8e10b2	-0.06936778
44	0x3d386aea	0.045023836
45	0xbe071044	-0.13189799
46	0xbd981fc6	-0.07427935
47	0x3e0d85c7	0.13820563
48	0xbe12f3b1	-0.14350773
49	0x3dd742f1	0.10510815
50	0xbd284e8f	-0.041090544
51	0xbc48ac5e	-0.012248127
52	0x3dbbb38a	0.09165104
53	0x3da80721	0.08204485
54	0xbdac0eab	-0.08401235
55	0xbdaa97e4	-0.08329752
56	0x3cf759bf	0.030194161
57	0x3d96b688	0.07359034
58	0xbca22eb6	-0.019797664
59	0xbd1f6341	-0.038913015
60	0x3d5fad6d	0.05460875
61	0xbcba82cf	-0.022767453
62	0x3da0c50b	0.07850083
63	0x3d1c6e3d	0.03819107
64	0xbc37e8c8	-0.011224933
65	0x3cb210f3	0.021736598
66	0x3cc5edc5	0.024161229
67	0xbde6866f	-0.1125611
68	0x3d0262ad	0.031832386
69	0x3e15fb26	0.14646587
70	0x3c125860	0.008932203
71	0xbce9af66	-0.02852602
72	0xbd127b29	-0.035761986
73	0xbd3f981c	-0.046775922
74	0x3aba32a8	0.001420577
75	0xbdf19cc8	-0.11797482
76	0x3db4f476	0.0883569
77	0xbd845664	-0.0646179
78	0xbc134d00	-0.008990526
79	0x3cd75e88	0.026290193
80	0x3c4c31b4	0.012463022
81	0x3c9ec975	0.019383172
82	0xbd954f22	-0.07290484
83	0xbc91f225	-0.017815659
84	0x3d11707e	0.03550767
85	0xbd875fd3	-0.06610074
86	0x3d311ab5	0.04323836
87	0x3d3b7315	0.045764048
88	0x3db0e41a	0.08637257
89	0xbd4d1b72	-0.050075002
90	0x3d90bb16	0.07066934
91	0xbd296481	-0.041355614
92	0x3c8f85ab	0.017519793
93	0x3d8cf523	0.068826936
94	0xbd60c2a1	-0.054873113
95	0xbd5f47e3	-0.054511916
96	0xbd1585d4	-0.03650458
97	0x3cb793b6	0.022409301
98	0x3e0928fb	0.13394539
99	0x3a819b68	0.0009888234
100	0xbc142aa5	-0.00904337
101	0xbdc99e35	-0.09844629
102	0xbe06da33	-0.13169174
103	0xbd961c25	-0.07329587
104	0x3c45cde1	0.012073011
105	0xbdeb1719	-0.11479015
106	0x3da6686d	0.081253864
107	0x3d91d2fd	0.07120321
108	0x3db28ffd	0.0871887
109	0x3dea0908	0.11427504
110	0xbaf8e660	-0.0018989556
111	0xbda03123	-0.07821872
112	0xbd9a6397	-0.075385265
113	0x3d47e93b	0.04880641
114	0xbbdc2bdb	-0.006719095
115	0x3d8f1c4b	0.06987818
116	0xbddc00ac	-0.10742316
117	0x3d199224	0.037492886
118	0x3bd81fb1	0.006595575
119	0x3d967227	0.073459916
120	0x3d28c144	0.041199937
121	0xbd3d8c81	-0.046276573
122	0x3d4dc77d	0.050239075
123	0x3dfab34b	0.12241229
124	0x3dbff976	0.09373753
125	0x3d7a4a8f	0.06110626
126	0xbda02648	-0.078198016
127	0x3c0e9333	0.008702087
128	0x3b0aef48	0.0021199752
129	0xbdbf0688	-0.093274176
130	0x3d0d514e	0.034501366
131	0x3db4de3c	0.0883145
132	0x3d8c4e4b	0.06850871
133	0x3d6c832e	0.05774229
134	0xbbe9639f	-0.0071224715
135	0x3dc1aae2	0.094564214
136	0xbd5e9cfc	-0.05434893
137	0x3d11abfa	0.0355644
138	0x3cb4a3e0	0.022050798
139	0xbd82a3a7	-0.063788705
140	0xbd23260f	-0.039831217
141	0xbccfb00a	-0.025352497
142	0x3d89f414	0.06736007
143	0xbbde147e	-0.006777345
144	0xbd8f7f5f	-0.07006716
145	0x3888d5ce	6.5248096e-05
146	0xbe0d9207	-0.13825236
147	0xbd86f054	-0.06588808
148	0xbe11898c	-0.14212626
149	0x3b41ff41	0.0029601606
150	0xbd827404	-0.063697845
151	0x3d90f1a0	0.07077336
152	0x3deacbf3	0.114646815
153	0x3d3d216c	0.04617445
154	0x3d2a7595	0.04161604
155	0x3dd977a6	0.10618524
156	0xbc90fff2	-0.01770017
157	0xbcfe98ce	-0.031078722
158	0x3d2f87aa	0.04285399
159	0x3de2bef8	0.11071581
160	0x3d037279	0.03209159
161	0x3e0f9c6f	0.14024518
162	0x3c6037c9	0.013685175
163	0x3c2448ee	0.010027153
164	0xbe35f1a7	-0.17767964
165	0x3d600050	0.054687798
166	0x3db6451d	0.08899901
167	0x3c99b15f	0.018761335
168	0xbdace6e5	-0.08442477
169	0xbd835c40	-0.0641408
170	0xbd8be319	-0.06830425
171	0x3df81e81	0.12115193
172	0xbb4c9afb	-0.0031220305
173	0x3cf21633	0.029551601
174	0xba83f2f0	-0.0010066908
175	0xbe27376d	-0.16329737
176	0xbdf8bd1a	-0.12145443
177	0x3dfdda6a	0.12395175
178	0xbc78a5cb	-0.015176247
179	0xbd79c38a	-0.060977496
180	0x3e271566	0.16316757
181	0xbd8ef227	-0.06979781
182	0xbd13d82b	-0.036094826
183	0xbe0acb9c	-0.13554233
184	0x3c1ab9dd	0.009443727
185	0x3dc99585	0.09842972
186	0xbdce1558	-0.10062665
187	0xbd1ec83c	-0.038765177
188	0xbe07cb44	-0.13261133
189	0x3a79e72b	0.0009533043
190	0xbd02ce9a	-0.03193531
191	0x3d1f143e	0.038837664
192	0x3cac0133	0.020996666
193	0x3c8a029c	0.016846947
194	0x3d17e79f	0.037086125
195	0xbdc8528a	-0.09781368
196	0x3ce137f7	0.027492506
197	0xbd91511c	-0.070955485
198	0x3dc1789e	0.09446834
199	0xbbeb7c13	-0.0071864217
200	0xbdfbd73b	-0.12296911
201	0x3d310712	0.043219633
202	0xbde83b11	-0.11339391
203	0x3d3e1500	0.046406746
204	0x3ddb2e35	0.10702173
205	0xbd34eabf	-0.044169184
206	0x3d7642c2	0.06012226
207	0xbd9df672	-0.07713021
208	0x3c7f492b	0.015581409
209	0x3db4ac4a	0.08821924
210	0xb8e15285	-0.000107442065
211	0x3a25aa72	0.0006319649
212	0x3d3304c1	0.043705706
213	0x3d8b78ac	0.06810126
214	0xbbdc99d1	-0.0067322035
215	0xbc2f09e8	-0.010683514
216	0x3dac2449	0.08405358
217	0xbd951c7c	-0.072808236
218	0x3c1637d9	0.009168589
219	0x3b959570	0.0045649335
220	0x3be59ac5	0.0070069754
221	0xbd968774	-0.073500544
222	0xbda4210e	-0.08014117
223	0x3d86c89a	0.065812305
224	0xbc394bee	-0.011309607
225	0xbd93a659	-0.07209463
226	0x3e393d9c	0.18089908
227	0xbd239d7d	-0.039945114
228	0x3d8097ef	0.06278979
229	0xbd804ce8	-0.06264669
230	0xbcfc46d0	-0.030795485
231	0x3c433487	0.011914379
232	0x3d8cb0a8	0.06869632
233	0xbe26e7cd	-0.16299362
234	0x3e060bd5	0.13090451
235	0xbd41ee06	-0.047346137
236	0xba98f03b	-0.0011668274
237	0xbd25a673	-0.04044194
238	0x3d92e459	0.0717246
239	0xbc5f24f0	-0.013619646
240	0xbc9afd62	-0.01891965
241	0xbd8f1e91	-0.06988252
242	0xbd645c50	-0.0557521
243	0x3dd3f365	0.10349158
244	0x3bc448e0	0.0059901327
245	0xbdaa81d7	-0.08325546
246	0x3e105b43	0.14097314
247	0x3d4b5019	0.049636934
248	0x3d272e63	0.040815722
249	0xbd48b410	-0.048999846
250	0x3d7eaf26	0.062178753
251	0xbd7b24ec	-0.06131451
252	0x3d0f329a	0.034960367
253	0x3c076059	0.008262717
254	0x3c99c6a3	0.018771475
255	0xbc9d6fe2	-0.019218389

hidden_layer_u1.3.bias f4 [128]
0	0x3d44ca2a	0.04804436
1	0x3d8efd83	0.06981947
2	0x3dae5e7e	0.08514117
3	0x3c4c79a5	0.012480174
4	0xbd8f0f58	-0.069853485
5	0x3d199b21	0.037501458
6	0xbb42033b	-0.0029603976
7	0xbd86d511	-0.06583608
8	0x3d70771a	0.058707334
9	0x3dc6dbb5	0.097098745
10	0xbcfd5fac	-0.030929409
11	0xbdfdcd9a	-0.12392731
12	0xbc8ed099	-0.017433451
13	0x3db9f5c4	0.09080079
14	0xbddcbbb9	-0.10777993
15	0xbd2fe324	-0.042941228
16	0x3db835c6	0.089946315
17	0xbd712e25	-0.058881897
18	0x3db6677c	0.08906457
19	0xbd93a767	-0.07209664
20	0xbd613fc7	-0.054992463
21	0xbd4a17b9	-0.04933903
22	0x3d41a028	0.047271878
23	0xbce4829b	-0.027894309
24	0x3d67d32e	0.05659788
25	0xbced0106	-0.028931152
26	0xbd779b15	-0.060450632
27	0x3d894f47	0.06704574
28	0x3d3dfe62	0.046385176
29	0xbcd401a4	-0.025879689
30	0xbca52c7b	-0.020162812
31	0x3ca9427a	0.020661581
32	0x3cf13110	0.02944234
33	0x3ca3656d	0.019945825
34	0xbcc471d4	-0.023980059
35	0xbd72c830	-0.059272945
36	0x3d51009b	0.051025968
37	0x3bcc63b0	0.0062374696
38	0xbd8644cf	-0.06556093
39	0x3db9f30c	0.09079561
40	0x3c8956b4	0.016764976
41	0x3d75e25c	0.060030326
42	0x3db33783	0.087508224
43	0xbcb80cbd	-0.022467012
44	0x3bd5e4fb	0.0065275407
45	0xbd56a0db	-0.052399497
46	0x3d616d85	0.055036087
47	0xbcda5f8f	-0.026656894
48	0xbe18859d	-0.1489472
49	0x3d198bf6	0.037486993
50	0xbda17a46	-0.0788465
51	0x3ceeca95	0.029149333
52	0x3dc71539	0.09720845
53	0xbe07b26f	-0.13251661
54	0x3d960935	0.07325975
55	0x3c897a59	0.016781973
56	0xbd6b7966	-0.05748882
57	0x3d80141b	0.06253835
58	0xbcb4d78f	-0.022075443
59	0xbd9a1ca8	-0.07524997
60	0x3d3aefbc	0.045638785
61	0xbcaaeba6	-0.020864319
62	0xbc489381	-0.012242199
63	0x3c3d60f0	0.011558756
64	0xbdd2fa7f	-0.103016846
65	0xbc362601	-0.011117459
66	0xbd8ecdb0	-0.069728255
67	0x3d14934b	0.036273282
68	0x3d876f8f	0.06613075
69	0xbd7c0932	-0.061532207
70	0xbd15bc8e	-0.036556773
71	0xbdce9a1a	-0.10087986
72	0x3d942239	0.0723309
73	0x3df52b92	0.11971201
74	0xbd70d4be	-0.058796637
75	0x3d888048	0.06665093
76	0x3d845895	0.06462208
77	0xbd050b96	-0.032481752
78	0xbcf0915d	-0.02936619
79	0xbd3b92b3	-0.0457942
80	0x3d966103	0.07342722
81	0xb9aab657	-0.0003256078
82	0xbdb0b6d6	-0.08628623
83	0xbddbe1c6	-0.10736422
84	0x3cf17588	0.029474989
85	0xbd0aab97	-0.033855047
86	0xbcc70eb4	-0.024299003
87	0xbcfde8b0	-0.030994743
88	0x3d9b904a	0.0759588
89	0x3dc42798	0.095778644
90	0x3d22a0fd	0.03970431
91	0x3c4ee2dd	0.012627331
92	0x3da5f866	0.08104019
93	0x3d5b9a9a	0.053614236
94	0x3cf32ad7	0.029683514
95	0xbd8dfaca	-0.069326
96	0x3d529aa9	0.051417027
97	0x3d1cee75	0.038313348
98	0xbd0b1e46	-0.033964418
99	0x3db78685	0.089612044
100	0xbc4e096d	-0.0125754895
101	0x3de4a3ff	0.11164092
102	0x3d309df8	0.0431194
103	0xbd0fb721	-0.035086755
104	0xbd1becd6	-0.03806766
105	0x3d2458d0	0.04012376
106	0xbdbe4326	-0.09290151
107	0xbc71a979	-0.014749878
108	0x3baba07d	0.0052376376
109	0xbd926674	-0.07148448
110	0x3d33141e	0.043720357
111	0x3ca28d39	0.01984273
112	0x3dc30983	0.095232986
113	0x3c9d9472	0.019235823
114	0x3b94b38e	0.004538006
115	0x3d8538c5	0.065049686
116	0xbda398c9	-0.07988126
117	0x3d406223	0.04696859
118	0x3b1ee4dc	0.0024245298
119	0xbc5e0989	-0.013552078
120	0xbd96758a	-0.073466375
121	0x3cadb891	0.021206172
122	0xbda3170f	-0.079633825
123	0x3c8d3836	0.017238718
124	0x3cbaa541	0.022783877
125	0x3d496933	0.04917259
126	0x3ccdcb43	0.025121337
127	0x3d09e745	0.03366782

hidden_layer_u1.4.weight f4 [128, 128]
0	0x3d9442ad	0.0723928
1	0x3d808bfa	0.062766984
2	0xbcbc957c	-0.023020498
3	0xbd3b95d9	-0.045797203
4	0x3b975366	0.004618096
5	0x3d955930	0.07292402
6	0x3c28d6ac	0.010305088
7	0x3de288fa	0.110612825
8	0x3c092871	0.008371458
9	0x3ce80255	0.028321424
10	0x3d0b2d5a	0.033978797
11	0xbca5a3bb	-0.020219674
12	0xbcccb7ad	-0.024989927
13	0xba7da8a2	-0.00096763123
14	0xbd193233	-0.03740139
15	0x3e2b49b0	0.16727328
16	0xbd7ca48d	-0.061680365
17	0x3d90c7fb	0.07069393
18	0x3d8ba40a	0.06818397
19	0x3d2fdffb	0.042938214
20	0x3cb1d26e	0.021706786
21	0x3d6e2c60	0.058147788
22	0x3d28d544	0.04121901
23	0xbd3c9ea8	-0.046049744
24	0x3d5b66ab	0.05356471
25	0xbd50a09c	-0.05093442
26	0x3d79b68a	0.0609651
27	0x3c3871f6	0.011257639
28	0xbdc8d825	-0.09806851
29	0xbc89784a	-0.016780991
30	0xbdf22adb	-0.1182458
31	0xbcf3360c	-0.029688857
32	0xbd08a89c	-0.033363923
33	0x3cf081e6	0.029358815
34	0xbd4b9432	-0.049701877
35	0x3c9bd09d	0.019020373
36	0xbbd52239	-0.006504324
37	0xbd446565	-0.04794826
38	0x3db8cc99	0.09023399
39	0xbae3e5de	-0.0017387231
40	0x3d30e8ab	0.04319064
41	0xbdadca17	-0.08485811
42	0xbdbe30d1	-0.09286655
43	0x3e23c2a1	0.15992214
44	0x3c3cf2ec	0.011532526
45	0x3ca80197	0.02050857
46	0x3c89b347	0.016809119
47	0x3ced7e6c	0.028990947
48	0x3d855a7f	0.065114014
49	0xbd811204	-0.06302264
50	0xbda644db	-0.08118602
51	0xbdd04764	-0.10169867
52	0xbdb41e84	-0.08794883
53	0x3cc504f6	0.024050217
54	0x3d06af40	0.032881975
55	0x3bd57894	0.006514618
56	0x3d9e9e0a	0.07744987
57	0x3ca0f2ca	0.01964702
58	0xbe05c6e1	-0.13064148
59	0xbd93f062	-0.07223584
60	0xbcff0e74	-0.031134821
61	0xbca53ab3	-0.020169592
62	0x3d894136	0.06701891
63	0x3d3c9214	0.04603775
64	0x3d4a5d5c	0.04940544
65	0x3ceb943e	0.02875721
66	0x3c511725	0.012761866
67	0x3d4a880a	0.049446143
68	0xbd0d9063	-0.034561526
69	0x3ca1f74c	0.01977124
70	0x3dcf2109	0.10113723
71	0xbd7383ca	-0.059451856
72	0x3d77cc42	0.06049753
73	0x3da41b9d	0.08013079
74	0xbe455afb	-0.19272988
75	0x3c980203	0.018555647
76	0x3cba6b2a	0.022756178
77	0xbc961a17	-0.018322987
78	0x3d68c097	0.056824293
79	0x3e10e409	0.14149489
80	0x3cb598e6	0.022167634
81	0x3e1ca7b9	0.15298356
82	0x3d94faba	0.07274385
83	0x3dce7398	0.100806415
84	0x3dd7ff89	0.10546786
85	0xba45d2a9	-0.00075463444
86	0xbc161626	-0.009160554
87	0x3c2dd4a7	0.010609782
88	0xbd581347	-0.05275276
89	0xbd23683b	-0.039894324
90	0x3d403820	0.046928525
91	0x3bf56c64	0.007489728
92	0xbca2708a	-0.019829053
93	0xbc953ba3	-0.018216914
94	0xbcdd992a	-0.027050573
95	0x3dcc3555	0.0997111
96	0xbdc04b25	-0.09389333
97	0x3dca2b9a	0.098715976
98	0xbd81fd8a	-0.06347187
99	0x393ea30f	0.00018180556
100	0xbd89a871	-0.06721581
101	0x3c4f4294	0.012650151
102	0xbb16f731	-0.002303552
103	0x3e4c8ad1	0.1997483
104	0x3d3b152c	0.045674488
105	0xbb416f12	-0.0029515666
106	0xbce58e24	-0.02802188
107	0xbd0b53ba	-0.034015395
108	0xbd32c059	-0.04364047
109	0xbc844e94	-0.01615075
110	0x3d376108	0.04477027
111	0x3d723c6f	0.059139665
112	0x39f1932f	0.00046076762
113	0x3d40ebd3	0.0470999
114	0xbdb564fb	-0.08857151
115	0x3de5d318	0.112219036
116	0xbcd68c9f	-0.0261901
117	0xbc436007	-0.01192475
118	0x3d0409c3	0.032235872
119	0xbe122076	-0.14270195
120	0xbe350792	-0.17678669
121	0x3db47325	0.088110246
122	0xbd069731	-0.03285903
123	0xbdb91239	-0.09036679
124	0xbdcb8fb0	-0.099395156
125	0x3c6ac3ed	0.014328939
126	0x3d8c53de	0.06851934
127	0xbd9b43c9	-0.07581288
128	0xbd7a53de	-0.06111514
129	0x3a003c05	0.0004891756
130	0xbdc71a90	-0.09721863
131	0xbb44a033	-0.0030002713
132	0xbc9d16f4	-0.019175984
133	0xbcfc2657	-0.03078
134	0x3d100fc6	0.035171293
135	0xbceab708	-0.02865173
136	0x3c41bd50	0.011824921
137	0x3d18bc71	0.037289087
138	0x3ba46b64	0.005017685
139	0xbcb54a7c	-0.022130243
140	0xbcb36cbc	-0.021902435
141	0xbe0f9453	-0.14021425
142	0x3bd00e81	0.0063493853
143	0xbdb707e5	-0.08937053
144	0xbda2bf97	-0.07946699
145	0xbca45b83	-0.020063167
146	0x3dc4af4f	0.0960375
147	0xbcd4a830	-0.025959104
148	0x3d8870bb	0.06662127
149	0x3deb795c	0.11497757
150	0x3d040091	0.032227103
151	0xbdd5cb43	-0.1043916
152	0xbc7fb90e	-0.015608085
153	0xbc15cd50	-0.009143189
154	0xbb3f3b94	-0.0029179798
155	0xbd656b05	-0.056010265
156	0xbd28254a	-0.041051187
157	0x3cadfba0	0.021238148
158	0xbb5ff0b4	-0.003417057
159	0x3cac0258	0.020997211
160	0xbc9585c1	-0.018252255
161	0x3d8da77b	0.0691671
162	0xbd7226bb	-0.059118968
163	0xbd357545	-0.04430129
164	0x3d126fb6	0.035751067
165	0x3c10192a	0.008795062
166	0xbd49cab8	-0.049265593
167	0x3d83fd4d	0.06444798
168	0xbcdfd0fc	-0.027321331
169	0xbcee1f7b	-0.029067745
170	0xbdaa58b1	-0.08317698
171	0x3dd62390	0.10456002
172	0xbd365050	-0.044510186
173	0x3c6be254	0.014397223
174	0x3da7ac77	0.08187192
175	0x3cfe4e86	0.031043302
176	0xbd758933	-0.059945296
177	0x3d29f8f4	0.041497186
178	0x3da93df7	0.08263772
179	0xbddb98c7	-0.10722499
180	0x3caf1540	0.021372437
181	0xbd6b83d8	-0.057498783
182	0xbd0cd7ee	-0.034385614
183	0x3dfbb2ec	0.12289986
184	0x3de7346c	0.112892956
185	0xbd5d6b24	-0.054057255
186	0x3db35037	0.08755534
187	0x3d14b33e	0.03630375
188	0xbd25d7b3	-0.04048891
189	0x3d065b74	0.03280206
190	0xbe03abf2	-0.1285856
191	0xbd42d2a8	-0.04756418
192	0x3dacb25e	0.08432458
193	0xbbfc44e7	-0.0076986435
194	0x3d984632	0.07435264
195	0x3e2f26ac	0.17104596
196	0x3de31f3c	0.11089942
197	0xbc32b4dc	-0.010907378
198	0x3d7509fe	0.059823982
199	0x3c8f580c	0.017498039
200	0x3da19790	0.078902364
201	0x3c3ac3b9	0.011399203
202	0xbd899952	-0.06718697
203	0xbdb73214	-0.089450985
204	0xbcf6f016	-0.030143779
205	0xbd9da689	-0.0769778
206	0xbd68bfcb	-0.056823533
207	0x3bb0ad81	0.005391777
208	0x3dc65979	0.09685034
209	0x3d71e88c	0.059059665
210	0x3c48215c	0.012214985
211	0x3d079061	0.033096675
212	0xbc4286e8	-0.0118729845
213	0x3d7112e0	0.05885589
214	0x3ced1066	0.028938483
215	0x3d98fec6	0.07470469
216	0x3c9b1dc7	0.018935097
217	0xbd1774a1	-0.03697646
218	0xbcb0be7c	-0.021575205
219	0xbd1b2eff	-0.037886616
220	0xbcd5cf2d	-0.026099766
221	0xbd80985a	-0.06279059
222	0xbd00475a	-0.031318046
223	0x3d896249	0.067081995
224	0x3a86d835	0.0010287823
225	0x3d9cbaeb	0.07652839
226	0xbcc31d5b	-0.023817709
227	0xbd0e19f6	-0.034692727
228	0x3d09531a	0.033526517
229	0xbe0e4430	-0.13893199
230	0x3dc97eb6	0.09838621
231	0xbdd73622	-0.10508372
232	0x3c806d8b	0.015677234
233	0xbdbcf479	-0.09226317
234	0x3c62d176	0.013843885
235	0xbca38ff7	-0.019966109
236	0x3de08ee5	0.10964755
237	0xbdac7020	-0.08419824
238	0xbda06f58	-0.07833737
239	0x3bf6268c	0.0075119194
240	0x3d538678	0.05164191
241	0xba407b1b	-0.0007342563
242	0xbd1f1b8d	-0.038844634
243	0x3c52c146	0.012863463
244	0xbdc3b5b2	-0.0955614
245	0x3dbb2712	0.091383114
246	0xbb607cd0	-0.0034254082
247	0x3df30d26	0.11867742
248	0xbc1bc546	-0.009507483
249	0xbba9e373	-0.0051845848
250	0x3da767a2	0.08174063
251	0x3cc9f23a	0.024651635
252	0xbd85438f	-0.065070264
253	0x3d6ccea8	0.05781427
254	0xbd48c0e7	-0.04901209
255	0xbbc54bc4	-0.006020995
