demo/Energy_adaptive_m_2/8_7_18h_Training_5.pt (torch, 338133 bytes, 13 tensors)

hidden_layer_u1.0.weight f4 [128, 2]
00000000: 1da3 c9be 061a 393d fb54 413c b0e5 d5bb
00000010: 3b62 adbe 99df c7bd 2dce c0be 1980 54be
00000020: bbcd a7be a336 57be 7e25 383e 968a dcbe
00000030: da4b 803e 8843 2f3d afee d13e 9e33 3f3e
00000040: a26d 8c3e 6499 933e c5fa 96be 9b14 833e
00000050: 83f5 ab3e 93f1 833e b1bc 71be 1e5c 4abe
00000060: 3f8c 4b3e ce36 8d3e b310 c7be cd31 3dbd
00000070: 6a8a 50be 5309 4fbe 10ec 053e c49b 423e
00000080: 0880 d43e 08b8 723e d81f a9bc 1c9a a63e
00000090: 18b6 edbd 0ee4 c43e 6668 3fbb 349a 99be
000000a0: 7d48 06bd 13ff 60bc e364 c4be d9ba a6be
000000b0: 3827 1c3e 296b ffbe 7ac3 48be 1d49 24bf
000000c0: 454e 593e 5995 cebe ea7a a73e ee98 ccbc
000000d0: 53a0 56be 4ebd 433e 74b9 82be 0606 783e
000000e0: d022 b0bc 9ddb 1c3e b248 c5bb 1d20 3eba
000000f0: 1a81 79bd 13a6 c03e 9b45 703e 0aed fd3e
00000100: c5f2 b2be e021 acbe c4ed c4be 79d5 cc3d
00000110: 6dc8 ac3e 3636 953d b440 d5be 3f15 b03e
00000120: 1297 203d 6072 20bf 151f 053e 5966 863e
00000130: 6964 c23e 205d 72be 4a7d 813d ee87 d33e
00000140: a426 8dbe d5cd b9bd a320 cdbd 0ba5 febe
00000150: 6c89 263e 5180 0cbc 0789 963d dc87 aa3e
00000160: 272d 71be 866e c3be 498d 4f3e 66b6 a4bd
00000170: ed1e c43e 1db8 a83e c6cf c73e 2664 523e
00000180: c2f6 84be a5df b73e ff72 90bb 6088 48ba
00000190: 20cf 7cbe 19e9 93bc 0ee5 5f3e 13a6 893e
000001a0: 0f64 adbe 4725 86be b402 6ebe 2a00 ecbe
000001b0: 1615 70be 966e 03be 33d7 7abe 9669 813a
000001c0: 1939 79bd d6ba d5be 11bb be3d 3e17 7bbe
000001d0: 07f7 82be 9905 fe3d d24e ed3c 3fdb 5bbe
000001e0: b5ab 1e3e e3ff bf3e bb66 ed3e b56e 143e
000001f0: bf9d 983e 25b2 ecbe 2911 a53e 5ae6 8b3d
00000200: 7293 a33e 599e 67bd b741 48b9 67e6 7bb9
00000210: bf68 afbe 36e1 123e 2453 813e 3615 0d3e
00000220: 5a4c 70bc 9ff0 0f3f 8ad4 aa3e d8cd e1be
00000230: d8f7 b1bd fde5 84be b75e 0739 57e1 e43b
00000240: 731b 86be 05eb 583e fb8a a13e 0f6f 0fbe
00000250: 49fe 68be 20cd e5be 25c7 a63e 07fe e83d
00000260: 432e f4bc e577 d63d e449 cc3b 9e41 033e
00000270: c121 94be 49ae 8b3d 6812 c03e b6d1 ad3e
00000280: 47ce 99be b9f7 d5bd ee5a 65be d17d 1a3e
00000290: aa4e 9a3e 85bf 603e c20a 9d3e 1016 cebd
000002a0: 0018 7d3e 6888 9e3e 52b7 cebe 3ca8 c83e
000002b0: 79db cbbd d6b1 55be d751 883e 5e05 3c3e
000002c0: 893a adbe e6c9 7f3e 1087 553e 31b6 bb3d
000002d0: e17c 0dbe 6263 163f 0f58 c3bd 880b c23e
000002e0: 65fb e63e a02c a2bd bd22 983e a89e a2be
000002f0: 4d77 913e 30fb b2be 4a29 f63d fa89 56bc
00000300: 52ab 993e 91c0 ee3d d6f0 d53e ce9c b33e
00000310: acee ed3d 88d7 24bf dfed 403e f76f 803d
00000320: 63bd 98be 8f56 b7be 2a4a 63be bbe2 113e
00000330: c1f1 abbe 925f 1abe 49c9 c13e b8ac a5be
00000340: 7940 73bd 639c ac3e b145 58be 452a 8e3d
00000350: b927 833e f4ed ccbd 5783 133c 1f7f 07b9
00000360: c918 55be 82a7 203e b66c a1be bb70 94bd
00000370: 1674 a8be 3c2e 06be 8c1d 933e a90d 58be
00000380: 7443 a7be 89f7 d23e 37f8 863e 22c9 41be
00000390: 11f3 873e de5b acbe 6ca4 0cbe 0a9b 043f
000003a0: ca0b 1ebe dfb8 0cbf 7ad8 d23e 03c2 31be
000003b0: 4f86 9c3c 85ef fd3d a8ec d63c de41 42bd
000003c0: f5aa b5be ee50 013d e2a3 b6be 162a 37be
000003d0: 60f8 b03e fd62 d73b df62 e23d d433 913d
000003e0: 57ee 94be 5c1a c1be e3ab 2e3e 1c68 223e
000003f0: 34a3 993e af30 00bd 7c35 b33e 43d3 8ebe
-0.39382258 0.045190834 0.011800046 -0.006527625 -0.33864006 -0.09759445 -0.376573 -0.2075199
-0.32774147 -0.21016936 0.17983052 -0.43074483 0.2505787 0.042789012 0.41002414 0.18672034
0.27427393 0.28827965 -0.29488197 0.25601658 0.33585748 0.25770244 -0.23607136 -0.19761702
0.19877718 0.27580875 -0.38879928 -0.04619007 -0.20365301 -0.202184 0.13078332 0.19004732
0.4150393 0.23703015 -0.020645067 0.3253945 -0.11606997 0.38455242 -0.0029206513 -0.3000046
-0.032783974 -0.013732689 -0.3835822 -0.32564428 0.15249336 -0.49886444 -0.19605818 -0.6417406
0.21221264 -0.40348318 0.32710963 -0.024975266 -0.20959596 0.19115183 -0.25532115 0.24221048
-0.021500975 0.15318151 -0.006020629 -0.000725271 -0.060914136 0.37626705 0.23464052 0.4959491
-0.34950843 -0.33619595 -0.3846265 0.10001654 0.33746663 0.072857305 -0.41650927 0.3439121
0.039206572 -0.6267452 0.13000138 0.2624996 0.37967232 -0.23668337 0.06322725 0.41314644
-0.27568543 -0.090724625 -0.100159906 -0.49735293 0.1626336 -0.008575515 0.07350355 0.33306777
-0.2355238 -0.3817026 0.2026874 -0.08042602 0.38304844 0.32952967 0.39025706 0.20546016
-0.2596951 0.35912815 -0.00440824 -0.0007649716 -0.24688387 -0.018055486 0.21864721 0.26884517
-0.338654 -0.26200315 -0.23243219 -0.46093875 -0.23445544 -0.12835154 -0.24496154 0.0009873386
-0.06084547 -0.41744107 0.09313024 -0.24520585 -0.25579092 0.124034114 0.028968249 -0.21470354
0.15495189 0.37499914 0.4636744 0.14495356 0.2980785 -0.46229663 0.32239655 0.068310454
0.3194843 -0.056547496 -0.00019097967 -0.00024023057 -0.34259602 0.14343724 0.25258744 0.13777623
-0.014666641 0.56226534 0.3336528 -0.4410236 -0.086898506 -0.25956717 0.00012909887 0.0069848704
-0.26192817 0.21183403 0.31551346 -0.14007209 -0.22753252 -0.4488306 0.3257381 0.11376577
-0.029807216 0.10472087 0.0062343944 0.12818 -0.28932002 0.06820352 0.37514043 0.3394906
-0.3004019 -0.1044764 -0.22397968 0.15087058 0.3013814 0.21948059 0.3067227 -0.10062802
0.24716187 0.30963445 -0.40374237 0.39190853 -0.099539705 -0.2086862 0.2662494 0.18361422
-0.3383372 0.24979362 0.20852304 0.0916561 -0.13817169 0.58745396 -0.0953828 0.37899423
0.45113674 -0.07918668 0.29714003 -0.3176167 0.28411332 -0.34957266 0.12019594 -0.01309442
0.3001352 0.11657823 0.41785306 0.3508057 0.11617789 -0.64391375 0.1884074 0.062713556
-0.2983199 -0.35808226 -0.2219626 0.14246647 -0.3358288 -0.1507552 0.3784888 -0.32358336
-0.059387658 0.33713064 -0.21120335 0.06941656 0.25616243 -0.100063235 0.009003482 -0.0001292196
-0.20810236 0.15688899 -0.31528252 -0.07248064 -0.32901067 -0.13103575 0.2873348 -0.21098961
-0.3266865 0.4120448 0.26361248 -0.18924382 0.26552632 -0.3366384 -0.13734597 0.5179907
-0.15434185 -0.5496959 0.41180784 -0.17359166 0.019107012 0.123992 0.026235893 -0.047426097
-0.35481992 0.03157132 -0.35671908 -0.17887148 0.34564495 0.0065730796 0.110540144 0.070899636
-0.2908809 -0.37715423 0.17057757 0.15860027 0.30007327 -0.03129643 0.35001743 -0.27895555

hidden_layer_u1.0.bias f4 [128]
00000000: 0bfa b4be def9 a7bb 0f36 a33e 8c63 9d3e
00000010: dea6 be3e 245b a83e dca8 7d3e ce40 a7be
00000020: bd3c a8be 9176 9fbe 78a2 abbd 50d7 18be
00000030: 1e69 45be 197b c83e ba17 3cbe 8638 83bd
00000040: 267c dabe 922b 4ebd 55a5 5bbe 8148 a63d
00000050: 0c9e b4be 924f 9ebe 4886 de3b 04d7 4abe
00000060: dfed 2d3e 7537 6cbc bf9b b6be b5be 93be
00000070: 0cd8 2ebd 6b31 b3bb 2f50 5e3e ec6d 64be
00000080: 6340 853e bec4 94be 0b99 b43e 59e2 eb3e
00000090: b8a5 213e 9fb6 853d 6c64 8c3e 4249 623e
000000a0: c618 133e ccaa 67bd be39 76bd 54a4 35be
000000b0: 3d42 dcbd 41d3 4bbe e34d b9be 192b cb3e
000000c0: 1bf3 1b3e c339 11bb 31ef 8a3d 39ca 5ebe
000000d0: ca3a 0f3f 13cc 943e caab 8e3e 24f1 3e3e
000000e0: 3788 843d 81a4 7ab8 192a 66be b556 9f3d
000000f0: cbaa 4f3e acaa fabe f3fd 34be e7bb 76be
00000100: eca4 42be 08ed 5f39 9bb3 53be f2c9 21be
00000110: f028 4d3e d9d8 e4bd 4e54 b4be 60aa 8d3b
00000120: 325e 443e 8d32 a43e 786a 07bf 4c94 fdbc
00000130: 9dfa 51bd 1f44 02bd 5913 90be 76da 163f
00000140: 0c2e 553e 2640 86be e2a1 43be 5709 08bd
00000150: 10d2 d93d 27e2 db3e eb14 b2bd f356 833d
00000160: 20f1 7b3e feb6 2abe 6686 0e3d 5626 88bd
00000170: 288c 08bf 7bb5 3abe c00d b83e 762c a23d
00000180: 31bc 93be 63f9 023f 42aa 8c3e f9fe a33e
00000190: a664 733e 19c8 32be f14d e03e 9531 dbbe
000001a0: de6e febd 710c 083e 3daa 0abe 3d4e a938
000001b0: 233b 09be 1e23 94be e680 0b3e ac8f d7be
000001c0: e2c9 5c3e 5ecd 4dbe 32a7 8a3e eb77 6dbd
000001d0: 38f1 c7bd 128f d93e 8784 2cbd 86e9 66be
000001e0: f50e a43e 547c 9c3e fc5d e53a c2fd e6bd
000001f0: 6cb7 8a3d 2a2d 0cbf 7840 9a3e cc4e 0f3e
-0.35347018 -0.005126222 0.3187718 0.3074001 0.37236685 0.32882035 0.24771446 -0.3266663
-0.3285884 -0.31145146 -0.08380598 -0.14925885 -0.1927838 0.39156416 -0.18368426 -0.06407265
-0.42672843 -0.05033452 -0.21449788 0.08119298 -0.3527683 -0.30920082 0.00679091 -0.19808584
0.16985272 -0.014417519 -0.356657 -0.28856435 -0.042686507 -0.0054685376 0.21710275 -0.22307557
0.26025686 -0.29056352 0.35273013 0.46071127 0.15785873 0.06528973 0.27420366 0.22098258
0.14364919 -0.05655937 -0.06011366 -0.17738467 -0.107548214 -0.19904806 -0.36192235 0.39681318
0.15229456 -0.0022159673 0.067839034 -0.2175683 0.5594908 0.29061946 0.2786544 0.18646675
0.064712934 -5.975785e-05 -0.22476996 0.0778021 0.20279996 -0.48958337 -0.17674999 -0.24095117
-0.19008225 0.00021355238 -0.20673983 -0.15799692 0.20035148 -0.11174173 -0.3522057 0.004323289
0.19176558 0.32069817 -0.52896833 -0.030954503 -0.051264394 -0.031803247 -0.2813976 0.58927095
0.20818347 -0.26220816 -0.19104722 -0.033212032 0.10635769 0.42945978 -0.08695396 0.064130686
0.246037 -0.16671368 0.03479614 -0.06647937 -0.5333886 -0.18233292 0.3594799 0.079186365
-0.28854516 0.51161784 0.27473646 0.32030466 0.23768863 -0.17459144 0.43809465 -0.42811266
-0.1242349 0.13285996 -0.13541503 8.073121e-05 -0.13401465 -0.28933042 0.1362339 -0.421018
0.21561387 -0.20097873 0.27080685 -0.05797569 -0.09762806 0.42491966 -0.042118575 -0.2255002
0.3204266 0.30563605 0.0017499323 -0.11278869 0.06773266 -0.54756415 0.3012731 0.13994902

hidden_layer_u1.1.weight f4 [128, 128]
00000000: a686 0bbe b8e0 07be 587e 12bd 1595 873d
00000010: 8a81 0b3d a317 543d 3815 56bd 1232 e73d
00000020: 84a3 823d 09b6 623d 6d3d 50be bd23 0b3d
00000030: beb6 b63b 272d 833d 240e 093e 4f15 373c
00000040: b3a6 983d 7514 98bc c3fa bfbd 7517 c23d
00000050: 8be5 3cbd b9e6 bfbd 01e1 133c 606d a83d
00000060: 4bb2 9fbd b6a7 ea3d 8907 82bc 68a9 ecbd
00000070: 3cb9 143c 3313 363e bd5f bebd c58f 4c3d
00000080: 7ccd 2c3d 79ee c03d 45af ecbd 2fc1 06be
00000090: 7abe e7bd 554f a4bd aa0d 96bb 30bc 2b3d
000000a0: a6a7 19bd f658 d03c 2b61 a4bc 7735 e93d
000000b0: 1ebf 163e f5a1 afbd 1950 7a3d 272f a33c
000000c0: 5253 b23c 3eb2 4d3e 987d 55bd 6f1a cb3d
000000d0: 9de6 243e 6edc 143e c9b4 8dbd c3bf 0fbe
000000e0: 06ed 8c3d 1ba7 29be 8541 f63d b463 29bc
000000f0: def3 1abe 9a06 883b cfad 04be 71c8 e83d
00000100: 7043 c6bd ca95 143c a84a b6bc ede8 1dbe
00000110: cf99 78bd e41a 113d 53e4 b9bd 987f 2ebd
00000120: 45b6 cd3d 847c a43d 9978 87bd 6d80 c1bd
00000130: 87ef 8f3d 6058 09be 1b64 25bd b5dc cfbd
00000140: 6cd1 0ebd e05b 86bc 4310 1fbc a5a2 d73d
00000150: fba9 a0bd c007 1cbe b10b 103d 5a71 d33d
00000160: d724 40bd 5ba1 26be 4895 e43d d068 dabd
00000170: be9e b2bd af31 973c 63af e6bc 47fd 363d
00000180: d596 a43d c9f0 c13d cd16 803d 7ce4 d9bd
00000190: 1809 55bd a7d5 873d 2745 e73d ee85 973d
000001a0: b07f 4dbd 4bf6 273e 8ca3 8f3d 93fd e3bd
000001b0: 9762 0d3e c210 acbd 3d57 de3c dc98 7bbd
000001c0: 8146 f63d 5511 79bd 9c9b 843d 9797 203e
000001d0: 466a 11be 9b5b 36bd 6214 30bc 5709 ff3d
000001e0: 0bc2 ecbc 6776 253c f92e 513d 1e07 bb3d
000001f0: ce6a e4bd 329e e63c a6c5 d73d f7a4 a73c
00000200: 744c 8d3d a77b 843d 0366 33be d8b5 a7be
00000210: fc11 f3bd 17ec 7ebd 21e7 53bd ae24 493e
00000220: 9484 0e3d 90fc 233e da21 653e ccfe e33d
00000230: 0cf5 e83c 5a8b bfbd b4c7 13bd 9347 d83d
00000240: 04c5 7e3e 240d 3a3d c382 8e3d 4a50 b33d
00000250: 3568 0d3e aa8b b1bd a92a 703d 77dd 3f3e
00000260: 5591 c5bc ece5 223e 26c8 bcbd 99db 10bd
00000270: 3967 cf3d 5b08 843d 5666 53bd 5b66 803d
00000280: 53c9 9ebd d900 0fbe 067f b23d 194e 13be
00000290: 4808 963c 81e6 40be 8b70 563d 3fa0 dd3c
000002a0: c43e c2be 8824 b8bb 6611 ae3e d6da 28bd
000002b0: f921 9c3d edb4 473e 1e3f b43d 17a7 d73d
000002c0: 03dc 58be c43e 01be 1e22 60be 7ab1 5b3e
000002d0: 0881 54be 26f3 88bd f827 e43c 2d3e 30be
000002e0: 308b 4a3d 3295 073e 0436 6e3d 66f4 1abb
000002f0: 8fee babd 0f4d 103d 6389 803e dbba 813e
00000300: e297 ab3e 0729 cb3d 5d7c 3dbd 5dc9 873e
00000310: d067 2bbe 4a20 bf3e fe2e c13d b44d 0d3e
00000320: 0a6d abbe bb44 af3d f44e 813d 0919 823e
00000330: 378e 113e 0947 48bb 80a1 2b3e 08d2 53bd
00000340: d82d 82be 2eff 423e 938c aa3e 3d2e 313e
00000350: 2e61 ad3d 44af a3be 6057 5a3e d200 56bc
00000360: de23 62be 7b29 b13c 90e3 15bd 4f92 ce3a
00000370: 2a49 143e 4065 933e d499 e5bd c488 b33d
00000380: 4cfe 873d da09 d4bc 90a2 54bd 2805 9c3c
00000390: 308d a6bc d4de 0e3d 3789 5bbe ceb1 ca3d
000003a0: 2dd4 8b3d 67c5 1ebe a1a6 a03e ebea c93d
000003b0: 905e 0ebe 211b bfbd 760f c7be 68b3 82bc
000003c0: 60a6 c2be 5a5b 2b3e 3fb5 00be 3719 803d
000003d0: 342f 57bd f22a aa3d 42cd 983d 5086 e53d
000003e0: 633a b6be 9dfe fdbd df49 debc 5c5c 933d
000003f0: 4de2 4dbd f726 8f3c 51d2 23be 7fec 0b3e
-0.13625583 -0.13269317 -0.035765022 0.06620232 0.034059085 0.051780354 -0.05226633 0.11288847
0.063788444 0.055349384 -0.20335932 0.03396963 0.005575984 0.064050965 0.133843 0.011174514
0.0745367 -0.018564442 -0.09374001 0.0947713 -0.046117347 -0.09370179 0.009025813 0.082239866
-0.077976786 0.114577696 -0.015872734 -0.11555749 0.009077366 0.17780761 -0.092956044 0.049941797
0.042188153 0.09420485 -0.115568675 -0.13159631 -0.113156274 -0.08022944 -0.0045792656 0.041927516
-0.037513398 0.025433045 -0.020065865 0.11387151 0.14721343 -0.08575813 0.061111543 0.019919945
0.021768246 0.20087525 -0.05212173 0.09917151 0.16103597 0.14537212 -0.06919248 -0.14037995
0.06881146 -0.16567652 0.120242156 -0.0103387125 -0.1513209 0.0041511776 -0.12956928 0.11366356
-0.096808314 0.009068916 -0.022252396 -0.15420885 -0.06069356 0.035426036 -0.090767525 -0.04260215
0.10044531 0.08031562 -0.06614799 -0.094483234 0.07028108 -0.13412619 -0.04037867 -0.101495184
-0.03486769 -0.016401231 -0.009708467 0.10529069 -0.07844921 -0.15237331 0.0351674 0.103243545
-0.046910133 -0.1627249 0.11161286 -0.10664523 -0.08721684 0.018456308 -0.028159803 0.044675138
0.080365814 0.09469754 0.06254349 -0.10639283 -0.052010626 0.06632548 0.11292487 0.07398592
-0.0501706 0.16402547 0.07013616 -0.1113235 0.1380714 -0.08401634 0.027141208 -0.061425075
0.12025166 -0.060807545 0.06474993 0.15682827 -0.14200696 -0.044520956 -0.010747047 0.12452953
-0.02890112 0.01009903 0.051070187 0.09132217 -0.11153184 0.028151605 0.10535745 0.020464404
0.06899348 0.06468897 -0.17519383 -0.32755923 -0.118686646 -0.06223687 -0.051734094 0.19642898
0.034794405 0.16014314 0.22376195 0.11132583 0.02843716 -0.09352751 -0.036079124 0.10560527
0.24879843 0.045422688 0.069585346 0.08755548 0.13809283 -0.08669217 0.058634434 0.18736826
-0.024117151 0.1590802 -0.09217863 -0.035365675 0.1012711 0.06446906 -0.051611267 0.06269523
-0.07753243 -0.13965167 0.08715634 -0.1438526 0.018314496 -0.1883793 0.052353423 0.02705395
-0.3793851 -0.0056195892 0.3399765 -0.041224323 0.07623667 0.19502611 0.08801101 0.10529917
-0.21177678 -0.126216 -0.21888015 0.2145442 -0.20752347 -0.06687002 0.02785109 -0.17211218
0.049449146 0.13240507 0.058156982 -0.0023644208 -0.09127533 0.03522974 0.25104818 0.25337872
0.33514315 0.09919935 -0.04626118 0.26520815 -0.1673882 0.37329322 0.09432791 0.13799173
-0.33481628 0.08558031 0.06313887 0.25409725 0.14214407 -0.0030559918 0.16760826 -0.051713973
-0.254256 0.19042656 0.33310375 0.17302795 0.08465801 -0.31969655 0.21322393 -0.013061719
-0.22083995 0.021626225 -0.036593974 0.0015760156 0.14481035 0.28788185 -0.11210981 0.0876632
0.066403 -0.025883604 -0.051912844 0.019045427 -0.020330995 0.034880474 -0.21439062 0.09897195
0.06827579 -0.1550499 0.31377128 0.0985926 -0.1390326 -0.09331346 -0.38878983 -0.015954688
-0.3801756 0.16734067 -0.1256914 0.06254809 -0.05253525 0.083089724 0.07461025 0.11207259
-0.3559142 -0.12402079 -0.027134834 0.071953505 -0.050264645 0.017474635 -0.15998198 0.13664435

hidden_layer_u1.1.bias f4 [128]
00000000: a969 3e3d 297e 00be 2820 7c3d 59b5 13bd
00000010: c6e7 77bc c2dc a0bd dcb0 a33d a6e5 13bd
00000020: 580c 243c 9fe2 e8bd 70d6 4dbd 9f66 403d
00000030: b0ae 08be 398f 353d e66a 023d 80ff 813c
00000040: 1fbe 4e3d 7afd c03c abbe 053d 8b38 2bbd
00000050: 37fe 61bd 68e1 32bd a39c eabc addf 293c
00000060: a99d 97bc 9bac 28bd a294 683d b393 bebd
00000070: fcc2 f43d eee2 9ebd 25f5 be3d 4b97 f4bd
00000080: 30b0 853d 7254 863d 01ab 8f3d 8b29 ac3d
00000090: 322c 11be 1d24 933c abdb 1f3d fb66 c83c
000000a0: f578 783d 22d5 703c 36e4 c13c 56d4 7dbd
000000b0: 2987 c33c 0879 71bd 0aae 5f3d 293c 8d3d
000000c0: a58a 47bd 8790 eabc 38ce f63d 1535 063e
000000d0: 68d1 aa3d c653 543c d413 a0bc 669e e1bc
000000e0: 55a3 193e cc3d 95bd d201 2c3d 2d64 c4bd
000000f0: 4a82 a6bc 587c 293c 1e3e 6dbd 1322 dbbc
00000100: 480d 90bd 1b0c b53c 3045 85bc dc34 acbd
00000110: 2d83 4cbd 0a84 143e 2dde f4b8 9fbe 8fbd
00000120: 18f2 fb3d 5c46 0e3c 22aa 023e 62f4 1cbd
00000130: 7a2e 51bb e6fd 80bd 95c3 ecbd 04ea b9bb
00000140: 1c06 b53d f425 75bd ca18 4b3d 10f9 353d
00000150: 3df8 27bc 771d 26bc a90d 993c 012b 1fbd
00000160: c731 0c3e daed 533d 7568 7cbc 5117 eebb
00000170: e02e 48b9 f220 3dbd 73de 3cbe c0da af3d
00000180: 346a 353d 26ca 0e3d a31c 173d b9b8 37bd
00000190: ef65 26bd 558a 8a3d b866 33bc e600 673d
000001a0: 7672 b0bb b60c f83b fc5d fb3c e7d9 a23d
000001b0: ae91 793d 3e59 c73d 7fc3 433d dd0b 993d
000001c0: b58f 38bd a3a3 2b3d 48fe cd3c f56b 5b3d
000001d0: 82cf 93bd ff89 673d c180 26bd 7a67 e83c
000001e0: baf9 a3bd 185f a53d d94a 11bd 3157 793d
000001f0: 27f4 613d 897b a63d c7f1 a63d 5bf4 e83c
0.046487484 -0.12548126 0.061554104 -0.03606162 -0.015130943 -0.07854606 0.079927176 -0.03610768
0.010012709 -0.113713495 -0.05025333 0.046972867 -0.13347888 0.04432604 0.031840228 0.015868902
0.050474282 0.023558367 0.03265254 -0.04180197 -0.05517408 -0.043671995 -0.028639143 0.01036827
-0.018507795 -0.041180234 0.056782372 -0.09305515 0.11951253 -0.07758127 0.09324101 -0.11942919
0.06527746 0.065590754 0.07015038 0.08406361 -0.14177015 0.017961556 0.03902785 0.024463167
0.06066223 0.014699252 0.02366839 -0.061970077 0.02386816 -0.058953315 0.054609336 0.0689624
-0.048716206 -0.02863337 0.12051052 0.13106187 0.08340722 0.012959426 -0.019540705 -0.02754135
0.15003712 -0.072871774 0.041993923 -0.095894195 -0.020325799 0.010344587 -0.057920568 -0.026749646
-0.07033783 0.022100499 -0.016268343 -0.084085196 -0.049929786 0.14503494 -0.0001167621 -0.0701878
0.12302035 0.008683767 0.12760213 -0.038319 -0.0031918571 -0.06298427 -0.11560742 -0.005673649
0.08839056 -0.059850648 0.049584188 0.044426978 -0.010252056 -0.010138861 0.018683271 -0.03885937
0.13690864 0.051740505 -0.015405764 -0.007265963 -0.00019090949 -0.046173997 -0.18444233 0.08586645
0.044290736 0.034860753 0.036892544 -0.0448539 -0.040624555 0.06764666 -0.010949783 0.05639734
-0.0053847386 0.0075698746 0.030684464 0.07951718 0.060929947 0.097338185 0.04779386 0.07472966
-0.045058925 0.041904103 0.025145665 0.053569753 -0.07217313 0.056528088 -0.040650133 0.028369654
-0.08006616 0.08074778 -0.03547177 0.060874168 0.055164482 0.08129031 0.08151584 0.02843683

hidden_layer_u1.2.weight f4 [128, 128]
00000000: 2bdd 01bc 490b 47bd cb38 833b 8996 563c
00000010: 3fb0 023d 1619 443d c96a 9cbc 1d91 45be
00000020: a0b2 17bf d67a bc3b edac da3b 21d5 b4bb
00000030: 045c 4d3e 39a5 0a3e 5e36 91bd c244 123c
00000040: 13be 74bb eea4 60bb 0f90 043d d9f5 4dbb
00000050: be37 b53c bfb8 843c 925f 173d a8ab 52bd
00000060: 4f09 093e d09b 073c 4015 cf3c c4fd fc3d
00000070: 92d5 85bd 7488 35bc 03f4 96bc 7003 9fbd
00000080: b7f6 a0bd 0fe9 b33d 49b0 38bf 68c2 a03c
00000090: f8c6 77bd 7552 57be dc9a ce3a 4609 1dbc
000000a0: 34a2 403c 68dd 90bd bc99 cf3b 39bd 1fbc
000000b0: fd1e ab3b 444c c4bd e3ed e9bc 94ca 743c
000000c0: a47f f53b aace c53b eb8c 9ebd 273a 3bbd
000000d0: d39e 083e 9793 4a3e a5b0 e1be 0092 eebc
000000e0: d699 c1bd 7446 3d3c 82d5 9cbd 991e 0fbe
000000f0: b8f9 e73d 8794 b83e 040f 86be 4d9e 693c
00000100: 23ff d0bb bd24 ac3c a913 dbbd 2102 7fbe
00000110: c15a ee3b 7bb7 83bd 0c58 b03d 06ec e93e
00000120: 81bd a23e 72ba 6d3d 6829 6b3d 81cd e73c
00000130: 2eed 84bd 9221 b5bd a5ab 3c3c 471f e33b
00000140: 8430 ffbc d4d0 46be 829d d5bb a771 8f3c
00000150: 2ffc 25bc caf5 ba3b 1175 cfbd 113d 26bc
00000160: 2623 44be 2f27 bb3c bb62 693d 6641 023d
00000170: 98d8 8abb c2c3 4dbb 2822 66be 5b00 12be
00000180: 79ef b6bd aa21 8cbc fe3b c7bb 1dfa 3d3e
00000190: a44c ab3b 2b8e 55be 036f f83d 5a5f a8bc
000001a0: 9a83 66bc 97da a03d 4541 783c e97c f03d
000001b0: e807 31bc a81f 9b3d 8fe1 5bbc c699 633b
000001c0: 70d9 82ba e3c1 6b38 0f87 07bb b775 ffbb
000001d0: ae1d 8b3d 326c 1bbc 7787 433b 16b6 603c
000001e0: f8b3 b7bb 5ad6 a83d cf16 0b3e 15f3 b23d
000001f0: 5cc7 0d3c 3ba5 80bd 6bce 1c3c efc0 b0bd
00000200: 05e2 983d 4d54 63be 0f01 2e3d f20f c23c
00000210: 1def 98bd e682 503c cfa1 48bd f7ea b9be
00000220: 71ee ea3d eeb9 b1bd 58b7 cbbc 0139 a5bc
00000230: 3d27 bdbd 2cf1 c8bd bca1 603d 6a3a 6c3e
00000240: d82b b7bc 523f afb9 60b4 8c3e 1fd5 22bd
00000250: 132c 01be cf66 873d 234a f7bd 238f 1cbe
00000260: d0ec debe 87a6 213c 9ae6 313e 1714 31be
00000270: 6413 28bc eb6f 81bd b064 823d 98a9 03bd
00000280: 43e4 b23e 6060 98bd f0d1 963e e5bb 42bd
00000290: 5aac 37bd 1043 c13d 7e00 2e3b 789d 30be
000002a0: 815d 8dbd 0619 9c3d a94d 70bd 4c02 b83d
000002b0: 4c7a 62bd d26f 96be 5956 113d 4235 79bd
000002c0: fd9f 0cbd ebca 05be 2e96 a5bd 23b4 dc3d
000002d0: a3a9 8e3d df9a 5abd 7b07 9b3c fe1c ebbb
000002e0: 9fec 5e3e de1b 1d3d 6395 3f3e e295 f1bd
000002f0: 87b0 6ebe 42b9 10bd 1541 113c 6a94 2e3d
00000300: 5c3a 143c 3cf4 133c 886c e93d 9048 50bd
00000310: beb2 fa3d 8238 6b3e 1a5b 6d3e 950a 29bd
00000320: 76a6 40be 53b7 8e3e 9f2d 023b 9363 8c3d
00000330: bb61 8f3d 26c4 18be 152f 58be 96d0 efba
00000340: 4b70 113d 8810 a53d 8c76 463c d418 48be
00000350: 3b07 f2bc 8514 e73c ac7b 9d3e 89f5 b93d
00000360: 4903 a43d 4cf4 a9bd 50dc a2bc c455 ab3d
00000370: 1d24 e4bd ef7e 8c3d 3346 373e 991d 8f3e
00000380: 425d 5b3e c716 94be 1b8e 113d 2011 1ebe
00000390: e935 003e 5b0d 0c3f 4a01 813e d402 3fbd
000003a0: 17ad d9bc 0342 0dbe 6baf 38bc 8c20 213e
000003b0: 2cb3 edbd 3b81 3d3e b02f 7b3d d943 c1bb
000003c0: dd6a 783c eb72 ca3c 9301 3d3d 3561 713c
000003d0: 074f 45bd 8953 adbb f5c3 de3d c722 cfbd
000003e0: 621d 393d cb48 0a3e d18b 74be 729d 93bd
000003f0: 9b71 08bd 80d8 eb3c 85b6 8b3d bc31 943e
-0.007926266 -0.048594747 0.004004573 0.013097414 0.031906363 0.047875486 -0.019093888 -0.19293638
-0.59256935 0.005751948 0.0066734464 -0.005518571 0.20054632 0.1353959 -0.07090448 0.008927526
-0.0037344738 -0.0034277993 0.032363947 -0.0031427054 0.022121307 0.016201375 0.036956377 -0.051433235
0.13382457 0.008276895 0.025278687 0.123530895 -0.06534876 -0.011079896 -0.0184269 -0.077643275
-0.07859557 0.08784687 -0.7214399 0.01962395 -0.060492486 -0.21027549 0.0015762704 -0.0095847305
0.011757422 -0.0707348 0.0063354652 -0.009749704 0.0052222 -0.09584859 -0.028555816 0.0149408765
0.0074920226 0.006036599 -0.07741722 -0.045709755 0.13341837 0.19782864 -0.44080082 -0.029122353
-0.0945317 0.011552442 -0.07657911 -0.13976516 0.11326927 0.36050817 -0.2618333 0.014258933
-0.006378071 0.021013612 -0.10697109 -0.24903156 0.0072740023 -0.064314805 0.086105436 0.45687884
0.31785205 0.058039136 0.057412535 0.028296234 -0.06490551 -0.08844294 0.011515533 0.006931219
-0.031151064 -0.19415599 -0.0065190205 0.017510248 -0.010130926 0.00570557 -0.101297505 -0.010146395
-0.19154033 0.022845833 0.056978922 0.03180065 -0.004237246 -0.0031397198 -0.22473967 -0.14257948
-0.089323945 -0.017105896 -0.0060801497 0.18552442 0.005227642 -0.20855014 0.12130549 -0.02055328
-0.014069462 0.07854193 0.01515228 0.11742575 -0.010805108 0.07574397 -0.013420477 0.0034729107
-0.0009983014 5.6208937e-05 -0.0020679866 -0.007796015 0.0679277 -0.009486245 0.0029835382 0.013715288
-0.0056061707 0.08244009 0.1358292 0.087377705 0.008653488 -0.06281515 0.009570698 -0.08630549
0.07464985 -0.22200127 0.04248148 0.023689244 -0.07467482 0.012726521 -0.048982438 -0.36312076
0.1147126 -0.086780414 -0.024867699 -0.020168783 -0.09236 -0.09811625 0.054841742 0.23069158
-0.022359774 -0.00033425778 0.27481365 -0.03975403 -0.12614469 0.06611406 -0.12074687 -0.15288977
-0.4354005 0.009866363 0.17373124 -0.1729282 -0.010258529 -0.06320175 0.06366861 -0.03214416
0.34939775 -0.07440257 0.29457045 -0.04754247 -0.0448421 0.09436619 0.0026550586 -0.1724757
-0.069026 0.0762196 -0.058667812 0.08984813 -0.055292413 -0.29382187 0.03548274 -0.060841806
-0.034332264 -0.13065688 -0.08085285 0.10776546 0.069659494 -0.053370353 0.018924465 -0.007175087
0.21769951 0.038356654 0.1870933 -0.11796166 -0.23309527 -0.035332926 0.008865614 0.042622007
0.009047117 0.009030398 0.11397654 -0.05085045 0.122411236 0.22970775 0.23179284 -0.041269857
-0.188135 0.2787424 0.0019863618 0.0685493 0.070010625 -0.14918575 -0.2111171 -0.0018296416
0.03550748 0.08059794 0.012113225 -0.19540721 -0.029544463 0.028208027 0.30758417 0.09080035
0.08008439 -0.08298549 -0.019880444 0.08365968 -0.111397006 0.06860148 0.17897873 0.2795227
0.21422294 -0.28923628 0.035535913 -0.1543622 0.12520565 0.5470788 0.25196296 -0.046633556
-0.026571793 -0.13794713 -0.011272292 0.15735072 -0.1160644 0.18506329 0.061324775 -0.0058979806
0.015162197 0.024713 0.04614408 0.014732649 -0.04817107 -0.005289499 0.108772196 -0.10114055
0.045194037 0.13504331 -0.2388146 -0.07207765 -0.033311468 0.028789759 0.06821922 0.28944194

hidden_layer_u1.2.bias f4 [128]
00000000: 064d a3bd 2437 be3d 44f1 2d3c aba1 963d
00000010: 4422 243c ab03 833d 1a64 3d3a aae4 353e
00000020: 9a0f f6bd 6534 8bbc d0b7 cbbc 72f5 52bc
00000030: 24bf 0bbf 874d d6ba 2221 2abd 244f a6bc
00000040: 5581 eaba 3281 a83d 0874 ea3c 1e87 94bc
00000050: 2039 9abd 3d91 a1bd b9a5 c93e 28e5 5abe
00000060: 17b7 1a3d 3627 c93d 8218 003f 9dc8 d1bd
00000070: 67eb 37bd 4d7a a13d 84f2 a43d 03f7 283e
00000080: 0416 0b3e 10a1 e23d eeb5 243e df84 6d3e
00000090: f012 d9bc e29a fbbb c5f6 6bbd 7dd4 cb3e
000000a0: d794 443d 8b15 b7bd cf68 3c3b 69e3 ed3d
000000b0: 55b9 523d 271c 30be 2337 0dbc 4933 943d
000000c0: ada0 90be 6ae2 7fbb c201 2c3e ea71 33bf
000000d0: 4688 ef3d c9c0 78bc 5ad4 4ebd 0ce6 463e
000000e0: bacc 82bd 7310 88bd 1b87 053d 76a4 b63c
000000f0: 6f26 ccbe 8a33 f9bc e4f0 efbb cb2a 37be
00000100: cb16 313c 0ddc 4dbd 9e10 633e 28a2 5cbe
00000110: 0daa 7d3d 21c8 753c 512e 383e 1ab6 893d
00000120: 034a 2ebc ee3a 22be f3f2 693d 1b91 9dbd
00000130: 3921 093e 5e88 3f3d a2b1 853c ca75 993d
00000140: d89f 16bd fdb8 25be d665 c93c c741 6d3d
00000150: d5b1 0a3d 15fd 92bc 21e7 393d 6161 923c
00000160: 4030 e2bb d72c 02bd b5e9 f93c e147 02bd
00000170: 9820 db3d 39da 4ebc 32b3 c43d 8372 99bc
00000180: bdb5 7ebc 905f 8e3c 2f3f 293d 8a1e c13d
00000190: 21c9 0e3e 7628 ea3d 5fa9 7cbe b723 0a3e
000001a0: 91b6 c7be e5cf a73c 252e 593d b09f 303d
000001b0: a093 2b3d 28a6 43bd b34b bf3d 52ee c8bb
000001c0: 6921 c3bc 0458 133d 4597 ffbd 57d7 213e
000001d0: 6f62 a63d 4f1d 06be 8bd1 40bd c132 973e
000001e0: 5c80 b4bc 60e4 ccbc c146 c2b9 77d2 bcbd
000001f0: 5a9a 313d ca32 7ebd 649e 12bb 55ad 6ebd
-0.079736754 0.09287861 0.010616604 0.073550545 0.010017935 0.06397184 0.0007224694 0.1776301
-0.120146945 -0.016992757 -0.024867922 -0.012875902 -0.5458853 -0.0016350009 -0.041535504 -0.020301409
-0.0017891327 0.08227767 0.028619781 -0.018130835 -0.07530427 -0.0788903 0.3938425 -0.21376479
0.037772264 0.09821932 0.50037396 -0.10243342 -0.04490223 0.07884655 0.08054069 0.16500477
0.13582617 0.110658765 0.16085026 0.23195218 -0.026498288 -0.0076783756 -0.057608385 0.39810553
0.047993507 -0.08939656 0.0028748994 0.11615641 0.051446278 -0.1719824 -0.008619103 0.07236344
-0.28247586 -0.0039044865 0.16797546 -0.70095694 0.11695914 -0.015182682 -0.050495483 0.19423693
-0.06386705 -0.066437624 0.03259955 0.022295218 -0.39873073 -0.030420084 -0.0073224176 -0.17887418
0.010808657 -0.050258685 0.22174308 -0.21546233 0.06192975 0.015001328 0.17986418 0.06724186
-0.010637763 -0.15842792 0.05711646 -0.07693692 0.1339158 0.04676091 0.016320053 0.074931696
-0.036773533 -0.16183849 0.024584692 0.05792406 0.033861 -0.017942945 0.045386437 0.0178687
-0.0069027245 -0.031781044 0.030506948 -0.03180683 0.10699576 -0.0126252705 0.09604491 -0.018731361
-0.0155462595 0.017379552 0.041320022 0.09429653 0.13943912 0.114334986 -0.24673985 0.13490187
-0.39006475 0.020484874 0.053022522 0.04312104 0.041888833 -0.04776588 0.0934061 -0.0061319256
-0.023819642 0.03597261 -0.12480024 0.15804802 0.081242435 -0.13097118 -0.047074836 0.2953091
-0.022033863 -0.025011241 -0.0003705528 -0.092198305 0.04336009 -0.062060155 -0.002237224 -0.05827077

hidden_layer_u1.3.weight f4 [128, 128]
00000000: 6191 223a f327 813c e35d 60bc 25ac 253e
00000010: eda5 7bbd 622b c83d 30cf 7cbc e592 79bd
00000020: db52 aa3c 4b07 d6bd bed3 5b3d 0174 40bd
00000030: 5ac7 16bd 3428 be3b 850e f8bd 2cfe 81bd
00000040: cd36 3a3e 78df a3bd 52c2 663d 5ac3 49be
00000050: 93ef d0bd 4e02 ddbd 4584 903c 22b4 adbd
00000060: 04bf d53d fd77 81bc 178f ccbb 3cda d6bd
00000070: b96d 8bbd b7ca 0cbd 0252 32bd f7ce 883c
00000080: da70 3ebe 89d5 94be bc2d b8bc 9468 fb3c
00000090: f6ff d63d 89a8 8d3d 3e43 73bd 6f59 023d
000000a0: a7e7 a03d 10de de3d 6e97 923d d0c6 f2bc
000000b0: 1fb8 28be 0547 5b3b a032 b5bd 36b5 033d
000000c0: b664 3dbd f88d e9bd 5478 48bd 3c71 e5bd
000000d0: 35da 31be ea20 d63c e021 453d 1bc9 41be
000000e0: c8f6 aabd 447e aabd 0f0d 47bc 11e8 a63b
000000f0: 2e01 943e 72d8 b13d 64e8 edbb 1f45 433c
00000100: 7e70 353b 2a33 9bbd f78a c9bd b7bb dbbd
00000110: c90a 8fbc 2b68 d7bc c908 03bd 5cd1 823c
00000120: 4e46 c0bc be58 253d 1f9a 713d f746 b23c
00000130: a888 59bd bf29 d03d a218 c43a 2f86 60bd
00000140: a4e3 be3d 19fe 1a3e 7d92 63bd 7103 f43c
00000150: a8ec b73c ee8f 24bd 6c38 cf3d c52a c23e
00000160: 40ff 2c3d 785d 13bc a98b d6bb 39bc 21bd
00000170: 3c28 063c 96a1 0a3d 02b4 bbbc caae 343d
00000180: f2b9 22bd 850e 20be 6673 92bd b7a9 093c
00000190: 2561 31bd 9470 65be 69dd 26be ee5e f23d
000001a0: 87a2 f33d 644a 54bd 2f06 60bd 4f85 16bd
000001b0: e612 b8bd 1f44 54be 1de6 1c3d de22 e7bd
000001c0: e1fa 2cbe 2569 9fbc c806 65bd a34d 34be
000001d0: 122c febc 3431 3d3d 9e96 a8bc f8d1 3abd
000001e0: bddb d13c 8526 d53d 4c79 163c f811 833d
000001f0: 52fa 113f d6de c23d d779 9dbd ef30 7abd
00000200: 8a91 6f3d e570 fdbc 120c 23bd a00e 873b
00000210: 013e 1bbe cdda 52bc d2c0 193d eb43 883c
00000220: 69ed 403c 363d 34bd 69f8 083e 06c4 b1bd
00000230: be02 7dbe d958 7a3d 6beb 80bd 1945 edbc
00000240: 6f71 e03d f362 cfbd 87e7 893d d83e 503e
00000250: 620c 42be 674b 28be cc92 c43c 6591 0abe
00000260: 4304 66bd 26de ec3d d581 18bc 4f05 b9bd
00000270: a90b f0bc 664f 98bd 3f78 493d 3539 4c3e
00000280: 9319 773d a6fb c03b a779 6c3f 31e6 6f3e
00000290: 97a0 973c 627c 0d3d c8e8 15bd 4fdf 903e
000002a0: 0ed3 a53e f5be bfbc 631c 203c b024 24bd
000002b0: 0b00 613b bef2 773d cc26 18be 62a9 57be
000002c0: 3009 71bd b657 3fbd ae01 b1bc 0244 8abe
000002d0: b707 63bd 82b5 a43d 6568 f4bc f1a7 b5bd
000002e0: 8d2d 95bd 296a 21be 50ae b13c c90f a93c
000002f0: 713c b43d 0a0c 073c fb01 6abb d92a 67be
00000300: 760c 7b3d 1937 c9bc 6677 3dba acfd 73bd
00000310: fe41 67bd 72de c03d 5709 393e e8de 1cbd
00000320: 30cc 24bd 9e72 d1bd c5fe 4a3e abd8 cf3c
00000330: c46f 403d a9b0 083d 9657 fa3c 3016 10be
00000340: 6efb 07bf fdfc 4ebf 2420 78bd 9e20 0bbb
00000350: 3fbd 793c 2ade b53c c51a f43c 76c4 c03d
00000360: a11b 193c f2da e6bc 430a 073d c0c1 42bc
00000370: 6b90 883c 3be2 d2be bc98 52bd fcf6 1fbe
00000380: 8990 cdba f070 d93c 282a 02b8 2359 943c
00000390: 8b50 3d3d 19da 09be 44da 223e 5408 583d
000003a0: 3b1f a3be 505a 173e 9754 ce3d f86a 9c3c
000003b0: 9ad9 ae3d 7740 ae3d ed19 9c3d 43f9 883c
000003c0: 4e20 103e a76f 9538 82a5 a3be aad0 01bd
000003d0: fa53 ff3c 8f69 b8bd 1ecd fe3d d5ee 253e
000003e0: c912 62ba 716b 0dbd 3294 c1bb 7e38 b2be
000003f0: ca47 a23d e68a dbbd 47a8 103d ba8a c63d
0.0006201473 0.01576612 -0.013694259 0.16178949 -0.061437536 0.097738996 -0.015430257 -0.060931105
0.020791462 -0.1045061 0.05366873 -0.04698563 -0.03681121 0.0058031324 -0.121121444 -0.063473076
0.18184967 -0.08001608 0.056337662 -0.19703427 -0.10201945 -0.10791455 0.017641196 -0.08481623
0.10436824 -0.015804285 -0.0062426436 -0.10490844 -0.06808037 -0.03437301 -0.04353524 0.016700251
-0.18597737 -0.29069164 -0.022482745 0.030689515 0.104980394 0.06916911 -0.0593903 0.03182357
0.07856684 0.10882199 0.07157789 -0.029635817 -0.16476487 0.003345908 -0.088475466 0.032155238
-0.046238624 -0.114040315 -0.04894288 -0.11203238 -0.17368396 0.026138742 0.04812801 -0.18924372
-0.08347851 -0.083248645 -0.0121491095 0.0050935824 0.2890715 0.08683862 -0.007260369 0.011918335
0.0027685459 -0.07578118 -0.098409586 -0.10729163 -0.017461197 -0.026294788 -0.0319908 0.015968971
-0.023471024 0.040367834 0.058984872 0.021762354 -0.05310884 0.101642124 0.0014960954 -0.054815467
0.09320763 0.15135993 -0.055559624 0.029786797 0.022451714 -0.040176325 0.101181835 0.37923256
0.042235613 -0.008994453 -0.0065474105 -0.039486144 0.008188304 0.033845507 -0.022912983 0.044112004
-0.039728113 -0.15630539 -0.07150917 0.00840228 -0.043305535 -0.22406226 -0.16295399 0.11834513
0.11896234 -0.051828757 -0.054693397 -0.036748227 -0.089879796 -0.20729111 0.03830539 -0.11285947
-0.16892578 -0.019459317 -0.05591467 -0.17607741 -0.031026874 0.046189502 -0.020579632 -0.045610398
0.025617475 0.10407738 0.009184193 0.06399912 0.57022583 0.09515159 -0.07689255 -0.061081823
0.058488406 -0.030937621 -0.039806433 0.0041216165 -0.15160371 -0.012869549 0.037537403 0.016633948
0.011775353 -0.044003688 0.13376011 -0.08679967 -0.24708077 0.061119888 -0.062949024 -0.028963612
0.10959136 -0.10126295 0.067336135 0.20336473 -0.18950036 -0.16435014 0.02399578 -0.13532026
-0.056156408 0.11565809 -0.009308298 -0.09034216 -0.029302435 -0.07437019 0.04918694 0.19943698
0.060327124 0.005889374 0.92373127 0.23427655 0.018509192 0.03454245 -0.03659895 0.2829537
0.32387584 -0.023406485 0.009772393 -0.04007405 0.00343323 0.06053423 -0.1485855 -0.21060708
-0.058846653 -0.046714507 -0.021607246 -0.2700501 -0.05542728 0.08042432 -0.029834935 -0.08869923
-0.07284079 -0.15763153 0.021689564 0.02063741 0.08800591 0.008242616 -0.0035706747 -0.22574939
0.06129118 -0.024562405 -0.00072275696 -0.059568092 -0.05645942 0.09417428 0.18069969 -0.038298517
-0.04023379 -0.102269396 0.1982375 0.02537187 0.046981588 0.0333716 0.030559342 -0.14070964
-0.53118026 -0.8085478 -0.060577527 -0.0021229158 0.015242874 0.022200663 0.029797921 0.09412472
0.009344966 -0.028180573 0.03296877 -0.011887014 0.016670426 -0.41188225 -0.05141519 -0.15621561
-0.0015683334 0.02654311 -3.1033676e-05 0.01810891 0.04621939 -0.13462104 0.15903574 0.052742317
-0.31859764 0.14780545 0.10074728 0.019093975 0.08537598 0.085083894 0.076221325 0.01672042
0.14074823 7.1256705e-05 -0.3196221 -0.03169314 0.031167973 -0.09004509 0.12441467 0.16204388
-0.0008624015 -0.034526292 -0.005907559 -0.34808725 0.07923849 -0.10719852 0.03531673 0.09694429

hidden_layer_u1.3.bias f4 [128]
00000000: a22f febd 0bcf 6a3d 63d6 90bd 6b57 82be
00000010: c947 473d b53c e3bc 9cb8 673d e039 593f
00000020: 3621 573e d4fb b5bd a5b2 393e b6e0 5b3d
00000030: b759 23be 0bcf 67bd ad47 523e 2dd1 623b
00000040: c011 33be fc2e 58bb 3c4e adbd c46e 243e
00000050: 4e04 4a3d db89 643e 1e59 c03d 64f3 d33d
00000060: c123 0a3c 6041 03bd 0f8f f5bd ecd2 88bd
00000070: 3ee9 58bf bc14 39bd fc85 d6bc 79f2 a23d
00000080: 18e2 c4bc 702e 093e af04 823d 99fe b5be
00000090: 733a 613d fb64 d2bd 4e8e 38be 42a5 65bc
000000a0: f19b 3e3d 452b c5bb b337 083d 0a9c 84bd
000000b0: 29e3 adbd 8d69 83bb eddf 8c3d 593d 1ebe
000000c0: 059d 843d 8c41 54be 89b0 84be 52e1 a73c
000000d0: 7a5a 8e3d 677d a8bd 4494 023f 77de b53d
000000e0: 50e5 2bbe a508 e83d 70e8 fcbd a2ea b7bd
000000f0: ae47 fbbd e53f 163b c3da dabc 5efa fabc
00000100: 4f92 0dbd 18b8 1fbc 824d d83d c6f5 e33c
00000110: 4a5d 9ebd c002 ebbd 8745 d5bc c01b 39bc
00000120: fb78 0b3d ef15 0fbe 2649 27be 68d9 acbc
00000130: 070b 3fbc 15e0 d0bc 2286 d5bd 4dbf b33c
00000140: b5c3 813d 69c8 003e 317e a33e 1f30 9fbb
00000150: edb8 57bd e035 913d 2e85 e2bb c97b 3dbd
00000160: 8036 683d f2c2 b93c f67d 413f cd70 bfbd
00000170: bb79 d4bc 1ef3 af3d 4bf6 d73c c47a a1bb
00000180: b1cb c73b bed6 693d 0430 d5bd cac9 e13c
00000190: 9eab cdbd d749 273e 512f d9bd 901d 5eba
000001a0: 1590 6bbe 02ea 5bbd 5b59 633d c777 0d3e
000001b0: 2070 b93d 1fe9 73bd 7fe8 14bd e98f b63c
000001c0: cba2 1cbd 7d2b 80be 20f2 82bc a786 233d
000001d0: f2a6 903c e50b b3b9 2336 cdbd 6d80 18bd
000001e0: 5727 31bf d785 98be a67f 3e3f 5515 953d
000001f0: c4f6 5f3e d0cd 32bc fea2 c6bd b75e ba3d
-0.12411429 0.057326358 -0.07072141 -0.2545732 0.048652444 -0.027738908 0.05657254 0.84853935
0.21008763 -0.08885923 0.18134554 0.053681098 -0.15952192 -0.056593936 0.20535155 0.0034609542
-0.1748724 -0.003298699 -0.08462188 0.16057879 0.04932051 0.22318213 0.09391998 0.103491575
0.008431376 -0.03204477 -0.11990177 -0.06680855 -0.847309 -0.04518579 -0.026186936 0.07956404
-0.024033591 0.13396621 0.063485496 -0.35545805 0.054987382 -0.10273167 -0.18023035 -0.014016451
0.046535436 -0.006017121 0.033256244 -0.064750746 -0.08490593 -0.0040103854 0.06878648 -0.1545309
0.064752616 -0.20728129 -0.25915936 0.020493183 0.06950851 -0.082270436 0.51007485 0.088803224
-0.16786695 0.11329774 -0.123490214 -0.089802995 -0.12269531 0.0022926268 -0.026715642 -0.030636963
-0.03456336 -0.009748481 0.105616584 0.027827155 -0.07732637 -0.11475134 -0.02603413 -0.01129812
0.034050923 -0.13973211 -0.16336498 -0.021099761 -0.011660344 -0.025497476 -0.104259744 0.021941805
0.06336156 0.1257645 0.31932214 -0.0048580314 -0.052666593 0.07090354 -0.006912849 -0.04626063
0.0566926 0.022675965 0.75582826 -0.09347687 -0.025936952 0.08591293 0.026362559 -0.004927965
0.00609728 0.05708956 -0.10409549 0.02756204 -0.10042499 0.16336761 -0.10604728 -0.0008473033
-0.23004182 -0.053689964 0.055505138 0.13815223 0.09054589 -0.059548493 -0.036354538 0.022285419
-0.03824119 -0.2503318 -0.015984595 0.039923336 0.01765773 -0.00034150403 -0.100200914 -0.03723185
-0.6920065 -0.29789612 0.74413526 0.072794594 0.21871477 -0.010913327 -0.09699057 0.09100097

hidden_layer_u1.4.weight f4 [128, 128]
00000000: 150d 9abd 5964 623e dfdd 8d3d 6559 103e
00000010: 123f 5a3b e939 523c f887 fbbd c3b9 093e
00000020: 60a3 9b3c 27a9 9a3d 5cd0 b8bd 1284 84bc
00000030: 311d c53d d1f4 3fbd e627 3c3f edef 9e3e
00000040: 990d e1be bead 2cbd 8c02 3bbe d399 91bd
00000050: 3326 0ebd 5cc0 1d3d 481d 4ebb c8a4 983c
00000060: 248e b4bd 96a5 abbe 158b b2bd abe3 0cbf
00000070: 112d 833d 75f6 5e3e 1b24 7dbd 86f2 88bd
00000080: 4543 163d 9648 32be 775a 20bd bc7e 1dbf
00000090: fcc3 873e 8f1c 03be 973f a7bd faf2 d13d
000000a0: 352c 7e3e 58e8 f1bd aa5b 46bc 18ce 96bd
000000b0: 96c8 cfbb 7b1b 163c ae1e bf3c 2ba0 51be
000000c0: eca5 79be 33ec bbbd b371 d4be f1cb 49be
000000d0: 583b aabd 3f35 b9bd 7aab 5bbc fb59 f93d
000000e0: 967b 74be 38e8 ce3e 9457 8cbe e35d 263e
000000f0: 0665 da3c c624 92bc 20b7 5f3e a8ee 88bd
00000100: b780 12be c07c 773e 669b 863d 5e08 cb3d
00000110: e022 fdbd 2279 8fbc c19b 5fbd 50bd 763d
00000120: 9ccf 3c3e 77fe 5abe aa6e f6bd 991c 443d
00000130: 9b48 323e eb1c 603d eb34 28be 427a 43bc
00000140: 42b4 a1bd 9c02 c3be 2d40 8b3e b340 43be
00000150: 3b34 8c3d fb06 7f3d ce4f 5abd 9f2b 89bd
00000160: a6c4 1e3e e4ae d3bc 2585 403e 4411 233e
00000170: 1598 fc3d 6ed5 073d 3d08 d8bd 9d94 2ebe
00000180: 8613 bcbd ee3d b23d 4eed 5fbe fd46 363e
00000190: d584 52be 1936 d83e d1dd 813d 51ec 32bd
000001a0: 95e7 98be f7b2 96bd c715 113e 19a2 21be
000001b0: 29eb 4f3e deee 26bd 940a 563e f77e a6bd
000001c0: 6d41 083d c8b5 04be f3c7 94bd 0eae 883d
000001d0: 2d05 c53d f1f8 80bd 47b0 95bd c105 f8bd
000001e0: 7ce1 1e3d 2052 983c a94b 743e 10bb 5c3c
000001f0: 848f 253c 2c1f 373e f8ae 983c be8c 9d3d
00000200: ee42 843c 669b 1f3d 4833 75bd 931c 3d3d
00000210: 9b63 343e f1b3 743d 0359 95bd 2788 843c
00000220: 8501 4d3d c675 02bd 8021 a33d 1954 f5bd
00000230: 9c01 8ebd b262 103c 502d 163e 448e 08bd
00000240: bee3 fabc a910 71bc fb91 a7bd d8b4 453d
00000250: 88ad b43d e31d aa3d 74d2 eebc 7f8f 01be
00000260: 54b0 5f3e 97fc f3bc aeb5 c1bd 0ca8 60bc
00000270: 6cad db3d 249f 07bd 3eb5 d6bd 9b47 95bc
00000280: 0b6b fc3b 8e98 65bd 3cb9 56bd b323 a23d
00000290: 6cc3 ba3d 6364 a7bd 90f4 22be 839b 61bd
000002a0: b0ec ae3d bddb e53c d94b c23c cda5 563c
000002b0: 442a 14bd 99f1 58bd f026 de3d 2d5f debd
000002c0: 0fc2 d73d 24f3 d63d 725a febd c737 f13c
000002d0: b37d 32bc 7752 a4bc 02da b4bd 4e97 953d
000002e0: fceb 9d3d 1cd4 133e 0240 1b3e a624 f7bd
000002f0: 62d1 183e d925 11be 0a27 2a3e 1a46 6a3e
00000300: 34b6 403c 0037 64be c093 afbd d7e0 92ba
00000310: ad5a b7bd bf03 aebc cb02 933b bb10 f1bc
00000320: 78fd febc 8a83 f7bd 28f7 e13d d7f5 963d
00000330: 6db4 6fbc 4894 0fbd cf8e 333d 5026 943d
00000340: 816c 953b c68d 24bd bfad 863d ceeb d7bb
00000350: 3a3a efbb 4536 e1bd e1b6 92bd 0dbb c43d
00000360: 7f37 ebbd a310 523c b97e 6cbd 8a56 ca3c
00000370: 5068 d9bd c39f 313d c9d2 adbc 976a 8d3d
00000380: ba19 c73d 8b5f 9fbc d122 a63b 1385 933d
00000390: 5943 493e bb18 2bbd e255 b9bd e8f8 fc3c
000003a0: 1846 863d 175c 04bd 64d7 f13d 92ca cc3b
000003b0: afe6 c23d c735 073d 4515 a13c 2d16 9abd
000003c0: 1d54 71bb a92d 89bd b430 07be 664d f53c
000003d0: 4f0b 393d bee5 fabd 2dd8 cc3b 14c2 29bd
000003e0: ba28 6c3d 6dc2 c3bd 8f8e abbd 4cda 0bbe
000003f0: 4dcc ffbc f7c8 9ebb e680 06be 2831 c53c
-0.075220264 0.22108592 0.06927084 0.14096601 0.0033301753 0.01283119 -0.12281793 0.13449769
0.018998802 0.075517945 -0.090241164 -0.016176257 0.096247084 -0.046864334 0.7349838 0.31042424
-0.43955687 -0.04215788 -0.1826269 -0.07109418 -0.0347044 0.038513526 -0.0031450558 0.018633261
-0.08816174 -0.3352477 -0.08717934 -0.55034894 0.0640508 0.21773703 -0.06180201 -0.06686883
0.036685247 -0.17410502 -0.039148774 -0.61521506 0.26516712 -0.12803863 -0.08166426 0.10251422
0.24821551 -0.11811894 -0.012106815 -0.07363528 -0.0063410504 0.009161825 0.023330059 -0.20471255
-0.243797 -0.09175911 -0.41492996 -0.19706704 -0.083121 -0.09043359 -0.013407582 0.121753655
-0.2387527 0.40411544 -0.27410567 0.16246752 0.0266595 -0.0178398 0.218472 -0.06686145
-0.14306913 0.24168682 0.06572609 0.09913705 -0.123601675 -0.017513815 -0.054591898 0.060239136
0.18438572 -0.21386133 -0.12032826 0.047878835 0.1741051 0.05471508 -0.16426437 -0.011931004
-0.078957096 -0.38087928 0.271974 -0.1906765 0.068459 0.062262516 -0.053298764 -0.06697773
0.15504703 -0.02584023 0.1880079 0.15924555 0.12333695 0.033162527 -0.10548446 -0.17048879
-0.09183411 0.087032184 -0.21867868 0.17800517 -0.20558484 0.42228773 0.06341136 -0.0436824
-0.29864183 -0.073583536 0.14168464 -0.15784492 0.2030455 -0.040755145 0.20902473 -0.08129685
0.03326552 -0.12959969 -0.072647 0.06673823 0.09620128 -0.06297482 -0.07309013 -0.121104725
0.038789257 0.018593848 0.23856987 0.013472334 0.010105018 0.17882985 0.01863812 0.0769286
0.016145196 0.03896656 -0.05986336 0.04616983 0.17616121 0.059741918 -0.07292368 0.016178204
0.050050277 -0.0318506 0.07965374 -0.11978931 -0.06933901 0.008812593 0.14665723 -0.0333388
-0.030626174 -0.014713445 -0.081821404 0.04826817 0.08822161 0.08306482 -0.029153086 -0.12652396
0.21844608 -0.02978353 -0.09458481 -0.0137119405 0.10726437 -0.033110753 -0.10483788 -0.01822262
0.00770319 -0.05605369 -0.052422747 0.07916965 0.09119305 -0.08173444 -0.15913606 -0.05507995
0.08541238 0.028058881 0.023717808 0.013101053 -0.03617312 -0.05296478 0.108472705 -0.10857997
0.105350606 0.10495594 -0.12419595 0.029445542 -0.010894227 -0.020058854 -0.08830644 0.0730425
0.07711026 0.14436382 0.15161136 -0.12067537 0.14923623 -0.14174594 0.16616455 0.22878304
0.011762191 -0.22286606 -0.08573103 -0.0011205924 -0.08952842 -0.02124202 0.004486417 -0.029426923
-0.031126723 -0.12085636 0.110334694 0.07371109 -0.014630419 -0.03505352 0.043837365 0.0723387
0.004560054 -0.04017427 0.06576108 -0.0065893894 -0.0073006423 -0.10996679 -0.07163788 0.096059896
-0.114851944 0.012821349 -0.05773804 0.024699468 -0.10615599 0.04336525 -0.021218674 0.06905096
0.09721704 -0.019454738 0.0050700684 0.07203116 0.19654597 -0.04177163 -0.09049584 0.030880406
0.06556338 -0.032314386 0.118086606 0.006249734 0.09516656 0.03301027 0.019663462 -0.07523761
-0.0036823817 -0.06698162 -0.13202173 0.029944133 0.0451768 -0.12250851 0.006251356 -0.041444853
0.057656027 -0.09558568 -0.083768 -0.13657492 -0.031225348 -0.004845734 -0.13135108 0.024071291

hidden_layer_u1.4.bias f4 [128]
00000000: d732 c93d b0e6 c7bc b804 f73a de2f a83d
00000010: 1251 b7be 5ac1 093e 7dd1 a03c 69d9 ec3d
00000020: df93 79bd 0377 bd3c 3005 ca3d 997b 0fbb
00000030: 6544 063e 7c79 593d 9eb3 45be d7e3 4ebd
00000040: a6d6 82be d964 a0bd ff36 24be 7d04 2ebe
00000050: e766 123f 21c7 323e 47d8 093e 02c5 7d3d
00000060: a1c6 99bd 2481 97bd 74e3 803d 4ab4 633d
00000070: 48d4 28be 3cee 0bbd 59a4 bf3c 0e5d 33bd
00000080: 3178 2ebe e874 563e 9484 9ebe 65f0 f43d
00000090: 5ef8 e8bd 6782 303d 808d cd3d ac87 183d
000000a0: 1c66 ca3d af3b 04bd 2c9a cebd 4977 ccbd
000000b0: 1347 a8bd ebbd 8abd 931a 22be 949f f4bd
000000c0: 48dd 15bf 9d37 953e 90f1 f0bd eea7 5d3c
000000d0: 7856 9e3c 7271 2cbf 8838 6c3e f9f0 a3bd
000000e0: 2dd6 953d 0bc9 d43d ef32 afbd 5608 26bd
000000f0: c2a1 0bbc 7c5d a03e fb48 153d a80b f2bc
00000100: cb53 c13d f37f d63d 89c3 cdbe ed8b 133e
00000110: e30d 093e 9862 893d db93 eebd 04ec b43d
00000120: 3c8a 31be d306 1b3e a529 7cbc 716c 093c
00000130: 3fac ebbc 8c05 f93d 1cc7 dfbd 18dd c43d
00000140: a729 08bd 64bd 7ebd d137 bd3d 4626 7b3c
00000150: aa92 1e3c bc7a 21be c0da da3d 3b9d 193e
00000160: fef2 84bd d6d1 673d bcc8 913d a34b 04be
00000170: c986 9c3d 2914 5ebe 4f2b f93c 2af6 b03b
00000180: b585 403d fc1a 95bd 1c83 5c3d bad3 033d
00000190: 12d6 48bd 2bfe 333e d159 9d3d b1e2 45bd
000001a0: 6b81 72bd 7450 9b3d 0e5c 443d 44bb acba
000001b0: 445d 5cbc af94 d3bd bbd8 4cbc 454f a0bd
000001c0: 227e 56bc 5a35 e43e 0f8a 16bd b371 3e3d
000001d0: bdd1 993e d980 45bd 20da 923c 25f7 0dbf
000001e0: 5291 2a3e bfd6 c0bc 8e8d 2a3e f154 9cbd
000001f0: 8ed0 d23d 5b45 84bd 37d0 533a 8cfe 6fbd
0.0982415 -0.024401993 0.0018846011 0.08212255 -0.3580404 0.13452664 0.019631142 0.11564905
-0.060932036 0.023128038 0.09864271 -0.0021893738 0.13112028 0.053094372 -0.193068 -0.050510254
-0.2555439 -0.07831735 -0.16036604 -0.169939 0.57188267 0.17458774 0.1346141 0.06195546
-0.075085886 -0.073976785 0.06293383 0.05559186 -0.16487229 -0.034162745 0.023393797 -0.043789916
-0.17038037 0.20943034 -0.30960524 0.11959914 -0.11375497 0.04309311 0.100367546 0.03723876
0.09882757 -0.03228348 -0.10088 -0.09983689 -0.08216681 -0.06774505 -0.1583045 -0.119444996
-0.58540773 0.29143992 -0.117648244 0.013528807 0.01932834 -0.67360604 0.2306844 -0.08004946
0.073162414 0.103899084 -0.08554637 -0.040535294 -0.008522453 0.31321323 0.036446553 -0.029546574
0.0943981 0.10473623 -0.40188244 0.14408846 0.13384204 0.067082584 -0.11649295 0.08834079
-0.17337888 0.15139322 -0.015390788 0.008387671 -0.028768657 0.12159261 -0.10926649 0.09612483
-0.033242848 -0.062192336 0.09239162 0.015328949 0.009678522 -0.15769476 0.106862545 0.15001385
-0.064916596 0.0565966 0.07118365 -0.12919478 0.07642896 -0.21687378 0.030416159 0.005400439
0.047002513 -0.072805375 0.053835973 0.03218434 -0.04903228 0.17577426 0.07683147 -0.048311893
-0.059205454 0.075837046 0.047939353 -0.0013178368 -0.013449971 -0.103310935 -0.012502844 -0.078276195
-0.013091596 0.44571954 -0.036752757 0.04649515 0.3004283 -0.04821858 0.017926276 -0.5545524
0.16656998 -0.023539899 0.16655561 -0.07633389 0.10293685 -0.06458541 0.00080800377 -0.058592364
