demo/Base_g4/CH_Benchmarks_Pass_1.pt (torch, 338109 bytes, 13 tensors)

layers_phi.0.weight f4 [128, 2]
000000 ff 18 4c be 2c 9c 83 3f 98 f3 6d 3e eb a0 6e 3c
       -0.1993141 1.0282035 0.23237455 0.014564733
000010 ed 72 59 3e 43 eb bd be 16 4a 88 be 1e 37 93 bd
       0.21235247 -0.37093553 -0.26619023 -0.07188247
000020 ce f6 3c 3d 6c 53 a8 bf 57 58 9f be 0f 5f e2 3a
       0.04613381 -1.3150458 -0.31122085 0.0017270761
000030 33 bf 97 3e 60 af bb 3e 7b f5 a0 be 95 6e a5 bf
       0.2963806 0.36657238 -0.31437287 -1.2924372
000040 44 b6 b3 3e 2d 4c 27 3f 12 80 9a be 68 c1 6e 3d
       0.35099995 0.6535061 -0.30175835 0.058289915
000050 8c 4c a7 be 31 64 94 be 54 ae 3d 3e 99 4d 24 3f
       -0.32675588 -0.2898269 0.18523532 0.64180905
000060 28 2b a0 3e 14 31 a9 be 79 10 a0 3e 66 cf 17 3e
       0.31282926 -0.33045256 0.31262568 0.1482521
000070 15 e6 93 3e 86 d7 e7 3c b5 53 ac be 96 1d 79 bd
       0.28886476 0.028301012 -0.33657613 -0.06081923
000080 df ee f1 bd 33 54 a2 bf 06 cb cc be 4a e4 83 be
       -0.11813139 -1.2681946 -0.39998645 -0.25760108
000090 22 a0 58 3e 5c fd fb 3e be 95 ca bd 67 3d e1 be
       0.21154836 0.49216735 -0.09891842 -0.4399216
0000a0 af ac 79 be 6d 74 53 3d f8 1c 9b be 38 4b 15 3e
       -0.2438228 0.051624704 -0.3029554 0.14579475
0000b0 58 d8 90 3e 46 8a 14 be 71 88 8c 3e 62 61 89 3f
       0.28290057 -0.14505872 0.27447847 1.0732844
0000c0 c5 55 85 be 8e 57 95 be b0 85 0e be ef 26 2c bd
       -0.26042 -0.2916836 -0.13918185 -0.042029317
0000d0 ec 9f 91 3e d9 f9 99 be 93 78 81 bd 95 ad 0e bd
       0.28442323 -0.3007343 -0.06321826 -0.03483351
0000e0 41 0b 50 3e f1 f1 25 be f4 25 c1 bd 40 d0 f7 3f
       0.20316793 -0.16205575 -0.09431067 1.9360428
0000f0 10 92 da bd da 99 3d be f1 55 ad bd f3 8b cb 3f
       -0.106723905 -0.18515721 -0.08463658 1.5902084
000100 dd f9 50 be fa 72 03 bf ae 79 ea bd f6 9c b0 bf
       -0.20407815 -0.51347315 -0.1144899 -1.3797901
000110 28 ac 5e 3e b3 c7 db be 2a a7 98 be 2e 7b d5 be
       0.2174536 -0.42925796 -0.29815036 -0.4169554
000120 ea 7d 6e be 6c b8 0c 3f 25 e9 7a be c5 e3 1e be
       -0.2329022 0.54968905 -0.24503 -0.15516575
000130 6c af e5 3d 7c dd 10 be 2a 8b f7 3d 57 87 b2 3e
       0.112151 -0.1414699 0.1208709 0.3486888
000140 39 bb ad be d1 5a 80 3c 78 e2 25 3e 3a 0c b7 be
       -0.33931902 0.015668305 0.16199672 -0.35751516
000150 ca 5d 42 be 56 2f 01 be 43 b7 33 3e de ca 0a bf
       -0.1898109 -0.12615713 0.17550378 -0.542158
000160 34 68 7c be d5 ba dd be 8e 16 8e be 59 ed c8 3f
       -0.24649125 -0.43306604 -0.27751583 1.5697433
000170 cf 00 31 3e f8 f3 f5 3e f6 d9 58 be 1c 13 e1 3e
       0.17285465 0.48037696 -0.21176895 0.43959892
000180 c6 3b b1 be f4 10 59 3e 10 db 75 3e d9 07 1d c0
       -0.34615916 0.21197873 0.24009347 -2.453604
000190 fc d0 c3 be 7c ae 19 bd cb 96 4b 3e b6 36 99 be
       -0.3824538 -0.037519917 0.19881742 -0.29924554
0001a0 45 1f 60 3e d1 a1 b0 3e 15 fd 17 3e 56 1e 60 be
       0.21886928 0.34498456 0.14842637 -0.21886572
0001b0 54 58 3f be e4 bf 9c bd a8 4b c3 3e 54 1f 11 3b
       -0.18686038 -0.07653788 0.3814366 0.0022143917
0001c0 3a 34 1d be 4e c0 18 be 4b 0b 85 3e dc 66 06 bf
       -0.15351954 -0.14917108 0.25985178 -0.525007
0001d0 a1 45 30 3e 41 98 b3 3e c3 fe 84 3e d1 cf 83 bf
       0.17214061 0.35077098 0.25975618 -1.0297796
0001e0 28 94 be 3e 20 48 df 3e b6 76 a6 3e 60 09 eb 3e
       0.3722241 0.43609715 0.32512444 0.4590559
0001f0 cd 7c da 3d 72 58 55 bd f7 a6 97 be 5b 82 22 be
       0.10668335 -0.0520863 -0.29619572 -0.15870039
000200 a0 a8 91 be 29 e6 10 3f c8 0a 8a 3e 6e c2 80 be
       -0.28448963 0.56601197 0.2696135 -0.25148338
000210 b2 3b 87 3e 93 5c 9e 3e c5 08 32 be 59 d2 04 3f
       0.2641273 0.30930004 -0.17386158 0.51883465
000220 29 68 7f be 2d 98 bb be 4c a1 53 3e ec 9b 8f 3f
       -0.24942078 -0.36639538 0.20666999 1.1219459
000230 2f 56 93 be 6d 37 24 bd a4 79 b0 3e 60 e9 89 3d
       -0.2877669 -0.04009192 0.34467804 0.06733966
000240 ce 25 4b be 3e 82 82 bf 13 80 90 3e 38 53 34 be
       -0.1983864 -1.0195997 0.28222713 -0.1760987
000250 78 fa 5e be 45 ab 97 3e 32 6b cd 3d 17 40 68 3f
       -0.21775234 0.29622856 0.100302115 0.90722793
000260 92 b4 69 bc cd 97 a5 be 20 d0 3a bc 57 33 78 bd
       -0.014264243 -0.32342377 -0.01140216 -0.060595836
000270 fd 71 b9 be 72 fe 30 3e a9 83 92 3e 99 4b 11 be
       -0.3621978 0.17284563 0.28616074 -0.14188994
000280 52 f6 99 3e b6 f5 e1 bd ae 81 96 3e 64 af 84 3e
       0.3007074 -0.11033194 0.29395813 0.25915062
000290 15 3e 97 be 94 50 05 be 91 a9 94 be 25 3b 1f 3f
       -0.29539552 -0.1301902 -0.2903562 0.6219962
0002a0 02 f1 0b bd 3f 0d 41 c0 2f c7 8b 3e b5 23 c1 3c
       -0.03416539 -3.0164335 0.27300403 0.023576597
0002b0 70 bb 8e 3e 87 01 6e be 21 fa 86 3e 83 13 b3 3e
       0.27877378 -0.2324277 0.26362708 0.34975824
0002c0 37 0e a1 be 01 a9 2c 3e dd bb 65 be 54 cb f5 3e
       -0.31456158 0.16861345 -0.22434945 0.4800669
0002d0 94 53 b2 3e 76 97 89 bf d9 ca 85 be d5 26 32 3c
       0.3482939 -1.0749347 -0.26131323 0.010873516
0002e0 cc 66 18 bc 7f 76 bf c0 7d 6f 97 be ac 66 79 3d
       -0.009301852 -5.983215 -0.29577246 0.06088893
0002f0 18 32 ce 3d 3b a7 02 3f 31 f2 6d 3e c1 33 c2 3d
       0.100681484 0.51036423 0.2323692 0.094825275
000300 ce fe b7 3e 57 a9 10 3e e0 2a ed bd 93 ad 85 3e
       0.35936588 0.14127098 -0.115804434 0.2610899
000310 3d 52 a3 be 07 25 97 be 2a 7e b1 3e 0e d3 f5 bd
       -0.3189868 -0.29520437 0.34666568 -0.12003146
000320 fa 81 5d be 93 61 a8 3e e0 e1 96 be 52 a3 9c be
       -0.21631613 0.32886943 -0.29469204 -0.30593354
000330 ce 8a 93 3e 5d 92 78 3e b1 60 76 be 82 e0 f7 bf
       0.28816837 0.24274583 -0.24060322 -1.9365389
000340 1c 70 45 3e ec ce 9a 3f 88 ec 98 be e2 ca 21 3d
       0.19281048 1.2094398 -0.2986796 0.039500125
000350 b5 84 88 3e d5 1f 56 bf 01 ba 4f be 1f 29 18 3e
       0.26663747 -0.8364232 -0.20285799 0.14859436
000360 a6 e3 b0 be d8 ca ea bb b2 2b 1c 3e 2c 4a af bf
       -0.34548682 -0.007165294 0.15251043 -1.369451
000370 db ef 06 3e a4 95 1b bf b5 95 ac be dc fa 1d 3e
       0.13177435 -0.6077521 -0.33707967 0.15427727
000380 3b 00 a8 3e b4 5b ab be 45 f5 93 3e 90 e2 a2 bd
       0.32812676 -0.334684 0.28898063 -0.079533696
000390 b1 9e 90 be 86 ab 90 be cd 9c 4c be bf 40 40 3f
       -0.28246072 -0.28255862 -0.1998169 0.75098795
0003a0 e8 11 b9 be 5d 57 a3 3e eb b8 bc be 2d 6a 3e 3e
       -0.36146474 0.3190259 -0.3685983 0.1859519
0003b0 d3 3f 05 3e d6 5f c7 3e ca 68 51 3e fb 75 9c be
       0.13012628 0.38940305 0.2045013 -0.30558762
0003c0 90 f7 89 be 2a 62 a0 bb 71 f6 8d 3e 9e 7c 56 be
       -0.26946688 -0.0048945146 0.27727082 -0.20945975
0003d0 c8 ff b6 be b9 c8 1b be 77 0e a5 be f6 bd 1a 3c
       -0.3574202 -0.15213288 -0.32237598 0.009444704
0003e0 13 b9 c3 be 3e 50 20 3f fd 2b 84 be 03 13 bf 3d
       -0.38227138 0.6262244 -0.2581481 0.09329798
0003f0 85 f2 d3 3d e1 41 02 3f e9 02 d0 be 88 e6 18 3f
       0.10348991 0.50881773 -0.4062722 0.5972676

layers_phi.0.bias f4 [128]
000000 cd c3 bc be ff fc 2e bd 40 34 1e be 91 98 1e 3d
       -0.36868134 -0.042721745 -0.1544962 0.038719717
000010 57 56 06 3e 4f 7d ce 3e 8b 2c b2 3e 5c 4b c0 be
       0.13118874 0.40329978 0.3479961 -0.37557495
000020 6d 19 0f bf c9 85 1b 3e d6 0d 9a be 1c ee 3b 3e
       -0.5589817 0.15187754 -0.3008868 0.1835255
000030 be 8f 93 be 58 5a 0a bf 6a 1e 08 be 1d fa c3 3e
       -0.28820604 -0.54044104 -0.13292852 0.3827676
000040 e4 8b b1 3e c8 15 db be 83 e8 0c 3e a2 7f 20 bd
       0.3467704 -0.42790055 0.13760571 -0.03918422
000050 ee 50 82 3e 3c b3 fb 3d d3 dc ef 3d 2a 43 a5 3e
       0.2545237 0.122900456 0.11712041 0.32277805
000060 be 1a 9a be 7a e7 a1 3d ff cf 11 3e 9a 73 68 3e
       -0.30098528 0.07905479 0.142395 0.22700348
000070 92 85 ed 3d d1 f2 c6 bd d3 d9 5f bd 20 e3 3a be
       0.11597742 -0.09714282 -0.054651093 -0.18250704
000080 4e e3 90 bd 91 32 ea 3e 66 71 dc bd ed 1f 8e be
       -0.07074605 0.45741704 -0.107638165 -0.27758732
000090 9e 42 a6 3e 6e 94 af 3b e2 c7 ae bd 7b b0 ed 3e
       0.324727 0.0053582704 -0.08534218 0.46423706
0000a0 77 df a6 3e d8 9b 53 3e df 37 32 3c f3 54 a3 bc
       0.32592365 0.20664918 0.0108775785 -0.019937968
0000b0 ea 81 b5 3e 9b 80 89 3e 13 3b ca bd e9 c3 23 3e
       0.3545068 0.2685593 -0.09874549 0.15992703
0000c0 34 0a 89 be a8 ae 62 be 4d 6c 12 bf 19 00 8e 3e
       -0.26765597 -0.22136939 -0.57196504 0.2773445
0000d0 ec 5f 7e be 89 c4 bd bd ea 45 d7 3d 8a 56 ce be
       -0.24841279 -0.09266002 0.10511382 -0.403004
0000e0 0e 1f 32 3e 02 c5 01 bf 8e 79 9f 3d 0f d4 ea be
       0.17394659 -0.50691235 0.077868566 -0.45864913
0000f0 76 9b b3 3e 44 76 d4 bd 4b 2e f6 be 4a f6 ad be
       0.35079545 -0.1037412 -0.48082194 -0.33976966
000100 df bb 1d be aa 91 bf 3e 3f e6 be 3c 77 99 83 be
       -0.15403698 0.3741582 0.02330315 -0.25703022
000110 45 97 a4 3e 8c 19 17 3e 3a 0d 13 3d e7 73 a6 be
       0.3214666 0.14755839 0.035901286 -0.325103
000120 55 8d 52 be 3f 9c 59 bd 12 a2 08 bf b2 e2 ac 3b
       -0.20561726 -0.053127524 -0.533723 0.0052760476
000130 65 6b 7c 3d f3 f1 20 39 b2 37 aa be 69 b5 89 3e
       0.061625857 0.00015348922 -0.33245617 0.26896217
000140 50 a0 a8 3e 14 dd 92 3e b4 3b 86 be 6e 6a 08 bf
       0.3293481 0.28684294 -0.26217425 -0.532874
000150 ba c8 75 3c 7f 03 b7 3e d3 91 b3 3d 63 6c a4 3e
       0.01500147 0.35744855 0.08768048 0.32113943
000160 48 8d 95 3e ad 38 d7 be 69 49 15 3f 45 ec 49 3e
       0.29209352 -0.42035428 0.5831514 0.19719036
000170 5f 1a 53 bd 20 43 83 be ca 57 91 be f6 dc 3d be
       -0.05153882 -0.2563715 -0.2838729 -0.18541321
000180 39 b3 e5 3e 7b b9 fb 3e 69 17 4e 3e 0a 79 fe 3e
       0.448633 0.49164948 0.20126118 0.4970172
000190 10 da d6 3e 4e 24 a1 be b2 fe b6 be 9f f4 03 3f
       0.41963243 -0.3147301 -0.35741192 0.5154514
0001a0 0c f9 43 be e0 59 3f bd 8f c6 f2 3e c4 da 36 bd
       -0.19137973 -0.04671657 0.47417113 -0.044642225
0001b0 28 34 7e 3e 5f 3f e3 bd 37 d2 cf be 7d df 74 3e
       0.24824584 -0.110960715 -0.4059007 0.23913379
0001c0 c9 33 fc 3e 81 6b 70 bd c2 11 4d be 86 80 da 3d
       0.4925826 -0.058696274 -0.20026305 0.10669045
0001d0 2b ea 0c bf 93 09 ed be 39 38 05 be 57 49 07 bf
       -0.5504481 -0.46296367 -0.13009728 -0.5284628
0001e0 eb df 2b 3e 48 71 1d 3c 7a e2 17 3f 5e c5 78 be
       0.16784637 0.009609528 0.5932995 -0.2429404
0001f0 84 58 e5 3e c5 a8 2a 3d 24 ef 3b 3d b8 86 19 bf
       0.44794095 0.041664857 0.04588236 -0.5997119

layers_phi.1.weight f4 [128, 128]
000000 f7 7b bd 3d 1a fe a7 3e 70 3f d6 3e a6 dc 95 bd
       0.0925216 0.32811052 0.41845274 -0.07317476
000010 8d 2a e2 bd e4 c5 9a be 92 c3 fa bd eb 84 d2 bd
       -0.11043272 -0.30229104 -0.12244333 -0.10279258
000020 13 5f 16 3e 74 0f ec be 5d ab 2c be bc 96 3d bc
       0.14684705 -0.4610554 -0.16862245 -0.011571582
000030 42 91 27 3f 0f 8d a5 3d e6 53 dc 3e a9 65 ba be
       0.6545602 0.080835454 0.4303276 -0.36405686
000040 0f dc 2b bd 2d d4 75 bd c2 32 c7 bc 9b a7 68 bd
       -0.04195791 -0.0600168 -0.024316195 -0.056800466
000050 a7 6d c2 be 51 84 e4 bd a2 c5 30 3e 61 44 b8 bd
       -0.37974283 -0.1115805 0.17262891 -0.08997417
000060 13 75 1d 3c 5d 17 86 be be 4d 0c 3e 7c 05 3c bd
       0.009610432 -0.261897 0.13701531 -0.045903668
000070 e9 7e 39 3d cb a3 69 3d b7 6d 34 3d 6d 70 0d 3e
       0.045287047 0.05704097 0.044049945 0.13812418
000080 c2 16 5d be 90 16 4e be 5f f1 d0 3e 36 e2 90 3d
       -0.21590713 -0.20125794 0.40809152 0.07074396
000090 77 fa 7f be 6a f4 27 bd 72 4f bf 3d b1 97 18 be
       -0.24997889 -0.041004576 0.09341325 -0.14901616
0000a0 54 b1 23 bf a7 3c 04 be 41 82 5e be 4d 4c 36 3e
       -0.63942456 -0.12913762 -0.21729375 0.17802544
0000b0 6d a3 8a be 92 bd 98 be 36 19 3b 3e b7 86 f1 be
       -0.2707781 -0.2983213 0.18271336 -0.47173092
0000c0 0a 50 d3 3d 9c 5e 01 3e 29 d8 c8 3d e2 83 07 be
       0.103180006 0.12633747 0.09806854 -0.13233903
0000d0 4b 6c 2c 3e af c8 3e 3e 71 70 ea be 92 10 f9 3e
       0.16838185 0.18631242 -0.4578891 0.48645455
0000e0 e0 79 92 be e5 eb 4d 3e 8a d0 8f 3d 7b 34 8c bb
       -0.28608608 0.20109518 0.070221975 -0.004278717
0000f0 35 89 e9 3d 8c a4 af 3d a4 8f 18 3e e0 80 d4 bd
       0.11403123 0.08576307 0.14898545 -0.103761435
000100 f8 33 4b be dd 09 f6 bc a0 63 ec 3c ed 20 60 3d
       -0.19844043 -0.030034 0.028856099 0.0547189
000110 e6 20 46 be 7d a2 a2 3d 3b b6 36 be 63 69 43 3f
       -0.19348487 0.079411484 -0.17842953 0.7633268
000120 53 07 ac bd 7e d2 45 3e 61 31 b6 3d 21 3f e0 3c
       -0.083998345 0.19318578 0.08896137 0.027373852
000130 fd fd f3 3d e7 0e 88 3d dd 16 de bd 4f 7c 4d bd
       0.11913679 0.066434674 -0.108442046 -0.050167378
000140 55 47 71 3d 6d 7d de bd 13 ae 1e bd 03 ca d4 3d
       0.05890592 -0.10863767 -0.03874023 0.10390093
000150 38 05 ea 3d 11 c8 b8 3d 27 91 56 3e bd bc a7 3d
       0.11426777 0.09022535 0.20953809 0.08190296
000160 1c 03 20 bf fb 30 14 3e cf 86 ac bd 3f c3 2b bf
       -0.62504745 0.1447181 -0.0842415 -0.67094797
000170 2b 69 31 3d 33 1c 22 bd 97 cc c8 3d d6 82 2e 3f
       0.043313187 -0.039577674 0.098046474 0.6816839
000180 43 cd e4 bd e9 d6 86 3d 50 b3 0d bf 7d 5b 41 3d
       -0.11171963 0.065839596 -0.55351734 0.04720639
000190 10 a1 40 bd 81 f6 11 3d d7 bd ab 3e 80 77 97 bd
       -0.0470286 0.035635475 0.33543274 -0.0739584
0001a0 98 a4 bd 3d e2 df 0d be 63 f9 8b bd d5 59 2a be
       0.092599094 -0.13854936 -0.06834676 -0.1663583
0001b0 3f 4b 27 bf 37 9b e1 3c 59 0c 18 3e 25 82 55 bf
       -0.6534919 0.027539833 0.1484846 -0.8340171
0001c0 e7 dc 34 bd 1e 27 53 3e 18 c3 99 bd d9 de 85 be
       -0.04415598 0.20620391 -0.07507914 -0.26146582
0001d0 5c 99 76 3d 31 5a 75 3d da 5f 60 3e ac da 0c 3e
       0.06020485 0.059900466 0.21911564 0.13755292
0001e0 bb 70 08 bf bf 06 7f 3e 96 41 45 be d3 93 0e be
       -0.53297013 0.24904917 -0.192633 -0.13923578
0001f0 93 f3 7b be 28 4b 92 bd 61 12 e2 bd bf b0 f8 bd
       -0.24604635 -0.07143241 -0.11038662 -0.12143087
000200 44 08 8c 3d 1c 7a a9 bc f2 fd 92 3d 4b 20 60 3e
       0.06837514 -0.02068811 0.071773425 0.21887319
000210 ca b5 d6 ba 6b 95 53 bd 87 38 61 be 51 f3 c8 3d
       -0.0016381082 -0.051656168 -0.2199422 0.09812034
000220 b0 17 ca 3d 92 14 03 3d 2a 36 e9 3d 02 e1 08 be
       0.09867799 0.03200204 0.11387284 -0.13367084
000230 46 dd b3 3c 19 b0 92 bc f1 bf f1 bd 83 53 fc 3d
       0.021956097 -0.017906236 -0.11804188 0.12320616
000240 49 27 a9 bd 99 d1 99 3e 71 93 cd be 05 01 b2 bd
       -0.08259446 0.30042723 -0.4015155 -0.08691601
000250 c6 87 6a 3c c5 65 51 3d fe 8c 1a be 20 0f 5b 3d
       0.0143145975 0.051122446 -0.15092847 0.05348122
000260 67 95 ad 3b 4c 71 e7 bb 61 8f d6 be 17 99 f6 bd
       0.005297351 -0.0070630666 -0.41906264 -0.12040918
000270 d9 dc 58 be 05 57 54 3e 67 7a 9a 3d f8 2d c3 bd
       -0.21177997 0.2073632 0.07542878 -0.09530252
000280 6a 27 a4 3d 3d 3f d0 3c 41 5a 09 3d 0d 0a 2d 3e
       0.0801533 0.02542078 0.03353334 0.16898365
000290 e9 ba e4 3d cc 19 01 3e 37 8d 77 3c a3 44 75 3d
       0.11168463 0.12607497 0.015109352 0.05987991
0002a0 8b ae 56 bd 5b 8f 12 be 4d a7 df 3d a2 5d 35 be
       -0.05241255 -0.14312498 0.10920582 -0.177115
0002b0 6d 69 84 bd 29 78 82 3d 0d 07 17 3d 76 a9 9c 3d
       -0.06465421 0.06370575 0.03687196 0.076495096
0002c0 b8 eb ee 3e 63 aa 8c bd c0 8f 5c 3e b7 10 80 bd
       0.46664214 -0.06868436 0.21539211 -0.06253188
0002d0 da ca e8 bd 0c d7 51 bd 1e 80 13 3e 5b a8 35 bd
       -0.11366816 -0.051230475 0.14404342 -0.04435001
0002e0 34 f3 45 3d 5a 9f 4e 3c 18 94 a9 bd b0 08 a9 3d
       0.04832764 0.012611235 -0.082802 0.0825361
0002f0 7a 1b 8f be 30 f2 2f be 38 c8 7d 3d 0c de 5f 3d
       -0.2795065 -0.17182231 0.06195852 0.05465512
000300 54 ca 35 3e 45 c5 6b be a0 d0 cd bc 60 f2 ec 3c
       0.17752963 -0.23024471 -0.025123894 0.028924167
000310 60 16 2e bd 80 a0 e8 bd c6 a1 cb 3d 61 80 40 be
       -0.042501807 -0.11358738 0.09942965 -0.18798973
000320 a5 e3 8f bd 02 bf 49 3d 9e ba 31 3e c8 f1 68 3d
       -0.070258416 0.049254425 0.17356345 0.056871206
000330 87 9f 04 3e 1c bc b7 3d 64 e3 c7 3e 4a 23 6a be
       0.1295148 0.08971426 0.39040673 -0.22865024
000340 f4 16 91 be d3 1e 21 bd 6d 32 db 3d 21 14 cd 3d
       -0.28337824 -0.039336037 0.10702977 0.10013605
000350 5f ec 5b 3e 4d 63 16 3d c9 6f f7 bd 1b d4 2d bd
       0.21476887 0.036715794 -0.12081868 -0.042438608
000360 2b 2b 15 3e 8c 9b bd 3d 66 a8 59 be 85 65 62 bd
       0.14567249 0.09258184 -0.21255645 -0.055272598
000370 b9 88 9f 3d 72 2c f2 3e 1a 89 57 3d 39 0e 06 be
       0.0778975 0.47299534 0.052620985 -0.13091363
000380 19 0d 5c be c1 6b 9b bd 40 12 60 3d 70 0e 57 be
       -0.21489371 -0.07588912 0.054704905 -0.21001601
000390 49 22 c3 bd 4e ac 4b 3d 1b c7 07 3d ee 5e 77 3d
       -0.09528024 0.04972487 0.033148866 0.060393266
0003a0 4f 58 f8 3b a8 63 80 3e c5 d8 a1 bd 60 8c 8e 3e
       0.0075788866 0.25076032 -0.07902674 0.27841473
0003b0 e8 93 20 3e 79 42 15 be 84 bb e5 3d 3f 89 a0 3d
       0.15681422 -0.14576139 0.112174064 0.078386776
0003c0 19 09 2c be dc 01 03 be 05 82 01 3f f2 18 2d bd
       -0.16800345 -0.12793678 0.5058902 -0.042260118
0003d0 01 57 20 3e e9 d9 62 3d ad fa 1c bd 28 fc ce bd
       0.1565819 0.055383597 -0.038325 -0.10106689
0003e0 07 5b 14 ba 3d 03 c6 bd 7f ae 61 bc f7 5e a5 3e
       -0.0005659316 -0.096685864 -0.013774513 0.32299015
0003f0 af 49 02 3e 2b 8a 6b 3e 0b 1e 13 be 92 4d 1d 3d
       0.1272342 0.23001926 -0.14366929 0.038404055

layers_phi.1.bias f4 [128]
000000 1d 11 ca bd 1f bd 99 3d 6d ff 1e 3d e5 53 e2 bd
       -0.09866545 0.07506775 0.03881781 -0.11051158
000010 92 02 a1 bd 80 63 89 3d 0e d6 b7 3d 17 4c 9f 3d
       -0.078618184 0.06708431 0.089763746 0.07778185
000020 d6 77 0b 3c 4c 23 66 3c af 5d 52 bb f6 ab ef bd
       0.008512458 0.014046501 -0.0032099297 -0.11702721
000030 c0 1e d7 bd a3 30 c4 3d 35 33 49 3d 87 d3 72 bd
       -0.10503912 0.09579589 0.0491211 -0.05928376
000040 85 4a bb bc 8a bc 9b bc d8 42 9a 3b 60 cc ac bc
       -0.022862682 -0.0190108 0.0047076754 -0.021093547
000050 f4 7a f6 ba 6e ec 88 bd 3e b6 b8 bd c2 86 53 bd
       -0.0018804953 -0.066857204 -0.09019135 -0.051642187
000060 db 8b 52 3c 95 73 d9 bb 38 e6 12 bd 18 3e 97 bd
       0.012850727 -0.006636093 -0.035864085 -0.0738489
000070 8a 11 9f 3d 4f 9b 08 3c 8a 6b 96 3c f9 59 16 bc
       0.07767017 0.00833781 0.018361825 -0.009176725
000080 9d 47 d8 bc 58 21 36 3d c4 2a 53 3d 54 7f ea 3d
       -0.026401335 0.044465393 0.051554456 0.11450067
000090 8b 68 fc bc dd 54 17 bc e5 19 26 3b 18 9b 9c 3b
       -0.030811569 -0.009236542 0.0025345024 0.004779231
0000a0 bb 5a 81 bb ba f8 bb 3d 23 8b f8 bc 87 d2 e5 3d
       -0.0039475835 0.091783 -0.030339783 0.112217955
0000b0 01 a5 a0 bd 7c 87 85 bd 91 2a 69 bc 2f 83 17 bd
       -0.07843972 -0.06519982 -0.01423134 -0.03699034
0000c0 55 cb 25 bd f6 0a c2 bc 40 0b 8e 3d 33 be 75 3c
       -0.040477116 -0.023686867 0.069357395 0.01499896
0000d0 f7 e9 48 bd e6 b8 ca bc 59 68 dc 3b 7e d6 0d 3d
       -0.04905125 -0.02474637 0.0067263064 0.034628384
0000e0 a5 ee c3 3d 02 e0 c4 bd 8d 38 b3 3c 33 28 e0 3c
       0.09567002 -0.096130386 0.021877551 0.027362918
0000f0 b6 48 0a bc dc 2d 9b b9 d0 c3 1a 3d b8 2d 0f bd
       -0.008440187 -0.00029598072 0.037784398 -0.03495571
000100 74 29 12 bd 4d 99 8b 3d 96 38 32 bd e6 a0 01 3e
       -0.035684064 0.06816349 -0.043510996 0.12659034
000110 87 4b 95 3d 10 85 d7 3d 13 7f 8a bd 91 00 89 3d
       0.07289796 0.105234265 -0.06762519 0.06689561
000120 6d 6e 0c 3b 5d 52 a5 bd 2f ea 3f bd a9 74 83 3c
       0.0021428124 -0.0807235 -0.046854194 0.016046839
000130 8a 60 3d bc 4d 01 3b bd b6 40 4f bd cc da 25 3d
       -0.011558661 -0.045655537 -0.050598823 0.040491864
000140 a0 4a ff 3c ac 1a 16 bd 0e 29 73 bd 48 19 b8 3c
       0.031163514 -0.03664653 -0.059365325 0.022472993
000150 19 91 b2 bb cb 10 8a bd 83 d7 c2 3c 1f 1c 41 bc
       -0.005449426 -0.06741484 0.023784405 -0.01178649
000160 d5 73 1c 3d 18 33 a4 3d 5b 82 ed 3d 0e 54 d1 bc
       0.038196404 0.08017558 0.11597129 -0.025552776
000170 ff 7e d0 3c bd 53 75 3d 9b 1d a6 bc 61 80 ab bd
       0.025451181 0.059894312 -0.020277789 -0.08374096
000180 94 b5 0c bd 74 cc 2b 3d 11 13 0c bd dc 22 e9 3d
       -0.034352854 0.04194303 -0.03419787 0.11383602
000190 87 9c a8 3c 2a 4d 1c bd f3 4c 0a 3d 42 62 f4 bc
       0.02058245 -0.038159527 0.03376479 -0.02983201
0001a0 4e 45 06 3d 2e 20 a8 3b 14 e2 cd 3b 86 fe 59 bd
       0.032780938 0.0051307892 0.006283054 -0.053221248
0001b0 36 6d eb 3c 0b 3d c8 3d ef c0 56 bd 13 dd f4 bb
       0.0287386 0.09777268 -0.05243009 -0.007472643
0001c0 84 35 91 bd a7 6f a7 3d ca bc 0e 3e 09 6c 09 3e
       -0.070902854 0.08175593 0.13939205 0.13420118
0001d0 a2 38 2d 3c 43 5a b7 bc 1d 45 8d bc 43 14 96 bd
       0.010572584 -0.022381907 -0.01724487 -0.07328083
0001e0 ae 01 ef 3d a6 84 ab bd fa 28 a7 3d 53 35 c9 3c
       0.11670242 -0.0837491 0.081621125 0.02456156
0001f0 0d 09 02 be 7b 3f d6 3d 90 ec 9e 3c 8a 2e aa 3d
       -0.12698765 0.10461327 0.019399911 0.08309658

layers_phi.2.weight f4 [128, 128]
000000 d1 0a 96 bd 41 0c 09 bd 6a 54 5e 3c a0 a0 53 bc
       -0.07326282 -0.03345895 0.013569931 -0.012916714
000010 17 9a b9 bc 3d ba 7e bd 5b a3 38 bc 04 68 00 3e
       -0.022656484 -0.06218933 -0.011269416 0.12539679
000020 9b ff b1 3c f8 79 75 bc fa 34 76 bd 41 04 91 bd
       0.021728327 -0.014982693 -0.060109116 -0.070808895
000030 10 64 b5 bc 2d f5 c1 bd df 12 9e 3d 4e 2b 28 3e
       -0.02214244 -0.09470592 0.07718443 0.1642277
000040 e8 9e 83 bc 2f 96 06 be de f5 97 3d 1a bc 67 3b
       -0.016066983 -0.13143228 0.07419942 0.003535992
000050 9d fc f4 3d 7d 38 3b 3e 49 e9 f0 bd 81 09 b4 3d
       0.11962245 0.18283267 -0.117632456 0.08790875
000060 8c b7 52 bd ac c3 9f 3d 87 40 76 3d 64 8d f0 bc
       -0.051444575 0.07800993 0.06012013 -0.029364295
000070 87 f0 d4 3d e5 0e a1 3d 6f 64 97 bd 80 3c b9 bc
       0.103974395 0.07864169 -0.07392203 -0.022611856
000080 bf 86 47 bd 06 7b 9c bd 38 27 81 3e 9a 73 8b 3d
       -0.04871249 -0.07640652 0.25225234 0.068091586
000090 12 58 db 3d 23 12 6b 3d 5c e0 f0 bd 92 b7 7c bd
       0.107101575 0.057390343 -0.11761543 -0.061698504
0000a0 0f df 33 3d bb 05 1f be a0 90 5c bd df ef e8 bd
       0.043913897 -0.1552953 -0.053848863 -0.11373877
0000b0 f9 9d a2 bd d1 0c bf bd ba c6 a9 bd ab bd bd 3d
       -0.07940287 -0.093286164 -0.08289857 0.09264692
0000c0 79 87 b7 3d a1 8b 38 3e 23 2b 5d 3c fa af dd bd
       0.08961386 0.18022014 0.013499054 -0.108245805
0000d0 3a be 98 bd 50 72 f2 bd 5f 2d a0 3c ce 3c bb 3d
       -0.07458158 -0.1183821 0.019552885 0.09142457
0000e0 70 a1 ec bd e8 bc 47 3e 12 e1 13 3e 2e 62 2b 3d
       -0.11554229 0.19505656 0.14441326 0.04184168
0000f0 e2 e1 26 be 95 71 94 3d 4e ec 25 3e 33 8a d3 3c
       -0.16297105 0.072482266 0.16203424 0.025822734
000100 ed 7f c8 3d 30 af 59 bc 1e a3 f7 3d 0a 1e 67 bd
       0.09790025 -0.013286397 0.12091659 -0.05642513
000110 73 89 b7 bd 90 b9 a4 bc 12 0e d2 3d e0 01 aa 3d
       -0.08961763 -0.020108014 0.1025659 0.08301139
000120 38 23 c7 3d 46 80 a4 3c c6 f1 58 3c 5a 9c 3f bd
       0.09723514 0.020080697 0.013241237 -0.046779968
000130 db 68 35 3c c9 01 9d bc 39 4c 34 bd 04 2d 3d 3c
       0.011072363 -0.01916589 -0.044018004 0.011546377
000140 96 a1 e2 3d c9 ba e3 bd d7 cf 16 3d ea 06 b9 3b
       0.11065976 -0.11119611 0.036819305 0.005646576
000150 35 88 c6 bc 38 33 db 3d db ea 0d be f3 cd 0a 3c
       -0.02423487 0.107031286 -0.13859122 0.008471954
000160 54 97 3d 3d 40 12 02 bd 46 9a 11 3d 5a 5e 82 bd
       0.046286896 -0.031755686 0.035547517 -0.063656524
000170 14 48 64 3e fe e5 af bd 2c 2d 9a bd 9c 13 c4 bd
       0.2229312 -0.085887894 -0.07528147 -0.09574053
000180 21 20 bf bd e6 24 82 3d ad ab ff bc d7 a4 86 3c
       -0.093323 0.06354694 -0.031209791 0.016436024
000190 8d 17 ec bd 82 77 c6 3d 60 85 0e bd a0 61 01 be
       -0.115279295 0.09690763 -0.034795165 -0.12634897
0001a0 62 27 55 bc 35 3f c5 bd 0b f9 e0 bd 3c cf 8f bd
       -0.013009878 -0.096311964 -0.10985001 -0.07021949
0001b0 f2 23 89 3d f1 34 80 bb 5b e4 89 3d 10 fd cc 3d
       0.06696309 -0.003912561 0.067330085 0.10009205
0001c0 1f 19 59 3c 32 0c bc bd bb ad a4 3d 40 a4 a7 3d
       0.013250618 -0.091820136 0.08040949 0.08185625
0001d0 a1 f4 bc bd f4 ec a4 bd a7 45 9d 3c 4d d5 b9 3d
       -0.09226347 -0.08053008 0.019198252 0.09073887
0001e0 0f fd 6c 3d f4 6e 94 bd a9 0a 22 be a8 03 6c 3d
       0.057858523 -0.07247725 -0.15824379 0.057620674
0001f0 a4 bd d0 bd 86 02 d7 bd 71 05 f8 3b 6c 68 4d 3d
       -0.10192421 -0.10498528 0.007569008 0.050148413
000200 a9 1a ae bc 43 bd b5 3d 4a 01 ba 3d a8 b5 0a bd
       -0.021252947 0.088739894 0.09082277 -0.033864647
000210 e6 e8 d5 3b 41 9a 01 be 5d 06 06 be 74 52 44 bc
       0.006528008 -0.126565 -0.13088365 -0.011982549
000220 78 37 b3 3d f1 bb 44 bf 77 60 d2 bc d7 31 fd 3c
       0.08750814 -0.76849276 -0.025680764 0.030907555
000230 f7 4a ad 3c 32 a1 f1 bd bd b8 e1 3c 18 c1 49 bd
       0.02115391 -0.11798324 0.02755391 -0.049256414
000240 ce fa 2f be 68 dc 96 bc 5d 20 94 bc bb 79 2a 3d
       -0.17185518 -0.018415645 -0.018081838 0.041619997
000250 d4 9f 9a be db cc 48 bd 38 34 b7 bd e6 f6 66 3d
       -0.30200064 -0.04902349 -0.08945507 0.056387804
000260 c8 4b d2 3c cf 2e 64 3d 9c 38 c1 3d 8b 58 56 be
       0.025670901 0.055708703 0.094346255 -0.20932214
000270 6c be fd 3c 78 ef cd bb c6 1b a4 bc ae f6 85 bd
       0.03097459 -0.0062846504 -0.020032775 -0.06541191
000280 a9 ef 54 3d ed 1f 42 bc ec 04 de bc a6 96 93 bd
       0.05198637 -0.011848432 -0.027101956 -0.07206468
000290 8e 33 fb bd bb 00 1c 3d 5b 7d 0b ba 5e ed 47 3c
       -0.12265693 0.038086634 -0.00053211086 0.012202589
0002a0 88 77 0b 3e d6 e8 33 3b 9e eb b3 3b 87 1a 70 3e
       0.13619816 0.0027452013 0.0054907342 0.2344762
0002b0 a9 a2 de 3b d1 7a db bd db 43 c3 bc 1d a4 1f 3d
       0.006794293 -0.10716785 -0.023836067 0.03897487
0002c0 04 f5 3f 3c ba 32 ba 39 ac a3 15 bd 50 43 ac bc
       0.011716131 0.0003551448 -0.036533043 -0.02102819
0002d0 df 15 05 bd 7a 7c 6b 3e ec 72 d3 3c c3 5a f0 3b
       -0.03249156 0.22996703 0.025811635 0.0073350384
0002e0 c3 d7 a7 bd be 37 ba bd 3e 41 09 bd 02 9a 9e 3d
       -0.0819545 -0.09092663 -0.033509485 0.077442184
0002f0 0c 11 e8 3c 3b 44 d0 3d 9a a0 06 bd ea ab 6f 3d
       0.028328441 0.10169264 -0.032868005 0.05851356
000300 d9 45 a7 3e 33 51 b3 3d 76 a3 45 3e f2 30 74 bd
       0.32670477 0.08755722 0.19300637 -0.05961699
000310 d3 96 13 bd 17 e2 3c 3e fe ba f1 bc 2d 10 43 bd
       -0.03603251 0.18445621 -0.02950811 -0.04762285
000320 b1 e9 8d be e1 be ec 3d 6d e3 a2 be 9e ce 89 3c
       -0.27717355 0.11559845 -0.31814137 0.016822156
000330 27 3c 09 3d 38 6b 2c bc 2c b8 00 be 7c fe e1 3d
       0.03350463 -0.01052361 -0.12570256 0.11034867
000340 86 37 1f bd 0b 22 4c bd 08 95 51 bc 18 95 c2 3e
       -0.03887131 -0.049837153 -0.0127918795 0.38004375
000350 fc c2 0c 3d a8 1d bd 3c f4 62 8b bc 85 e7 3c bf
       0.03436564 0.02308543 -0.017014958 -0.7379077
000360 13 66 04 3d 9b 93 fc bd ce dd b1 bc c1 89 71 be
       0.032323908 -0.12332841 -0.02171221 -0.23587705
000370 0a ee b8 3d 68 c0 0e 3d 9c 93 b3 3b 94 7e 4a 3e
       0.09029777 0.03485146 0.005480243 0.19774848
000380 46 64 f6 3c cc ff e7 bd 40 12 54 3e 65 87 14 bb
       0.030077111 -0.11328086 0.20710087 -0.002266371
000390 9a ca 40 bd 92 d0 de bb 24 e7 2c bd 24 08 06 ba
       -0.047068216 -0.006799766 -0.04221262 -0.00051129074
0003a0 a3 f7 0e 3b ea 0a 79 be 64 74 5c be d7 9e 12 3c
       0.0021815083 -0.2432057 -0.21528774 0.008949003
0003b0 6e de d4 3e cc 66 9f bd 66 fb e8 bc 9b 87 80 3c
       0.4157595 -0.07783279 -0.028440189 0.015689662
0003c0 b8 ed 16 b9 2a 14 e7 3c 36 e0 71 3e 2a d0 1e 3d
       -0.00014393672 0.028207857 0.23620686 0.03877274
0003d0 46 3a 97 3c 18 77 2d bd 7d 0a 22 3d 64 70 b6 bc
       0.018460404 -0.042349905 0.039560784 -0.022270389
0003e0 ec 83 4a be 57 bd 0e be cf 1d 73 3e 06 92 f3 bc
       -0.19776887 -0.13939415 0.2374184 -0.029732715
0003f0 b9 39 30 be eb 57 c1 3c 19 64 dd 3d f6 dd 2a bd
       -0.1720952 0.023601493 0.10810108 -0.041715585

layers_phi.2.bias f4 [128]
000000 a8 59 81 bd 74 14 65 3c d0 95 8a bd bf 46 39 be
       -0.06315929 0.013981927 -0.06766856 -0.18093394
000010 72 f2 15 be fe ad 5a 3d 66 57 9a 3d c1 f3 45 be
       -0.14643267 0.053388588 0.07536201 -0.19331266
000020 1a b6 f0 3d ac 14 19 3e 66 8d 54 3d 15 5b 60 be
       0.11753483 0.14949292 0.05189266 -0.21909745
000030 89 41 8c bd 04 57 c2 3d 84 db ad 3d 30 cc 74 3d
       -0.06848437 0.09489253 0.08489135 0.05976504
000040 51 f7 89 3d c6 46 1a 3d 7a f3 12 be 77 a1 0c 3e
       0.06736625 0.03766515 -0.14350691 0.13733469
000050 40 1b b5 bc 26 6b a9 3d 9b 8f 73 3d 45 53 46 3c
       -0.02210772 0.0827239 0.059463125 0.012104814
000060 92 6b 4c 3d c2 fc fa 3c c2 a6 68 bd f1 2d db 3d
       0.049907275 0.030638102 -0.056799658 0.10702122
000070 0a 91 c1 bb 5a e6 d8 bc c3 6e ab bd a1 47 52 3e
       -0.0059071826 -0.026477028 -0.083707355 0.20535137
000080 a2 75 2e be 94 af 02 bd 3c 39 5e be 56 69 ab bd
       -0.17037061 -0.031905726 -0.2170152 -0.083697006
000090 5a 96 a7 3e dd df 92 bd 36 f4 95 bd 3b 5e 84 3d
       0.32731897 -0.07171605 -0.0732197 0.064632855
0000a0 ef 4a a0 3d bd dd eb 3c 94 50 99 bb 88 51 fc b8
       0.078267924 0.028792256 -0.004678795 -0.00012031483
0000b0 6c 82 a9 bd 02 58 81 3b 6a 39 f4 3d 5e d9 d8 bc
       -0.08276829 0.003947259 0.11925013 -0.026470836
0000c0 43 cd ba 3d f5 44 5b 3d 82 05 c6 bc 48 f3 e3 3d
       0.09121182 0.05353256 -0.024172548 0.111303866
0000d0 97 80 9a bb 31 a8 cc bc 21 03 74 bd 8e e8 c2 bd
       -0.004715036 -0.024982544 -0.059573296 -0.095170125
0000e0 f5 a4 2c 3d ee 4a 0a bb 1a 92 df bd 91 02 ce bd
       0.042149503 -0.002110179 -0.109165385 -0.10059083
0000f0 bb 64 bd bc 95 fc 1c 3e 59 9b 06 3e c9 27 f4 3d
       -0.023119321 0.15330727 0.13145198 0.11921651
000100 58 20 d9 bc 27 f2 2a 3e 19 4c 8f 3c 76 0c 28 bd
       -0.02650468 0.16693936 0.01749234 -0.04102751
000110 da a1 8f bd cb b3 90 bd 7c 27 38 3d 25 54 e1 bd
       -0.070132926 -0.07065543 0.04495953 -0.110023774
000120 87 9d 78 3d a8 e6 88 bc 84 ce 96 3c f1 d7 93 3d
       0.060697105 -0.016711548 0.018409021 0.07218922
000130 44 c5 a5 3c 9c 2d 8b be a9 2d 50 3d ca 54 11 3d
       0.020235665 -0.27183235 0.050824795 0.03548125
000140 74 00 a6 3d 47 e0 2f 3e b3 fb 84 bd c1 a0 7f 3c
       0.08105555 0.17175399 -0.0649332 0.015602292
000150 33 93 e3 bc 6e e1 d7 3c 0c ef f5 3b df 83 17 3e
       -0.027780151 0.02635261 0.0075053032 0.14796399
000160 d3 8d 70 bd a1 eb 60 3d 6d b3 b2 3d 89 a5 20 3e
       -0.058729004 0.054912213 0.08725629 0.15688147
000170 ca f4 63 bd 51 a1 a2 3d 96 86 5d 3d 0a 6e 39 3d
       -0.05565337 0.07940925 0.05408343 0.045270957
000180 36 ba 47 be 95 6a d6 3d 97 95 b6 3c 33 ba 56 bd
       -0.19504628 0.10469548 0.022288127 -0.052423667
000190 6a f1 03 3c 63 03 dd be d4 04 04 3e 4d fc 61 bd
       0.008053163 -0.43166646 0.12892467 -0.055172253
0001a0 c7 2d c5 3d a3 93 b6 bd 57 a8 61 bd 72 14 8d bd
       0.09627872 -0.08914878 -0.055092182 -0.06888665
0001b0 87 cd 11 bd 78 e4 b9 3c 63 90 14 3c d8 5c 2e bd
       -0.035596397 0.02269195 0.009067628 -0.04256901
0001c0 2e 03 b1 3d ba c4 be 3d bc f6 2f bd be 1c ec 3d
       0.086431846 0.09314866 -0.042959914 0.1152892
0001d0 cd 61 a1 3d 93 f2 af 3d f4 4a 0d 3e cd 75 8d 3d
       0.07879982 0.08591189 0.13798124 0.06907234
0001e0 45 b1 78 b9 39 d7 62 3d 8f c8 c4 3c 50 33 91 bd
       -0.00023717161 0.055381034 0.024021415 -0.07089865
0001f0 f4 40 55 bd 26 d4 55 3a 7b fc 2c 3d e7 34 34 3d
       -0.052063897 0.0008156918 0.04223297 0.043995764

layers_phi.3.weight f4 [128, 128]
000000 72 da 68 bc 65 68 d8 3d 08 d9 0a bd 59 e5 4f 3e
       -0.014212238 0.10566787 -0.033898383 0.20302333
000010 c4 c8 85 bd 26 00 06 bd 74 a1 62 bc 21 32 80 3c
       -0.06532434 -0.032714985 -0.013832439 0.015648903
000020 d9 55 49 bd 64 6c 71 3e f9 7e 27 bd 02 03 20 3d
       -0.049154136 0.23576504 -0.040892575 0.03906537
000030 74 7d e1 3c d6 1e 49 3d 9e 5b 8b ba cb 31 06 bd
       0.027525641 0.049101673 -0.0010632162 -0.03276233
000040 b4 62 ad 3d 16 ee eb 3c c2 9a 24 3d 60 06 1a be
       0.08466092 0.028800052 0.04018665 -0.15041494
000050 e1 a9 b5 3d 29 72 b2 3e 75 61 17 bd cf c8 0c ba
       0.088702925 0.34852722 -0.036958177 -0.0005370499
000060 af 9d 62 3d c5 93 08 bd 86 cf 37 3c bb 49 05 3e
       0.05532616 -0.03334405 0.011218911 0.13016407
000070 a1 ce e3 bb 3e d9 20 bc 11 01 e1 3d 41 5b 58 3c
       -0.0069521223 -0.00981742 0.109865315 0.01320535
000080 74 9d a7 bc 91 1a 13 bd 29 72 d0 bc 17 ad fb bd
       -0.020460822 -0.035914008 -0.02544506 -0.12288874
000090 29 3e 45 be 6d 71 7b 3d 84 b6 f6 bb 0e 32 72 bd
       -0.19261993 0.061387468 -0.007529082 -0.059129767
0000a0 2c ec 3b 3e 51 68 f0 bc 62 31 85 3e 80 be c6 3d
       0.18351811 -0.029346617 0.2601424 0.09704304
0000b0 c1 9a 38 bc 0d f5 79 3c 04 c1 f0 bd 70 05 15 bd
       -0.011267365 0.015256179 -0.11755565 -0.03638214
0000c0 eb 1a a8 bd a4 ac c9 3c bc 65 2a bc 5a 32 44 bd
       -0.08208259 0.024618454 -0.010400232 -0.04789958
0000d0 09 70 ba bd ed 9c e2 bd 85 b0 18 3d 2e 91 8c 3d
       -0.091034 -0.110650875 0.037277717 0.06863628
0000e0 4f b8 ba 3d ff 31 12 3e 1c 5a 83 3c 67 76 75 be
       0.09117185 0.14276884 0.016034178 -0.23970948
0000f0 2d eb a9 bd 96 13 f7 bb 5c eb 9a 3e ba a2 b8 3b
       -0.08296809 -0.0075401766 0.3025769 0.005634633
000100 93 48 37 3e 71 9b b6 bb e1 a9 f8 bd e8 82 ff 3d
       0.17898779 -0.0055727293 -0.12141777 0.1247614
000110 02 af 02 3e 9a 1b cf 3c fa 07 e2 bc a1 bb b9 ba
       0.12762073 0.025281716 -0.027591694 -0.0014170298
000120 58 bb 86 3d bd 23 9b be 31 43 83 3d 2f c9 19 be
       0.06578702 -0.30300704 0.064093 -0.15018152
000130 5a 0c 4e 3d a0 66 a7 bd 71 cc c5 3c f6 9f 0b be
       0.050304748 -0.08173871 0.024145337 -0.13635239
000140 d1 71 34 be 10 88 0b bc 2f 00 c3 bd 88 b9 96 bc
       -0.17621543 -0.008516327 -0.095215194 -0.018399015
000150 85 e5 e7 3b 69 ed 82 3e e9 01 e1 bc 05 1d 6b bc
       0.0070769214 0.25571755 -0.027466731 -0.0143501805
000160 81 a2 02 3d 9e 64 9e 39 68 73 76 3d f3 51 ce 3c
       0.031893257 0.00030211074 0.060168654 0.02518556
000170 76 d0 20 be 43 79 c0 3d bf 3a 65 3b c5 cf d7 bd
       -0.15704522 0.09398129 0.0034977642 -0.10537676
000180 9b a7 9a 3d e4 7f a2 3b 1a 1e 08 3c 28 e1 ac 3c
       0.075514995 0.0049590934 0.008307958 0.021103457
000190 80 3e be 3c e7 02 f5 3c 04 cc 01 bd ce 18 56 3d
       0.023223162 0.02990861 -0.031688705 0.05226975
0001a0 78 fe d3 bc de 10 72 bd 7f 1c 82 be 4d 64 2d be
       -0.025878176 -0.059098117 -0.25412366 -0.16932793
0001b0 29 5d ab be a7 72 24 bd da 09 9f 3d 60 b3 05 be
       -0.33469513 -0.040148403 0.07765551 -0.13056707
0001c0 66 78 83 3e a8 62 7c 3e a3 78 31 3d 9e f3 53 bc
       0.25677794 0.2464701 0.04332794 -0.012936501
0001d0 7b 94 42 be 8b eb a7 bc c9 b2 44 bd d1 59 2c 3e
       -0.19001953 -0.020498058 -0.048022065 0.16831137
0001e0 19 4d 99 bc 46 7c 9d bc 6e 68 72 3e db 41 96 3c
       -0.01871352 -0.019224297 0.2367265 0.01834195
0001f0 48 e1 37 3e 50 bd bc bb 12 f1 d5 bc d5 6b 97 3d
       0.17957032 -0.0057598725 -0.026115928 0.07393614
000200 aa 9c c1 bc 1b 97 6d be 19 15 97 bc c0 19 5f 3e
       -0.023634274 -0.23202173 -0.018442677 0.21787167
000210 ba 01 05 3e d7 3b 78 bd 2f 2c c5 bd b6 99 c8 3d
       0.1298894 -0.060603943 -0.09627568 0.09794943
000220 5d e6 0a be ec fb 01 bd 28 bd 57 bc 26 8a 05 bd
       -0.13564439 -0.031734392 -0.013167657 -0.03260245
000230 3a 43 28 3c ed 41 83 bc ca d1 95 3c 2f 84 06 3d
       0.010269934 -0.016022647 0.018288512 0.032840904
000240 f5 dd 01 be 68 1f 72 bd 70 4a 5f 3d 77 68 ba 3c
       -0.12682326 -0.059111983 0.05451435 0.02275489
000250 87 fd 83 3d 56 b2 5f bd 47 76 c5 3c da 8a f2 3d
       0.06444841 -0.054613434 0.02410425 0.1184289
000260 25 1c ae 3c 58 a7 99 bd eb bb 0c 3e d9 f0 1c be
       0.021253655 -0.075026214 0.1374356 -0.15326251
000270 f2 46 80 b9 61 0a c6 bd 6f ad 59 3d 86 8a 03 3d
       -0.0002446692 -0.09669948 0.053143915 0.032114528
000280 4b b3 a5 3d a6 77 f0 3c e5 6f d0 bd 52 0b 20 be
       0.08090838 0.029353928 -0.10177592 -0.15629318
000290 a1 4d fd 3c 9f 1d 2a 3e c3 2f dc bd 95 ce 69 bd
       0.030920805 0.16612862 -0.10751297 -0.057081778
0002a0 ba 9b 8e 3d 08 ca 21 bd e6 ef cd bd 5b 75 c1 3c
       0.06963296 -0.039499313 -0.100555226 0.02361553
0002b0 43 48 b3 bc 21 e5 72 3b 77 36 11 ba 40 10 44 bd
       -0.021885043 0.003706284 -0.0005539427 -0.04786706
0002c0 70 b6 d6 3d 0b 4f 3f 3d 37 bc 6f bd 9f 9b 0c 3d
       0.10484016 0.04670624 -0.058529105 0.0343281
0002d0 09 87 17 3d a3 a1 41 3e 8d 79 82 3c b4 76 0f 3e
       0.036994014 0.18909316 0.0159271 0.14010125
0002e0 e2 ce 9c bd 0f bd 44 be f7 11 33 3d b9 f9 a0 3d
       -0.07656647 -0.19212745 0.043718304 0.07860131
0002f0 fc 21 36 bd 87 af bb bd 1f cd be 3d ff b4 55 be
       -0.044466004 -0.091643386 0.093164675 -0.20869826
000300 e4 b7 14 bd ee 79 a9 bd 57 fc 18 be a2 0c 99 bd
       -0.036308184 -0.08275209 -0.1494001 -0.07473113
000310 a1 34 0c 3e 35 58 58 bd cf 56 18 3d 4b 7b 8b bd
       0.13691951 -0.052818496 0.037192162 -0.06810626
000320 2d c1 5e 3c 3e 97 24 3d de a1 85 3d 8e 60 0b 3d
       0.013595861 0.0401833 0.06525014 0.03402763
000330 12 05 1e bd a2 6f 73 3d e0 2d f2 3d f6 ae 31 bd
       -0.038579054 0.059432633 0.11825156 -0.043379746
000340 9f 36 71 bd 46 d0 12 be 3d ca 91 bd 7c 29 f6 3d
       -0.05888998 -0.14337263 -0.07118652 0.12019631
000350 83 04 8a 3d 2b af b0 3d 95 75 93 bd a7 bd 44 3e
       0.06739142 0.08627161 -0.07200161 0.19212972
000360 e5 9d 41 bc d8 7b ca bd a6 f9 be bd 80 56 f2 bd
       -0.01181743 -0.098869026 -0.093249604 -0.11832905
000370 5b ea 0a be a9 5f 5a 3e 9b c8 11 be e0 c7 49 be
       -0.13565962 0.21325554 -0.14236681 -0.19705153
000380 28 a4 26 3e 83 7a 56 bd 9d f8 48 3d 57 a3 e3 3d
       0.16273558 -0.05236293 0.04906522 0.11115139
000390 d9 9e ca 3d 1d 72 aa 3d 1e 95 30 3d 20 8d 61 bd
       0.09893579 0.08322547 0.04311096 -0.055066228
0003a0 37 1e e8 bc 10 95 41 be e8 47 22 be bd e8 b5 3d
       -0.02833472 -0.18904519 -0.15847743 0.08882282
0003b0 9b 16 4e 3e fb cf e0 bd 44 ee b4 3c 80 24 02 3d
       0.20125811 -0.10977169 0.02208627 0.03177309
0003c0 0a 93 d8 3d cd 02 8d 3d b7 3e 9d 3d cc 0f 37 3d
       0.105749205 0.068853 0.076779775 0.0446928
0003d0 dc c0 8f 3e 87 11 17 bd d7 6b 6c be cb 1e 9a bd
       0.28076828 -0.03688195 -0.23088013 -0.075254045
0003e0 cd 44 d0 bd 32 d5 7c be 3d 52 a9 bd 36 c1 a9 3c
       -0.10169373 -0.24690703 -0.08267639 0.020722013
0003f0 5f 44 9d 3d 4e 62 e3 bb b3 11 a7 bd f3 ee f0 bd
       0.076790564 -0.006939209 -0.08157673 -0.11764326

layers_phi.3.bias f4 [128]
000000 da 04 37 3d e3 c1 90 3c 91 e0 ce 3d 3b 30 e6 ba
       0.04468236 0.017670577 0.101014264 -0.0017561981
000010 96 39 9a 3c 80 9c c9 bc 6e bc ad 3d fb 1d b3 bd
       0.018826287 -0.024610758 0.08483206 -0.08745953
000020 c2 fd 94 bd 3e 94 56 bd 55 08 a1 3d dd 0c e2 bd
       -0.07274963 -0.05238747 0.07862917 -0.1103761
000030 36 c7 0d 3d 9e 1b d9 3c d7 fc 1a 3c 88 b0 af 3d
       0.03461381 0.026502427 0.009459696 0.085785925
000040 ee d5 80 3e d5 88 d2 bd e9 d1 8c 3d d3 98 36 3c
       0.25163215 -0.10280005 0.06875975 0.011144835
000050 79 ca bc 3c e5 6b 01 3d ba 89 05 be 45 0f aa 3c
       0.023045765 0.031597037 -0.1304082 0.020759234
000060 97 56 72 bd ea a0 0e 3d 74 57 d3 bd 52 fa 98 bd
       -0.05916461 0.03482143 -0.10319415 -0.0746962
000070 ba 66 4f 3c 63 9d 87 3d 5f b6 99 bd 8b f9 42 3d
       0.012658769 0.06621816 -0.07505488 0.047601264
000080 b0 3a 02 3e 1d 23 24 be b8 13 d3 bd 55 e8 25 bc
       0.127177 -0.1602902 -0.103064954 -0.010126193
000090 5c ca 18 be 06 ae 90 bd 61 13 73 3e 27 37 79 bd
       -0.14920944 -0.07064442 0.23737861 -0.060843613
0000a0 68 f4 06 3e cf e7 1b bd 67 aa c2 bd 93 90 9f 3d
       0.13179171 -0.038062867 -0.09505158 0.07791247
0000b0 ac 56 ab 3d 58 09 b5 bd 37 7b 03 3d e1 0e 81 bd
       0.08366141 -0.08839673 0.03209993 -0.06301666
0000c0 da d8 18 be ac d8 2c bd 6a c9 05 3d ae 73 01 3d
       -0.14926472 -0.042198822 0.032662787 0.03160446
0000d0 47 66 e6 3d 3c a5 00 3c 4e 95 4d bd 7c 88 39 3e
       0.112499766 0.007851895 -0.050191216 0.18118471
0000e0 63 a8 c3 ba 9a f7 cc bc 79 21 8c 3c 94 d2 ba 3d
       -0.0014927502 -0.02502041 0.017105805 0.09122196
0000f0 91 a2 02 3d 9c 9f 07 be 8b eb 59 ba ab 08 27 be
       0.031893317 -0.1324448 -0.00083129917 -0.163119
000100 e7 1d 73 3d 4b 3e a8 b9 00 3b d5 3d 25 b8 94 bd
       0.05935469 -0.0003208987 0.10411644 -0.07261685
000110 9b 7d db bb 96 33 d2 bd 51 7b 16 be b2 57 9f bb
       -0.006698323 -0.102637455 -0.14695479 -0.004862749
000120 d6 b6 08 be 6a c8 30 bd 72 54 e9 bd bd ac 82 3d
       -0.13350996 -0.04315988 -0.1139306 0.063806035
000130 6c dc ae bd 2b 9f 58 3d 08 24 e7 3c 6e 25 70 be
       -0.08538136 0.05288617 0.028215423 -0.23451778
000140 18 6f fb 3d 9d 28 b0 3c b5 ee bc bc 8a 6c c5 3d
       0.12277049 0.02150374 -0.023063043 0.09639843
000150 8e c2 16 bd 23 b1 29 bd 1a f3 94 bd 18 79 cc bc
       -0.036806636 -0.041428696 -0.072729304 -0.024960086
000160 4a 67 c4 3d 25 d1 d4 bd c9 ec db bd 60 56 80 3c
       0.09590013 -0.10391454 -0.107385226 0.015666187
000170 97 af 5c 3d 46 a4 30 3d 3b 1d f5 3b 9f 0f 24 3d
       0.053878393 0.043125413 0.007480291 0.04005396
000180 33 13 0d be b4 cc 01 3e a9 3b c8 3d e0 4f e6 bd
       -0.13776855 0.12675744 0.09777004 -0.11245704
000190 bb ed cd bd ef 55 b1 3d 5e 45 37 bd ea 3d 5b 3c
       -0.10055109 0.08658969 -0.044743888 0.013381461
0001a0 4a ef 00 bf 84 c8 d0 bd 9d e1 a2 bc 1f 7a 5e b9
       -0.50365126 -0.10194495 -0.019882971 -0.00021217063
0001b0 f3 ce 2f bd 83 2f 85 3d 40 36 6e 3d 18 f1 06 3e
       -0.04292197 0.06503203 0.058157206 0.13177907
0001c0 ea 4e cf 3d 71 2e 8c 3d 9e 68 cf bc 16 fc 16 bd
       0.101224735 0.068447955 -0.02531844 -0.0368615
0001d0 09 65 f5 3a 9a b1 c4 3c 1c 77 3c be 40 c7 8d bd
       0.0018722127 0.024010468 -0.18404812 -0.069227695
0001e0 36 79 b0 3d 4a 62 8c 3d 62 7d 22 3d 55 5b f8 bd
       0.08616869 0.06854685 0.039670356 -0.12126795
0001f0 1b 35 d1 bd 37 5c 23 bc 74 16 06 3e df d7 e3 3d
       -0.10215207 -0.009970716 0.13094503 0.111251585

layers_phi.4.weight f4 [128, 128]
000000 a9 0f 98 3d c8 68 91 bd 47 fc fb bc 8c fe 92 bd
       0.07424862 -0.071000636 -0.030759944 -0.07177457
000010 e9 b7 84 bd 55 99 6a 3d 24 96 d4 3d 8e 45 80 3d
       -0.064803906 0.057275135 0.103801996 0.062632665
000020 4b 91 ee bc 9f 35 1a 3c 35 91 bd bd 03 6e 93 bc
       -0.029122015 0.009412198 -0.09256212 -0.017996794
000030 98 88 84 3b 31 e5 9e 3d 06 ba 92 bd 00 a9 58 3d
       0.0040446036 0.077585585 -0.071643874 0.052895546
000040 10 bb 12 3d da c9 18 bd 1d 35 88 3c 16 84 0e be
       0.035822928 -0.037301876 0.016626889 -0.13917574
000050 29 be 32 3e 9b 84 d4 bb 40 72 c6 3d 4d 14 e9 3c
       0.17455353 -0.0064855344 0.0968976 0.028452063
000060 82 58 9e bd a3 18 e7 3d 95 3e 84 bd 9c 2a 43 3d
       -0.07731725 0.11283996 -0.06457249 0.047648057
000070 ff 2f f8 bc a4 10 84 3d 30 fd 25 bd 71 71 9e 3d
       -0.030296324 0.064484864 -0.04052466 0.07736481
000080 95 cb 21 bd ae 86 05 3e 9c 7d 9e 3d c5 80 25 3d
       -0.03950079 0.13039657 0.07738802 0.040406007
000090 99 f6 ae 3d ee 99 eb ba 68 b9 f5 bd 8b 52 cd bd
       0.085431285 -0.0017974952 -0.11998254 -0.100255094
0000a0 bb b1 92 bd 73 18 e0 bd 98 05 ba bd 2d 16 01 3c
       -0.07162806 -0.10942163 -0.09083098 0.007878822
0000b0 f4 04 bb 3d a0 22 87 bd 58 20 41 3e cf 91 b4 bb
       0.09131804 -0.06598401 0.18859994 -0.005510546
0000c0 01 af 2f be ab bf 36 be b4 74 8d 3d f7 08 b9 3d
       -0.17156602 -0.17846553 0.06907025 0.09034913
0000d0 55 98 2b bd c9 8a d8 3c fe f3 11 3d dd 4b 18 3d
       -0.041893322 0.026433365 0.03563308 0.037181724
0000e0 7a 18 6c 3d 06 bc c1 bd 2a 07 35 3e 67 dc df 3d
       0.05764053 -0.09459691 0.17678514 0.1093071
0000f0 f2 48 9d bd db 90 cc 39 46 01 16 3e 40 a4 8f bd
       -0.07679929 0.00039017838 0.14648923 -0.0701375
000100 fa 13 07 3d 96 ab 6a 3d 70 9c c6 3c 8e 9a 4f 3b
       0.032978036 0.057292543 0.024244517 0.0031677815
000110 c4 42 d8 3d bc 91 54 3d 85 b2 46 3b a6 e1 a3 3b
       0.105596095 0.051896796 0.0030318808 0.0050012646
000120 2c cc 37 3d 22 30 2d 3d d3 4b 07 bd c7 11 88 bc
       0.044872448 0.04228223 -0.033031296 -0.01661004
000130 4e 01 86 bd 2a 75 57 bd 22 ab 33 3e bb d0 77 bd
       -0.065432176 -0.05260197 0.1754575 -0.060501795
000140 f0 59 14 bd df 87 0d be 5e 02 cb 3d 16 f7 fb 3d
       -0.036218584 -0.13821362 0.09912561 0.12302987
000150 11 d1 ec bd f4 b8 d8 bb f0 0d e6 bc d1 e4 4a 3e
       -0.11563314 -0.006613845 -0.028082818 0.19813849
000160 ec f1 03 3d ec e9 c6 bd 68 05 6c bc 9c 74 cf 3d
       0.032213137 -0.09712586 -0.014405586 0.10129663
000170 16 ce 72 bc 1f c3 cd 3a e6 45 71 3c 76 fd 8c 3d
       -0.0148196425 0.0015698409 0.014726138 0.06884281
000180 35 87 4c 3d 0a 97 16 bc c1 90 cc 3c 05 66 9b 3d
       0.04993363 -0.009191284 0.024971368 0.07587818
000190 75 33 6a be 54 0d 74 bc 05 0a ac bd 74 f9 80 bd
       -0.22871192 -0.014895756 -0.084003486 -0.062975794
0001a0 e8 02 bf bd 79 da c1 3b 68 29 8e bd 9b 72 6a 3d
       -0.09326726 0.0059159365 -0.06941491 0.057238203
0001b0 fe 35 bf 3d b4 10 c5 bd e9 5c 4a 3e 6f 03 39 bd
       0.0933647 -0.096223265 0.19762005 -0.04516929
0001c0 01 da db 3c 70 5e c1 bd 92 ac d2 bc a6 7d 6a 3d
       0.02683735 -0.09441841 -0.025717054 0.057248734
0001d0 45 57 5f 3c e2 ad 9a bd bc af 2c 3b 2a 7c 66 3c
       0.0136316465 -0.07552697 0.0026349863 0.014067689
0001e0 ef 5e 04 3d b3 91 85 3c ef ec 2f 3d 85 a3 1c bd
       0.0323171 0.016304826 0.042950567 -0.038241882
0001f0 e3 e9 dc 3b 67 5a b1 bc 8d 32 9b 3d b7 1c 36 3e
       0.0067417487 -0.021649553 0.07578001 0.17784391
000200 3d 20 0a be 2c a3 50 be 1b cb c3 bd 14 e8 2c 3e
       -0.1348886 -0.20374745 -0.09560224 0.16885406
000210 ab 6a 2b 3e 90 cc 73 bd e1 fc 17 bd f4 9c c0 3d
       0.1673991 -0.059521258 -0.0371064 0.094049364
000220 62 b5 ad bd 0b 33 c7 bc 9a ec 4e be 84 22 9b be
       -0.08481862 -0.024316331 -0.20207444 -0.3029977
000230 38 6b 30 3c 37 ce bf 3d 25 f8 f1 3d ac 24 33 be
       0.01076775 0.09365504 0.11814908 -0.17494458
000240 51 ee 81 ba 73 b9 3a 3e 1e 38 c8 3d b3 d0 11 3d
       -0.0009912943 0.18234806 0.097763285 0.03559942
000250 67 c0 3a 3e e3 fe 87 3c af cd 7a 3e a0 13 5f be
       0.18237458 0.016601032 0.24492525 -0.2178483
000260 d1 c1 96 be 23 a3 86 bd 05 0d 36 be a2 93 38 3e
       -0.29444745 -0.065740846 -0.17778404 0.18025067
000270 43 e9 a7 bd f5 5f 99 bd 1b 81 05 be 93 8c 53 3e
       -0.08198788 -0.074890055 -0.13037531 0.20659094
000280 7c 24 ca bd 6e 5f 65 3e 6e 70 85 bd b5 5b 28 be
       -0.0987024 0.22399685 -0.06515585 -0.16441233
000290 40 92 0e 3b d0 c6 f3 bd 92 46 16 bd 1b 9d bc 3e
       0.0021754652 -0.11903155 -0.036688395 0.36838612
0002a0 21 c4 fc bb 3c 4c 80 be 92 7b 79 be 62 ff 9d bd
       -0.00771381 -0.25058162 -0.24363545 -0.07714726
0002b0 b3 8f 5b be 46 5e 16 3e 89 6b a9 bd 93 d9 73 3d
       -0.21441536 0.146844 -0.08272464 0.059533667
0002c0 a9 67 87 3d dc ee de 3d 42 0a 8f bc f8 0e c1 bd
       0.066115685 0.108854026 -0.017460946 -0.09426683
0002d0 df 99 50 3e f8 36 6d bd bd c5 0b 3e a4 66 5d bc
       0.20371197 -0.05791375 0.1364965 -0.013513241
0002e0 eb f3 66 bd 78 57 6b bd 32 46 f8 be f0 4d f8 3d
       -0.056384962 -0.057456464 -0.48491055 0.121242404
0002f0 69 97 a2 3c f7 4b 0e 3e 4d fe ee bd b0 2f de bd
       0.019847589 0.13896166 -0.11669598 -0.108489394
000300 e2 a8 df 3d cb 89 78 bd b6 9c bf be a2 bd b7 3d
       0.10920884 -0.060678285 -0.37424248 0.089717165
000310 d4 d8 5e 3c 11 50 cc bb d2 da 13 3e ac eb e0 bd
       0.013601501 -0.0062351306 0.14438942 -0.10982451
000320 db 95 53 3e 54 a8 df bc 09 b2 0a bd b2 80 09 3c
       0.20662634 -0.027301945 -0.033861194 0.0083925
000330 31 20 3a 3d ed 76 77 3e 8e f5 f0 be cd 71 29 3e
       0.045440856 0.2416646 -0.47062343 0.16547318
000340 5f dd da bd 53 5e 24 be 2c d9 9c bd 86 e6 f8 3d
       -0.106867544 -0.16051607 -0.0765861 0.12153344
000350 ba 1f 5d 3e fc 9e 1f 3e 73 db d8 bd c6 53 36 3d
       0.21594134 0.15587991 -0.105887316 0.044513486
000360 92 f2 02 be cf 68 91 3e 4b 5f 44 3e 7a 0d ab 3c
       -0.12787846 0.28400275 0.19176976 0.02088045
000370 b0 98 32 3d d7 b2 79 3d 8a 5c 04 3d af 22 ac 3c
       0.043602645 0.06096157 0.032314815 0.021012632
000380 5d f6 48 3e 71 54 04 3e 5c 28 65 3d 37 c4 fe 3d
       0.1962523 0.12922837 0.055946693 0.12439769
000390 c8 2e be 3e a1 14 69 be c5 c0 20 3e f9 18 02 be
       0.37145066 -0.22761776 0.15698536 -0.12704839
0003a0 f5 ed 81 3e d8 f9 6d be b2 e8 b6 3d 99 97 fd 3d
       0.2537686 -0.23239839 0.08931102 0.123824306
0003b0 34 bd 09 bd cd a1 10 3d 18 31 d1 3d b6 ca b9 bd
       -0.033627704 0.035310555 0.10214442 -0.09071867
0003c0 3f 3b 36 bd d2 82 e2 bd 23 5e fb bc f4 5a 40 3c
       -0.044490095 -0.11060108 -0.030684536 0.011740435
0003d0 51 e1 bc bd 5a 21 af bc f2 ee 47 3c c7 2d 61 bb
       -0.09222663 -0.021378208 0.012202965 -0.003435956
0003e0 fc d4 5c bd 06 fb 82 3d 24 da 07 bd 3b 2b 6f 3e
       -0.053914055 0.06395535 -0.03316702 0.23356335
0003f0 3f d7 03 3e f0 b4 ba 3c c6 9e 8e bd a4 a5 9f 3c
       0.12875079 0.022791356 -0.069638774 0.019488163
